[{"filename": ".github/workflows/integration-tests.yml", "status": "modified", "additions": 7, "deletions": 3, "changes": 10, "file_content_changes": "@@ -4,9 +4,13 @@ on:\n   workflow_dispatch:\n   pull_request:\n     branches:\n-      - master\n+      - main\n       - triton-mlir\n \n+concurrency:\n+  group: ${{ github.ref }}\n+  cancel-in-progress: ${{ github.ref != 'refs/heads/master' }}\n+\n jobs:\n   Runner-Preparation:\n     runs-on: ubuntu-latest\n@@ -55,8 +59,8 @@ jobs:\n         if: ${{ matrix.runner != 'macos-10.15' }}\n         run: |\n           pip install clang-format\n-          find . -regex '.*\\.\\(cpp\\|hpp\\|h\\|cc\\)' -not -path \"./python/build/*\" -not -path \"./include/triton/external/*\" -print0 | xargs -0 -n1 clang-format -style=file --dry-run -Werror -i ||\n-          (echo '::error title=Style issues:: Please run `find . -regex \".*\\.\\(cpp\\|hpp\\|h\\|cc\\)\" -not -path \"./python/build/*\" -not -path \"./include/triton/external/*\" -print0 | xargs -0 -n1 clang-format -style=file -i`' ; exit 1)\n+          find . -regex '.*\\.\\(cpp\\|hpp\\|h\\|cc\\)' -not -path \"./python/triton/*\" -not -path \"./python/build/*\" -not -path \"./include/triton/external/*\" -print0 | xargs -0 -n1 clang-format -style=file --dry-run -Werror -i ||\n+          (echo '::error title=Style issues:: Please run `find . -regex \".*\\.\\(cpp\\|hpp\\|h\\|cc\\)\" -not -path \"./python/triton/*\" -not -path \"./python/build/*\" -not -path \"./include/triton/external/*\" -print0 | xargs -0 -n1 clang-format -style=file -i`' ; exit 1)\n \n       - name: Flake8\n         if: ${{ matrix.runner != 'macos-10.15' }}"}, {"filename": ".github/workflows/wheels.yml", "status": "modified", "additions": 6, "deletions": 7, "changes": 13, "file_content_changes": "@@ -1,8 +1,8 @@\n name: Wheels\n on:\n   workflow_dispatch:\n-  schedule:    \n-    - cron: \"0 0 * * *\"\n+  #schedule:    \n+  #  - cron: \"0 0 * * *\"\n \n jobs:\n \n@@ -26,15 +26,14 @@ jobs:\n \n       - name: Build wheels\n         run: |\n-          export CIBW_MANYLINUX_X86_64_IMAGE=\"manylinux2014\"\n-          export CIBW_MANYLINUX_PYPY_X86_64_IMAGE=\"manylinux2014\"\n-          export CIBW_BEFORE_BUILD=\"pip install cmake;\\\n-                                    yum install -y llvm11 llvm11-devel llvm11-static llvm11-libs zlib-devel;\"\n+          export CIBW_MANYLINUX_X86_64_IMAGE=\"quay.io/pypa/manylinux2014_x86_64:latest\"\n+          #export CIBW_MANYLINUX_PYPY_X86_64_IMAGE=\"quay.io/pypa/manylinux2014_x86_64:latest\"\n+          export CIBW_BEFORE_BUILD=\"pip install cmake;\"\n           export CIBW_SKIP=\"{cp,pp}35-*\"\n           export CIBW_BUILD=\"{cp,pp}3*-manylinux_x86_64\"\n           python3 -m cibuildwheel python --output-dir wheelhouse\n \n \n       - name: Upload wheels to PyPI\n         run: |\n-          python3 -m twine upload wheelhouse/* --skip-existing\n\\ No newline at end of file\n+          python3 -m twine upload wheelhouse/* -u __token__ -p ${{ secrets.PYPY_API_TOKEN }}\n\\ No newline at end of file"}, {"filename": "CMakeLists.txt", "status": "modified", "additions": 21, "deletions": 13, "changes": 34, "file_content_changes": "@@ -1,4 +1,7 @@\n cmake_minimum_required(VERSION 3.6)\n+\n+cmake_policy(SET CMP0116 OLD)\n+\n include(ExternalProject)\n \n set(CMAKE_CXX_STANDARD 17)\n@@ -17,7 +20,6 @@ option(TRITON_BUILD_PYTHON_MODULE \"Build Python Triton bindings\" OFF)\n \n # Ensure Python3 vars are set correctly\n #  used conditionally in this file and by lit tests\n-find_package(Python3 REQUIRED COMPONENTS Development Interpreter)\n \n # Customized release build type with assertions: TritonRelBuildWithAsserts\n set(CMAKE_C_FLAGS_TRITONRELBUILDWITHASSERTS \"-O2 -g\")\n@@ -41,8 +43,8 @@ include_directories(${PYBIND11_INCLUDE_DIR})\n \n if(WIN32)\n     SET(BUILD_SHARED_LIBS OFF)\n-    include_directories(${CMAKE_CURRENT_SOURCE_DIR}/deps/dlfcn-win32/src)\n-    add_subdirectory(deps/dlfcn-win32/src ${CMAKE_BINARY_DIR}/dlfcn-win32)\n+    find_package(dlfcn-win32 REQUIRED)\n+    set(CMAKE_DL_LIBS dlfcn-win32::dl)\n endif()\n \n set(CMAKE_CXX_FLAGS \"${CMAKE_C_FLAGS} -D__STDC_FORMAT_MACROS  -fPIC -std=gnu++17 -fvisibility=hidden -fvisibility-inlines-hidden\")\n@@ -72,6 +74,8 @@ if (NOT MLIR_DIR)\n       find_package(LLVM 11 REQUIRED COMPONENTS \"nvptx;amdgpu\")\n     endif()\n     message(STATUS \"Found LLVM ${LLVM_PACKAGE_VERSION}\")\n+    # FindLLVM outputs LLVM_LIBRARY_DIRS but we expect LLVM_LIBRARY_DIR here\n+    set(LLVM_LIBRARY_DIR ${LLVM_LIBRARY_DIRS})\n     if(APPLE)\n       set(CMAKE_OSX_DEPLOYMENT_TARGET \"10.14\")\n     endif()\n@@ -146,14 +150,14 @@ if(TRITON_BUILD_PYTHON_MODULE)\n     if (PYTHON_INCLUDE_DIRS)\n       include_directories(${PYTHON_INCLUDE_DIRS})\n     else()\n+      find_package(Python3 REQUIRED COMPONENTS Development Interpreter)\n       include_directories(${Python3_INCLUDE_DIRS})\n       link_directories(${Python3_LIBRARY_DIRS})\n       link_libraries(${Python3_LIBRARIES})\n       add_link_options(${Python3_LINK_OPTIONS})\n     endif()\n endif()\n \n-\n # # Triton\n # file(GLOB_RECURSE LIBTRITON_SRC lib/*.cc)\n # if (WIN32 AND TRITON_BUILD_PYTHON_MODULE)\n@@ -198,8 +202,7 @@ get_property(conversion_libs GLOBAL PROPERTY MLIR_CONVERSION_LIBS)\n \n if(TRITON_BUILD_PYTHON_MODULE)\n   add_library(triton SHARED ${PYTHON_SRC})\n-\n-  target_link_libraries(triton\n+  set(TRITON_LIBRARIES\n     TritonAnalysis\n     TritonTransforms\n     TritonGPUTransforms\n@@ -210,24 +213,29 @@ if(TRITON_BUILD_PYTHON_MODULE)\n     # optimizations\n     MLIRPass\n     MLIRTransforms\n-    MLIRLLVMIR\n+    MLIRLLVMDialect\n     MLIRSupport\n     MLIRTargetLLVMIRExport\n     MLIRExecutionEngine\n     MLIRMathToLLVM\n     MLIRNVVMToLLVMIRTranslation\n     MLIRIR\n   )\n-\n-  target_link_options(triton PRIVATE ${LLVM_LDFLAGS})\n-\n   if(WIN32)\n-      target_link_libraries(triton PRIVATE ${LLVM_LIBRARIES} dl) # dl is from dlfcn-win32\n+    target_link_libraries(triton PRIVATE ${LLVM_LIBRARIES} ${CMAKE_DL_LIBS}\n+      ${TRITON_LIBRARIES}\n+    )\n   elseif(APPLE)\n-      target_link_libraries(triton ${LLVM_LIBRARIES} z)\n+    target_link_libraries(triton ${LLVM_LIBRARIES} z\n+      ${TRITON_LIBRARIES}\n+    )\n   else()\n-      target_link_libraries(triton ${LLVM_LIBRARIES} z stdc++fs)\n+    target_link_libraries(triton ${LLVM_LIBRARIES} z stdc++fs\n+      ${TRITON_LIBRARIES}\n+    )\n   endif()\n+  \n+  target_link_options(triton PRIVATE ${LLVM_LDFLAGS})\n endif()\n \n if(TRITON_BUILD_PYTHON_MODULE AND NOT WIN32)"}, {"filename": "bin/CMakeLists.txt", "status": "modified", "additions": 1, "deletions": 1, "changes": 2, "file_content_changes": "@@ -48,7 +48,7 @@ llvm_update_compile_flags(triton-translate)\n          # MLIR core\n          MLIROptLib\n          MLIRIR\n-         MLIRLLVMIR\n+         MLIRLLVMDialect\n          MLIRPass\n          MLIRSupport\n          MLIRTransforms"}, {"filename": "bin/FileCheck/FileCheck.cpp", "status": "modified", "additions": 3, "deletions": 0, "changes": 3, "file_content_changes": "@@ -19,6 +19,7 @@\n #include \"llvm/Support/CommandLine.h\"\n #include \"llvm/Support/InitLLVM.h\"\n #include \"llvm/Support/Process.h\"\n+#include \"llvm/Support/SourceMgr.h\"\n #include \"llvm/Support/WithColor.h\"\n #include \"llvm/Support/raw_ostream.h\"\n #include <cmath>\n@@ -360,6 +361,8 @@ static std::string GetCheckTypeAbbreviation(Check::FileCheckType Ty) {\n     return \"bad-not\";\n   case Check::CheckBadCount:\n     return \"bad-count\";\n+  case Check::CheckMisspelled:\n+    return \"misspelled\";\n   case Check::CheckNone:\n     llvm_unreachable(\"invalid FileCheckType\");\n   }"}, {"filename": "bin/triton-opt.cpp", "status": "modified", "additions": 3, "deletions": 3, "changes": 6, "file_content_changes": "@@ -8,7 +8,7 @@\n \n #include \"mlir/IR/Dialect.h\"\n #include \"mlir/InitAllPasses.h\"\n-#include \"mlir/Support/MlirOptMain.h\"\n+#include \"mlir/Tools/mlir-opt/MlirOptMain.h\"\n \n namespace mlir {\n namespace test {\n@@ -33,8 +33,8 @@ int main(int argc, char **argv) {\n   // TODO: register Triton & TritonGPU passes\n   mlir::DialectRegistry registry;\n   registry.insert<mlir::triton::TritonDialect,\n-                  mlir::triton::gpu::TritonGPUDialect, mlir::math::MathDialect,\n-                  mlir::arith::ArithmeticDialect, mlir::StandardOpsDialect,\n+                  mlir::triton::gpu::TritonGPUDialect, mlir::func::FuncDialect,\n+                  mlir::math::MathDialect, mlir::arith::ArithDialect,\n                   mlir::scf::SCFDialect, mlir::gpu::GPUDialect>();\n \n   return mlir::asMainReturnCode(mlir::MlirOptMain("}, {"filename": "bin/triton-translate.cpp", "status": "modified", "additions": 6, "deletions": 5, "changes": 11, "file_content_changes": "@@ -3,7 +3,7 @@\n #include \"mlir/IR/AsmState.h\"\n #include \"mlir/IR/BuiltinOps.h\"\n #include \"mlir/IR/Dialect.h\"\n-#include \"mlir/Parser.h\"\n+#include \"mlir/Parser/Parser.h\"\n #include \"mlir/Pass/Pass.h\"\n #include \"mlir/Pass/PassManager.h\"\n #include \"mlir/Support/FileUtilities.h\"\n@@ -36,9 +36,9 @@ OwningOpRef<ModuleOp> loadMLIRModule(llvm::StringRef inputFilename,\n   }\n \n   mlir::DialectRegistry registry;\n-  registry.insert<TritonDialect, triton::gpu::TritonGPUDialect,\n-                  mlir::math::MathDialect, arith::ArithmeticDialect,\n-                  StandardOpsDialect, scf::SCFDialect>();\n+  registry\n+      .insert<TritonDialect, triton::gpu::TritonGPUDialect,\n+              mlir::math::MathDialect, arith::ArithDialect, scf::SCFDialect>();\n \n   context.appendDialectRegistry(registry);\n \n@@ -50,7 +50,8 @@ OwningOpRef<ModuleOp> loadMLIRModule(llvm::StringRef inputFilename,\n     context.loadAllAvailableDialects();\n     context.allowUnregisteredDialects();\n \n-    OwningOpRef<ModuleOp> module(parseSourceFile(sourceMgr, &context));\n+    OwningOpRef<ModuleOp> module =\n+        parseSourceFile<ModuleOp>(sourceMgr, &context);\n     if (!module) {\n       llvm::errs() << \"Parse MLIR file failed.\";\n       return nullptr;"}, {"filename": "cmake/FindLLVM.cmake", "status": "modified", "additions": 5, "deletions": 7, "changes": 12, "file_content_changes": "@@ -33,14 +33,12 @@\n # We also want an user-specified LLVM_ROOT_DIR to take precedence over the\n # system default locations such as /usr/local/bin. Executing find_program()\n # multiples times is the approach recommended in the docs.\n-set(llvm_config_names llvm-config-12.0 llvm-config120 llvm-config-12 llvm-config-12-64\n-                      llvm-config-11.0 llvm-config110 llvm-config-11 llvm-config-11-64\n-                      llvm-config-10.0 llvm-config100 llvm-config-10 llvm-config-10-64\n-                      llvm-config-9.0 llvm-config90 llvm-config-9 llvm-config-9-64\n-                      llvm-config-8.0 llvm-config80 llvm-config-8 llvm-config-8-64\n-                      llvm-config-7.0 llvm-config70 llvm-config-7 llvm-config-7-64\n-                      llvm-config-6.0 llvm-config60\n+set(llvm_config_names llvm-config-6.0 llvm-config60\n                       llvm-config)\n+foreach(v RANGE 7 17)\n+    # names like llvm-config-7.0 llvm-config70 llvm-config-7 llvm-config-7-64\n+    list(PREPEND llvm_config_names llvm-config-${v}.0 llvm-config${v}0 llvm-config-${v} llvm-config-${v}-64)\n+endforeach()\n find_program(LLVM_CONFIG\n     NAMES ${llvm_config_names}\n     PATHS ${LLVM_ROOT_DIR}/bin NO_DEFAULT_PATH"}, {"filename": "docs/getting-started/tutorials/parallel_reduction.png", "status": "added", "additions": 0, "deletions": 0, "changes": 0, "file_content_changes": "N/A"}, {"filename": "include/triton/Analysis/Alias.h", "status": "modified", "additions": 21, "deletions": 6, "changes": 27, "file_content_changes": "@@ -2,7 +2,7 @@\n #define TRITON_ANALYSIS_ALIAS_H\n \n #include \"mlir/Analysis/AliasAnalysis.h\"\n-#include \"mlir/Analysis/DataFlowAnalysis.h\"\n+#include \"mlir/Analysis/DataFlow/SparseAnalysis.h\"\n #include \"llvm/ADT/DenseSet.h\"\n \n namespace mlir {\n@@ -21,14 +21,18 @@ class AliasInfo {\n   }\n \n   /// The pessimistic value state of a value without alias\n-  static AliasInfo getPessimisticValueState(MLIRContext *context) {\n+  static AliasInfo getPessimisticValueState(MLIRContext *context = nullptr) {\n     return AliasInfo();\n   }\n   static AliasInfo getPessimisticValueState(Value value) { return AliasInfo(); }\n \n   /// The union of both arguments\n   static AliasInfo join(const AliasInfo &lhs, const AliasInfo &rhs);\n \n+  void print(raw_ostream &os) const {\n+    llvm::interleaveComma(allocs, os, [&](Value alloc) { alloc.print(os); });\n+  }\n+\n private:\n   /// The set of allocated values that are aliased by this lattice.\n   /// For now, we only consider aliased value produced by the following\n@@ -58,9 +62,13 @@ class AliasInfo {\n //===----------------------------------------------------------------------===//\n // Shared Memory Alias Analysis\n //===----------------------------------------------------------------------===//\n-class SharedMemoryAliasAnalysis : public ForwardDataFlowAnalysis<AliasInfo> {\n+class SharedMemoryAliasAnalysis\n+    : public dataflow::SparseDataFlowAnalysis<dataflow::Lattice<AliasInfo>> {\n public:\n-  using ForwardDataFlowAnalysis<AliasInfo>::ForwardDataFlowAnalysis;\n+  using dataflow::SparseDataFlowAnalysis<\n+      dataflow::Lattice<AliasInfo>>::SparseDataFlowAnalysis;\n+  using dataflow::SparseDataFlowAnalysis<\n+      dataflow::Lattice<AliasInfo>>::getLatticeElement;\n \n   /// XXX(Keren): Compatible interface with MLIR AliasAnalysis for future use.\n   /// Given two values, returns their aliasing behavior.\n@@ -69,10 +77,17 @@ class SharedMemoryAliasAnalysis : public ForwardDataFlowAnalysis<AliasInfo> {\n   /// Returns the modify-reference behavior of `op` on `location`.\n   ModRefResult getModRef(Operation *op, Value location);\n \n+  void setToEntryState(dataflow::Lattice<AliasInfo> *lattice) override {\n+    propagateIfChanged(\n+        lattice, lattice->join(\n+                     AliasInfo::getPessimisticValueState(lattice->getPoint())));\n+  }\n+\n   /// Computes if the alloc set of the results are changed.\n-  ChangeResult\n+  void\n   visitOperation(Operation *op,\n-                 ArrayRef<LatticeElement<AliasInfo> *> operands) override;\n+                 ArrayRef<const dataflow::Lattice<AliasInfo> *> operands,\n+                 ArrayRef<dataflow::Lattice<AliasInfo> *> results) override;\n };\n \n } // namespace mlir"}, {"filename": "include/triton/Analysis/Allocation.h", "status": "modified", "additions": 9, "deletions": 6, "changes": 15, "file_content_changes": "@@ -67,12 +67,12 @@ class Allocation {\n \n   /// Returns the offset of the given buffer in the shared memory.\n   size_t getOffset(BufferId bufferId) const {\n-    return bufferSet.lookup(bufferId).offset;\n+    return bufferSet.at(bufferId).offset;\n   }\n \n   /// Returns the size of the given buffer in the shared memory.\n   size_t getAllocatedSize(BufferId bufferId) const {\n-    return bufferSet.lookup(bufferId).size;\n+    return bufferSet.at(bufferId).size;\n   }\n \n   /// Returns the buffer id of the given value.\n@@ -115,8 +115,8 @@ class Allocation {\n   bool isIntersected(BufferId lhsId, BufferId rhsId) const {\n     if (lhsId == InvalidBufferId || rhsId == InvalidBufferId)\n       return false;\n-    auto lhsBuffer = bufferSet.lookup(lhsId);\n-    auto rhsBuffer = bufferSet.lookup(rhsId);\n+    auto lhsBuffer = bufferSet.at(lhsId);\n+    auto rhsBuffer = bufferSet.at(rhsId);\n     return lhsBuffer.intersects(rhsBuffer);\n   }\n \n@@ -137,7 +137,8 @@ class Allocation {\n     bool operator<(const BufferT &other) const { return id < other.id; }\n \n     BufferT() : BufferT(BufferKind::Explicit) {}\n-    BufferT(BufferKind kind) : BufferT(kind, 0, 0) {}\n+    BufferT(BufferKind kind)\n+        : kind(kind), id(InvalidBufferId), size(0), offset(0) {}\n     BufferT(BufferKind kind, size_t size) : BufferT(kind, size, 0) {}\n     BufferT(BufferKind kind, size_t size, size_t offset)\n         : kind(kind), id(nextId++), size(size), offset(offset) {}\n@@ -156,7 +157,7 @@ class Allocation {\n   /// Value -> Alias Buffer\n   using AliasBufferMapT = llvm::MapVector<Value, llvm::SetVector<BufferT *>>;\n   /// BufferId -> Buffer\n-  using BufferSetT = DenseMap<BufferId, BufferT>;\n+  using BufferSetT = std::map<BufferId, BufferT>;\n   /// Runs allocation analysis on the given top-level operation.\n   void run();\n \n@@ -187,6 +188,8 @@ class Allocation {\n   friend class triton::AllocationAnalysis;\n };\n \n+template <typename T> Interval(T, T) -> Interval<T>;\n+\n } // namespace mlir\n \n #endif // TRITON_ANALYSIS_ALLOCATION_H"}, {"filename": "include/triton/Analysis/AxisInfo.h", "status": "modified", "additions": 188, "deletions": 38, "changes": 226, "file_content_changes": "@@ -1,69 +1,101 @@\n #ifndef TRITON_ANALYSIS_AXISINFO_H\n #define TRITON_ANALYSIS_AXISINFO_H\n \n-#include \"mlir/Analysis/DataFlowAnalysis.h\"\n+#include \"mlir/Analysis/DataFlow/SparseAnalysis.h\"\n #include \"llvm/Support/raw_ostream.h\"\n-#include <iostream>\n \n+#include \"mlir/Support/LLVM.h\"\n+#include \"triton/Analysis/Utility.h\"\n #include \"triton/Dialect/Triton/IR/Dialect.h\"\n #include \"triton/Dialect/TritonGPU/IR/Dialect.h\"\n \n+#include <optional>\n+#include <type_traits>\n+\n namespace mlir {\n \n //===----------------------------------------------------------------------===//\n // AxisInfo\n //===----------------------------------------------------------------------===//\n \n /// This lattice value represents known information on the axes of a lattice.\n-/// Axis information is represented by a std::map<int, int>\n class AxisInfo {\n public:\n-  typedef SmallVector<int, 4> DimVectorT;\n+  typedef SmallVector<int64_t, 4> DimVectorT;\n \n public:\n-  // Default constructor\n+  /// Default constructor\n   AxisInfo() : AxisInfo({}, {}, {}) {}\n-  // Construct contiguity info with known contiguity\n+  /// Construct contiguity info with known contiguity\n   AxisInfo(DimVectorT knownContiguity, DimVectorT knownDivisibility,\n            DimVectorT knownConstancy)\n+      : AxisInfo(knownContiguity, knownDivisibility, knownConstancy, {}) {}\n+  AxisInfo(DimVectorT knownContiguity, DimVectorT knownDivisibility,\n+           DimVectorT knownConstancy, std::optional<int64_t> knownConstantValue)\n       : contiguity(knownContiguity), divisibility(knownDivisibility),\n-        constancy(knownConstancy), rank(contiguity.size()) {\n-    assert(knownDivisibility.size() == (size_t)rank);\n-    assert(knownConstancy.size() == (size_t)rank);\n+        constancy(knownConstancy), constantValue(knownConstantValue),\n+        rank(contiguity.size()) {\n+    assert(knownContiguity.size() == static_cast<size_t>(rank));\n+    assert(knownDivisibility.size() == static_cast<size_t>(rank));\n+    assert(knownConstancy.size() == static_cast<size_t>(rank));\n   }\n \n-  // Accessors\n-  int getContiguity(size_t d) const { return contiguity[d]; }\n+  /// Accessors\n+  int64_t getContiguity(size_t dim) const { return contiguity[dim]; }\n   const DimVectorT &getContiguity() const { return contiguity; }\n \n-  int getDivisibility(size_t d) const { return divisibility[d]; }\n+  int64_t getDivisibility(size_t dim) const { return divisibility[dim]; }\n   const DimVectorT &getDivisibility() const { return divisibility; }\n \n-  int getConstancy(size_t d) const { return constancy[d]; }\n+  int64_t getConstancy(size_t dim) const { return constancy[dim]; }\n   const DimVectorT &getConstancy() const { return constancy; }\n \n   int getRank() const { return rank; }\n \n-  // Comparison\n+  std::optional<int64_t> getConstantValue() const { return constantValue; }\n+\n+  /// Comparison\n   bool operator==(const AxisInfo &other) const {\n     return (contiguity == other.contiguity) &&\n            (divisibility == other.divisibility) &&\n-           (constancy == other.constancy);\n+           (constancy == other.constancy) &&\n+           (constantValue == other.constantValue) && (rank == other.rank);\n   }\n \n   /// The pessimistic value state of the contiguity is unknown.\n-  static AxisInfo getPessimisticValueState(MLIRContext *context) {\n+  static AxisInfo getPessimisticValueState(MLIRContext *context = nullptr) {\n     return AxisInfo();\n   }\n   static AxisInfo getPessimisticValueState(Value value);\n \n-  // The gcd of both arguments for each dimension\n+  /// The gcd of both arguments for each dimension\n   static AxisInfo join(const AxisInfo &lhs, const AxisInfo &rhs);\n \n+  void print(raw_ostream &os) const {\n+    auto print = [&](StringRef name, DimVectorT vec) {\n+      os << name << \" = [\";\n+      llvm::interleaveComma(vec, os);\n+      os << \"]\";\n+    };\n+    print(\"contiguity\", contiguity);\n+    print(\", divisibility\", divisibility);\n+    print(\", constancy\", constancy);\n+    os << \", constant_value = \";\n+    if (constantValue)\n+      os << *constantValue;\n+    else\n+      os << \"<none>\";\n+  }\n+\n private:\n   /// The _contiguity_ information maps the `d`-th\n   /// dimension to the length of the shortest\n-  /// sequence of contiguous integers along it\n+  /// sequence of contiguous integers along it.\n+  /// Suppose we have an array of N elements,\n+  /// with a contiguity value C,\n+  /// the array can be divided into a list of\n+  /// N/C sequences of C contiguous elements.\n+  /// Since we have N = 2^k, C must be a power of two.\n   /// For example:\n   /// [10, 11, 12, 13, 18, 19, 20, 21]\n   /// [20, 21, 22, 23, 28, 29, 30, 31]\n@@ -97,42 +129,160 @@ class AxisInfo {\n   /// dimension to the length of the shortest\n   /// sequence of constant integer along it. This is\n   /// particularly useful to infer the contiguity\n-  /// of operations (e.g., add) involving a constant\n+  /// of operations (e.g., add) involving a constant.\n+  /// Suppose we have an array of N elements,\n+  /// with a constancy value C,\n+  /// the array can be divided into a list of\n+  /// N/C sequences of C elements with the same value.\n+  /// Since we have N = 2^k, C must be a power of two.\n   /// For example\n   /// [8, 8, 8, 8, 12, 12, 12, 12]\n   /// [16, 16, 16, 16, 20, 20, 20, 20]\n   /// would have constancy [1, 4]\n   DimVectorT constancy;\n \n+  /// The constant value of the lattice if we can infer it.\n+  std::optional<int64_t> constantValue;\n+\n   // number of dimensions of the lattice\n-  int rank;\n+  int rank{};\n };\n \n-class AxisInfoAnalysis : public ForwardDataFlowAnalysis<AxisInfo> {\n+class AxisInfoVisitor {\n+public:\n+  AxisInfoVisitor() = default;\n+  virtual ~AxisInfoVisitor() = default;\n \n-private:\n-  static const int maxPow2Divisor = 65536;\n+  static bool isContiguousDim(const AxisInfo &info, ArrayRef<int64_t> shape,\n+                              int dim) {\n+    return info.getContiguity(dim) == shape[dim];\n+  }\n \n-  int highestPowOf2Divisor(int n) {\n-    if (n == 0)\n-      return maxPow2Divisor;\n-    return (n & (~(n - 1)));\n+  static bool isConstantDim(const AxisInfo &info, ArrayRef<int64_t> shape,\n+                            int dim) {\n+    return info.getConstancy(dim) == shape[dim];\n   }\n \n-  AxisInfo visitBinaryOp(\n-      Operation *op, AxisInfo lhsInfo, AxisInfo rhsInfo,\n-      const std::function<int(AxisInfo, AxisInfo, int)> &getContiguity,\n-      const std::function<int(AxisInfo, AxisInfo, int)> &getDivisibility,\n-      const std::function<int(AxisInfo, AxisInfo, int)> &getConstancy);\n+  virtual AxisInfo\n+  getAxisInfo(Operation *op,\n+              ArrayRef<const dataflow::Lattice<AxisInfo> *> operands) = 0;\n+\n+  virtual bool match(Operation *op) = 0;\n+};\n+\n+/// Base class for all operations\n+template <typename OpTy> class AxisInfoVisitorImpl : public AxisInfoVisitor {\n+public:\n+  using AxisInfoVisitor::AxisInfoVisitor;\n+\n+  AxisInfo\n+  getAxisInfo(Operation *op,\n+              ArrayRef<const dataflow::Lattice<AxisInfo> *> operands) final {\n+    return getAxisInfo(cast<OpTy>(op), operands);\n+  }\n+\n+  bool match(Operation *op) final { return isa<OpTy>(op); }\n+\n+  virtual AxisInfo\n+  getAxisInfo(OpTy op, ArrayRef<const dataflow::Lattice<AxisInfo> *> operands) {\n+    llvm_unreachable(\"Unimplemented getAxisInfo\");\n+  }\n+};\n+\n+/// Binary operations\n+template <typename OpTy>\n+class BinaryOpVisitorImpl : public AxisInfoVisitorImpl<OpTy> {\n+public:\n+  using AxisInfoVisitorImpl<OpTy>::AxisInfoVisitorImpl;\n+\n+  AxisInfo\n+  getAxisInfo(OpTy op,\n+              ArrayRef<const dataflow::Lattice<AxisInfo> *> operands) override {\n+    auto lhsInfo = operands[0]->getValue();\n+    auto rhsInfo = operands[1]->getValue();\n+    auto rank = lhsInfo.getRank();\n+    assert(operands.size() == 2 && \"Expected two operands\");\n+    AxisInfo::DimVectorT contiguity;\n+    AxisInfo::DimVectorT divisibility;\n+    AxisInfo::DimVectorT constancy;\n+    auto constantValue = getConstantValue(op, lhsInfo, rhsInfo);\n+    for (auto d = 0; d < rank; ++d) {\n+      if (constantValue.has_value()) {\n+        contiguity.push_back(1);\n+        constancy.push_back(\n+            std::max(lhsInfo.getConstancy(d), rhsInfo.getConstancy(d)));\n+        divisibility.push_back(highestPowOf2Divisor(constantValue.value()));\n+      } else {\n+        contiguity.push_back(getContiguity(op, lhsInfo, rhsInfo, d));\n+        constancy.push_back(getConstancy(op, lhsInfo, rhsInfo, d));\n+        divisibility.push_back(getDivisibility(op, lhsInfo, rhsInfo, d));\n+      }\n+    }\n+    return AxisInfo(contiguity, divisibility, constancy, constantValue);\n+  }\n+\n+protected:\n+  virtual int64_t getContiguity(OpTy op, const AxisInfo &lhs,\n+                                const AxisInfo &rhs, int dim) {\n+    return 1;\n+  }\n+\n+  virtual int64_t getDivisibility(OpTy op, const AxisInfo &lhs,\n+                                  const AxisInfo &rhs, int dim) {\n+    return 1;\n+  }\n+\n+  virtual int64_t getConstancy(OpTy op, const AxisInfo &lhs,\n+                               const AxisInfo &rhs, int dim) {\n+    return 1;\n+  }\n+\n+  virtual std::optional<int64_t> getConstantValue(OpTy op, const AxisInfo &lhs,\n+                                                  const AxisInfo &rhs) {\n+    return {};\n+  }\n+};\n+\n+class AxisInfoVisitorList {\n+public:\n+  template <typename... Ts, typename = std::enable_if_t<sizeof...(Ts) != 0>>\n+  void append() {\n+    (visitors.emplace_back(std::make_unique<Ts>()), ...);\n+  }\n+\n+  AxisInfo apply(Operation *op,\n+                 ArrayRef<const dataflow::Lattice<AxisInfo> *> operands) {\n+    for (auto &visitor : visitors)\n+      if (visitor->match(op))\n+        return visitor->getAxisInfo(op, operands);\n+    return AxisInfo();\n+  }\n+\n+private:\n+  std::vector<std::unique_ptr<AxisInfoVisitor>> visitors;\n+};\n+\n+class AxisInfoAnalysis\n+    : public dataflow::SparseDataFlowAnalysis<dataflow::Lattice<AxisInfo>> {\n+private:\n+  AxisInfoVisitorList visitors;\n+\n+  void setToEntryState(dataflow::Lattice<AxisInfo> *lattice) override {\n+    propagateIfChanged(\n+        lattice,\n+        lattice->join(AxisInfo::getPessimisticValueState(lattice->getPoint())));\n+  }\n \n public:\n-  using ForwardDataFlowAnalysis<AxisInfo>::ForwardDataFlowAnalysis;\n+  AxisInfoAnalysis(DataFlowSolver &solver);\n+  using dataflow::SparseDataFlowAnalysis<\n+      dataflow::Lattice<AxisInfo>>::getLatticeElement;\n \n-  ChangeResult\n-  visitOperation(Operation *op,\n-                 ArrayRef<LatticeElement<AxisInfo> *> operands) override;\n+  void visitOperation(Operation *op,\n+                      ArrayRef<const dataflow::Lattice<AxisInfo> *> operands,\n+                      ArrayRef<dataflow::Lattice<AxisInfo> *> results) override;\n \n-  unsigned getPtrVectorSize(Value ptr);\n+  unsigned getPtrContiguity(Value ptr);\n \n   unsigned getPtrAlignment(Value ptr);\n \n@@ -141,4 +291,4 @@ class AxisInfoAnalysis : public ForwardDataFlowAnalysis<AxisInfo> {\n \n } // namespace mlir\n \n-#endif\n\\ No newline at end of file\n+#endif"}, {"filename": "include/triton/Analysis/Membar.h", "status": "modified", "additions": 26, "deletions": 17, "changes": 43, "file_content_changes": "@@ -36,28 +36,29 @@ class MembarAnalysis {\n   void run();\n \n private:\n-  struct RegionInfo {\n+  struct BlockInfo {\n     using BufferIdSetT = Allocation::BufferIdSetT;\n \n     BufferIdSetT syncReadBuffers;\n     BufferIdSetT syncWriteBuffers;\n \n-    RegionInfo() = default;\n-    RegionInfo(const BufferIdSetT &syncReadBuffers,\n-               const BufferIdSetT &syncWriteBuffers)\n+    BlockInfo() = default;\n+    BlockInfo(const BufferIdSetT &syncReadBuffers,\n+              const BufferIdSetT &syncWriteBuffers)\n         : syncReadBuffers(syncReadBuffers), syncWriteBuffers(syncWriteBuffers) {\n     }\n \n-    /// Unions two RegionInfo objects.\n-    void join(const RegionInfo &other) {\n+    /// Unions two BlockInfo objects.\n+    BlockInfo &join(const BlockInfo &other) {\n       syncReadBuffers.insert(other.syncReadBuffers.begin(),\n                              other.syncReadBuffers.end());\n       syncWriteBuffers.insert(other.syncWriteBuffers.begin(),\n                               other.syncWriteBuffers.end());\n+      return *this;\n     }\n \n-    /// Returns true if buffers in two RegionInfo objects are intersected.\n-    bool isIntersected(const RegionInfo &other, Allocation *allocation) const {\n+    /// Returns true if buffers in two BlockInfo objects are intersected.\n+    bool isIntersected(const BlockInfo &other, Allocation *allocation) const {\n       return /*RAW*/ isIntersected(syncWriteBuffers, other.syncReadBuffers,\n                                    allocation) ||\n              /*WAR*/\n@@ -74,6 +75,14 @@ class MembarAnalysis {\n       syncWriteBuffers.clear();\n     }\n \n+    /// Compares two BlockInfo objects.\n+    bool operator==(const BlockInfo &other) const {\n+      return syncReadBuffers == other.syncReadBuffers &&\n+             syncWriteBuffers == other.syncWriteBuffers;\n+    }\n+\n+    bool operator!=(const BlockInfo &other) const { return !(*this == other); }\n+\n   private:\n     /// Returns true if buffers in two sets are intersected.\n     bool isIntersected(const BufferIdSetT &lhs, const BufferIdSetT &rhs,\n@@ -99,19 +108,19 @@ class MembarAnalysis {\n   ///        op5\n   ///        op6\n   ///   op7\n-  /// region2 and region3 started with the information of region1.\n-  /// Each region is analyzed separately and keeps their own copy of the\n-  /// information. At op7, we union the information of the region2 and region3\n-  /// and update the information of region1.\n-  void dfsOperation(Operation *operation, RegionInfo *blockInfo,\n-                    OpBuilder *builder);\n+  /// TODO: Explain why we don't use ForwardAnalysis:\n+  void resolve(Operation *operation, OpBuilder *builder);\n+\n+  /// Updates the BlockInfo operation based on the operation.\n+  void update(Operation *operation, BlockInfo *blockInfo, OpBuilder *builder);\n \n-  /// Updates the RegionInfo operation based on the operation.\n-  void transfer(Operation *operation, RegionInfo *blockInfo,\n-                OpBuilder *builder);\n+  /// Collects the successors of the terminator\n+  void visitTerminator(Operation *operation, SmallVector<Block *> &successors);\n \n private:\n   Allocation *allocation;\n+  DenseMap<Block *, BlockInfo> inputBlockInfoMap;\n+  DenseMap<Block *, BlockInfo> outputBlockInfoMap;\n };\n \n } // namespace mlir"}, {"filename": "include/triton/Analysis/Utility.h", "status": "modified", "additions": 31, "deletions": 1, "changes": 32, "file_content_changes": "@@ -1,6 +1,8 @@\n #ifndef TRITON_ANALYSIS_UTILITY_H\n #define TRITON_ANALYSIS_UTILITY_H\n \n+#include \"mlir/Analysis/DataFlowFramework.h\"\n+#include \"mlir/Analysis/SliceAnalysis.h\"\n #include \"triton/Dialect/TritonGPU/IR/Dialect.h\"\n #include <algorithm>\n #include <numeric>\n@@ -11,7 +13,7 @@ namespace mlir {\n class ReduceOpHelper {\n public:\n   explicit ReduceOpHelper(triton::ReduceOp op) : op(op) {\n-    srcTy = op.operand().getType().cast<RankedTensorType>();\n+    srcTy = op.getOperand().getType().cast<RankedTensorType>();\n   }\n \n   ArrayRef<int64_t> getSrcShape() { return srcTy.getShape(); }\n@@ -77,6 +79,34 @@ SmallVector<RES_T> reorder(ArrayRef<T> input, ArrayRef<unsigned> order) {\n   return result;\n }\n \n+template <typename T> T highestPowOf2Divisor(T n) {\n+  if (n == 0) {\n+    return (static_cast<T>(1) << (sizeof(T) * 8 - 2));\n+  }\n+  return (n & (~(n - 1)));\n+}\n+\n+bool isSingleValue(Value value);\n+\n+bool isMmaToDotShortcut(triton::gpu::MmaEncodingAttr &mmaLayout,\n+                        triton::gpu::DotOperandEncodingAttr &dotOperandLayout);\n+\n+/// Multi-root DAG topological sort.\n+/// Performs a topological sort of the Operation in the `toSort` SetVector.\n+/// Returns a topologically sorted SetVector.\n+/// It is faster than mlir::topologicalSort because it prunes nodes that have\n+/// been visited before.\n+SetVector<Operation *>\n+multiRootTopologicalSort(const SetVector<Operation *> &toSort);\n+\n+// This uses the toplogicalSort above\n+SetVector<Operation *>\n+multiRootGetSlice(Operation *op, TransitiveFilter backwardFilter = nullptr,\n+                  TransitiveFilter forwardFilter = nullptr);\n+\n+// Create a basic DataFlowSolver with constant and dead code analysis included.\n+std::unique_ptr<DataFlowSolver> createDataFlowSolver();\n+\n } // namespace mlir\n \n #endif // TRITON_ANALYSIS_UTILITY_H"}, {"filename": "include/triton/Conversion/MLIRTypes.h", "status": "modified", "additions": 14, "deletions": 15, "changes": 29, "file_content_changes": "@@ -1,5 +1,5 @@\n-#ifndef TRITON_CONVERSION_MLIR_TYPES_H_\n-#define TRITON_CONVERSION_MLIR_TYPES_H_\n+#ifndef TRITON_CONVERSION_MLIR_TYPES_H\n+#define TRITON_CONVERSION_MLIR_TYPES_H\n \n #include \"mlir/Transforms/DialectConversion.h\"\n #include \"triton/Dialect/TritonGPU/IR/Dialect.h\"\n@@ -10,31 +10,30 @@ namespace triton {\n namespace type {\n \n // Integer types\n-// TODO(Superjomn): may change `static` into better implementations\n-static Type i32Ty(MLIRContext *ctx) { return IntegerType::get(ctx, 32); }\n-static Type i16Ty(MLIRContext *ctx) { return IntegerType::get(ctx, 16); }\n-static Type i8Ty(MLIRContext *ctx) { return IntegerType::get(ctx, 8); }\n-static Type u32Ty(MLIRContext *ctx) {\n+inline Type i32Ty(MLIRContext *ctx) { return IntegerType::get(ctx, 32); }\n+inline Type i16Ty(MLIRContext *ctx) { return IntegerType::get(ctx, 16); }\n+inline Type i8Ty(MLIRContext *ctx) { return IntegerType::get(ctx, 8); }\n+inline Type u32Ty(MLIRContext *ctx) {\n   return IntegerType::get(ctx, 32, IntegerType::Unsigned);\n }\n-static Type u1Ty(MLIRContext *ctx) {\n+inline Type u1Ty(MLIRContext *ctx) {\n   return IntegerType::get(ctx, 1, IntegerType::Unsigned);\n }\n \n // Float types\n-static Type f16Ty(MLIRContext *ctx) { return FloatType::getF16(ctx); }\n-static Type f32Ty(MLIRContext *ctx) { return FloatType::getF32(ctx); }\n-static Type f64Ty(MLIRContext *ctx) { return FloatType::getF64(ctx); }\n-static Type bf16Ty(MLIRContext *ctx) { return FloatType::getBF16(ctx); }\n+inline Type f16Ty(MLIRContext *ctx) { return FloatType::getF16(ctx); }\n+inline Type f32Ty(MLIRContext *ctx) { return FloatType::getF32(ctx); }\n+inline Type f64Ty(MLIRContext *ctx) { return FloatType::getF64(ctx); }\n+inline Type bf16Ty(MLIRContext *ctx) { return FloatType::getBF16(ctx); }\n \n-static bool isFloat(Type type) {\n+inline bool isFloat(Type type) {\n   return type.isF32() || type.isF64() || type.isF16() || type.isF128();\n }\n \n-static bool isInt(Type type) { return type.isIntOrFloat() && !isFloat(type); }\n+inline bool isInt(Type type) { return type.isIntOrFloat() && !isFloat(type); }\n \n } // namespace type\n } // namespace triton\n } // namespace mlir\n \n-#endif // TRITON_CONVERSION_MLIR_TYPES_H_\n+#endif // TRITON_CONVERSION_MLIR_TYPES_H"}, {"filename": "include/triton/Conversion/Passes.td", "status": "modified", "additions": 3, "deletions": 5, "changes": 8, "file_content_changes": "@@ -10,9 +10,8 @@ def ConvertTritonToTritonGPU: Pass<\"convert-triton-to-tritongpu\", \"mlir::ModuleO\n     }];\n     let constructor = \"mlir::triton::createConvertTritonToTritonGPUPass()\";\n \n-    let dependentDialects = [\"mlir::arith::ArithmeticDialect\",\n+    let dependentDialects = [\"mlir::arith::ArithDialect\",\n                              \"mlir::math::MathDialect\",\n-                             \"mlir::StandardOpsDialect\",\n                              // TODO: Does this pass depend on SCF?\n                              \"mlir::scf::SCFDialect\",\n                              \"mlir::triton::TritonDialect\",\n@@ -33,16 +32,15 @@ def ConvertTritonGPUToLLVM : Pass<\"convert-triton-gpu-to-llvm\", \"mlir::ModuleOp\"\n     }];\n     let constructor = \"mlir::triton::createConvertTritonGPUToLLVMPass()\";\n \n-    let dependentDialects = [\"mlir::arith::ArithmeticDialect\",\n+    let dependentDialects = [\"mlir::arith::ArithDialect\",\n                              \"mlir::math::MathDialect\",\n                              \"mlir::gpu::GPUDialect\",\n                              \"mlir::scf::SCFDialect\",\n                              \"mlir::LLVM::LLVMDialect\",\n                              \"mlir::tensor::TensorDialect\",\n                              \"mlir::triton::TritonDialect\",\n                              \"mlir::triton::gpu::TritonGPUDialect\",\n-                             \"mlir::NVVM::NVVMDialect\",\n-                             \"mlir::StandardOpsDialect\"];\n+                             \"mlir::NVVM::NVVMDialect\"];\n \n     let options = [\n         Option<\"computeCapability\", \"compute-capability\","}, {"filename": "include/triton/Conversion/TritonGPUToLLVM/PTXAsmFormat.h", "status": "modified", "additions": 2, "deletions": 3, "changes": 5, "file_content_changes": "@@ -161,9 +161,8 @@ struct PTXBuilder {\n \n   std::string dump() const;\n \n-  mlir::Value launch(ConversionPatternRewriter &rewriter, Location loc,\n-                     Type resTy, bool hasSideEffect = true,\n-                     bool isAlignStack = false,\n+  mlir::Value launch(OpBuilder &rewriter, Location loc, Type resTy,\n+                     bool hasSideEffect = true, bool isAlignStack = false,\n                      ArrayRef<Attribute> attrs = {}) const;\n \n private:"}, {"filename": "include/triton/Dialect/Triton/IR/CMakeLists.txt", "status": "modified", "additions": 1, "deletions": 1, "changes": 2, "file_content_changes": "@@ -8,7 +8,7 @@ set(LLVM_TARGET_DEFINITIONS TritonDialect.td)\n mlir_tablegen(Dialect.h.inc -gen-dialect-decls)\n mlir_tablegen(Dialect.cpp.inc -gen-dialect-defs)\n \n-set(LLVM_TARGET_DEFINITIONS TritonOps.td)\n+set(LLVM_TARGET_DEFINITIONS TritonTypes.td)\n mlir_tablegen(Types.h.inc -gen-typedef-decls)\n mlir_tablegen(Types.cpp.inc -gen-typedef-defs)\n "}, {"filename": "include/triton/Dialect/Triton/IR/Dialect.h", "status": "modified", "additions": 4, "deletions": 3, "changes": 7, "file_content_changes": "@@ -1,14 +1,15 @@\n #ifndef TRITON_DIALECT_TRITON_IR_DIALECT_H_\n #define TRITON_DIALECT_TRITON_IR_DIALECT_H_\n \n+#include \"mlir/Dialect/Arith/IR/Arith.h\"\n+#include \"mlir/Dialect/ControlFlow/IR/ControlFlow.h\"\n+#include \"mlir/Dialect/Func/IR/FuncOps.h\"\n #include \"mlir/Dialect/Math/IR/Math.h\"\n-#include \"mlir/Dialect/SCF/SCF.h\"\n-#include \"mlir/Dialect/StandardOps/IR/Ops.h\"\n+#include \"mlir/Dialect/SCF/IR/SCF.h\"\n #include \"mlir/Dialect/Tensor/IR/Tensor.h\"\n #include \"mlir/IR/BuiltinOps.h\"\n #include \"mlir/IR/Dialect.h\"\n #include \"mlir/Interfaces/ControlFlowInterfaces.h\"\n-\n #include \"triton/Dialect/Triton/IR/Dialect.h.inc\"\n #include \"triton/Dialect/Triton/IR/OpsEnums.h.inc\"\n #include \"triton/Dialect/Triton/IR/Traits.h\""}, {"filename": "include/triton/Dialect/Triton/IR/TritonDialect.td", "status": "modified", "additions": 5, "deletions": 7, "changes": 12, "file_content_changes": "@@ -14,7 +14,7 @@ def Triton_Dialect : Dialect {\n     Triton Dialect.\n \n     Dependent Dialects:\n-      * Arithmetic:\n+      * Arith:\n         * addf, addi, andi, cmpf, cmpi, divf, fptosi, ...\n       * Math:\n         * exp, sin, cos, log, ...\n@@ -23,21 +23,19 @@ def Triton_Dialect : Dialect {\n   }];\n \n   let dependentDialects = [\n-    \"arith::ArithmeticDialect\",\n+    \"arith::ArithDialect\",\n     \"math::MathDialect\",\n-    \"StandardOpsDialect\",\n     \"scf::SCFDialect\",\n-\n-    // Since LLVM 15\n-    // \"cf::ControlFlowDialect\",\n-    // \"func::FuncDialect\"\n+    \"cf::ControlFlowDialect\",\n+    \"func::FuncDialect\"\n   ];\n \n   let extraClassDeclaration = [{\n     void registerTypes();\n   }];\n \n   let hasConstantMaterializer = 1;\n+  let useDefaultTypePrinterParser = 1;\n }\n \n include \"triton/Dialect/Triton/IR/TritonTypes.td\""}, {"filename": "include/triton/Dialect/Triton/IR/TritonOps.td", "status": "modified", "additions": 36, "deletions": 36, "changes": 72, "file_content_changes": "@@ -6,10 +6,10 @@ include \"triton/Dialect/Triton/IR/TritonTypes.td\"\n include \"triton/Dialect/Triton/IR/TritonAttrDefs.td\"\n include \"triton/Dialect/Triton/IR/TritonInterfaces.td\"\n include \"mlir/IR/OpBase.td\"\n-include \"mlir/Interfaces/SideEffectInterfaces.td\" // NoSideEffect\n+include \"mlir/Interfaces/SideEffectInterfaces.td\" // Pure\n include \"mlir/Interfaces/ControlFlowInterfaces.td\" // BranchOpInterface\n include \"mlir/Interfaces/InferTypeOpInterface.td\" // SameOperandsAndResultType\n-include \"mlir/Interfaces/SideEffectInterfaces.td\" // NoSideEffect\n+include \"mlir/Interfaces/SideEffectInterfaces.td\" // Pure\n include \"mlir/Interfaces/CastInterfaces.td\" // CastOpInterface\n \n //\n@@ -29,7 +29,7 @@ class TT_Op<string mnemonic, list<Trait> traits = []> :\n //   extui, extsi, tructi\n def TT_IntToPtrOp : TT_Op<\"int_to_ptr\", [SameOperandsAndResultShape,\n                                          SameOperandsAndResultEncoding,\n-                                         NoSideEffect,\n+                                         Pure,\n                                          /*DeclareOpInterfaceMethods<CastOpInterface>*/]> {\n     let summary = \"Cast int64 to pointer\";\n \n@@ -42,7 +42,7 @@ def TT_IntToPtrOp : TT_Op<\"int_to_ptr\", [SameOperandsAndResultShape,\n \n def TT_PtrToIntOp : TT_Op<\"ptr_to_int\", [SameOperandsAndResultShape,\n                                          SameOperandsAndResultEncoding,\n-                                         NoSideEffect,\n+                                         Pure,\n                                          /*DeclareOpInterfaceMethods<CastOpInterface>*/]> {\n     let summary = \"Cast pointer to int64\";\n \n@@ -56,7 +56,7 @@ def TT_PtrToIntOp : TT_Op<\"ptr_to_int\", [SameOperandsAndResultShape,\n // arith.bitcast doesn't support pointers\n def TT_BitcastOp : TT_Op<\"bitcast\", [SameOperandsAndResultShape,\n                                      SameOperandsAndResultEncoding,\n-                                     NoSideEffect,\n+                                     Pure,\n                                      /*DeclareOpInterfaceMethods<CastOpInterface>*/]> {\n     let summary = \"Cast between types of the same bitwidth\";\n \n@@ -71,7 +71,7 @@ def TT_BitcastOp : TT_Op<\"bitcast\", [SameOperandsAndResultShape,\n \n def TT_FpToFpOp : TT_Op<\"fp_to_fp\", [SameOperandsAndResultShape,\n                                      SameOperandsAndResultEncoding,\n-                                     NoSideEffect,\n+                                     Pure,\n                                      DeclareOpInterfaceMethods<CastOpInterface>]> {\n     let summary = \"Floating point casting for custom types\";\n \n@@ -95,9 +95,9 @@ def TT_FpToFpOp : TT_Op<\"fp_to_fp\", [SameOperandsAndResultShape,\n //\n \n def TT_AddPtrOp : TT_Op<\"addptr\",\n-                     [NoSideEffect,\n-                     SameOperandsAndResultShape,\n-                     SameOperandsAndResultEncoding,\n+                     [Pure,\n+                      SameOperandsAndResultShape,\n+                      SameOperandsAndResultEncoding,\n                       TypesMatchWith<\"result type matches ptr type\",\n                                      \"result\", \"ptr\", \"$_self\">]> {\n     let arguments = (ins TT_PtrLike:$ptr, TT_IntLike:$offset);\n@@ -141,11 +141,7 @@ def TT_LoadOp : TT_Op<\"load\",\n                        \"triton::EvictionPolicy\":$evict, \"bool\":$isVolatile)>,\n     ];\n \n-    // let assemblyFormat = \"operands attr-dict `:` type($result)\";\n-    let parser = [{ return mlir::triton::parseLoadOp(parser, result); }];\n-\n-    let printer = [{ return mlir::triton::printLoadOp(p, *this); }];\n-\n+    let hasCustomAssemblyFormat = 1;\n     let hasCanonicalizer = 1;\n }\n \n@@ -161,17 +157,16 @@ def TT_StoreOp : TT_Op<\"store\",\n                                        \"($_op.getOperands().size() <= 2) || std::equal_to<>()\">]> {\n     let summary = \"store\";\n \n-    let arguments = (ins TT_PtrLike:$ptr, TT_Type:$value, Optional<TT_BoolLike>:$mask);\n+    let arguments = (ins TT_PtrLike:$ptr, TT_Type:$value, Optional<TT_BoolLike>:$mask,\n+                     DefaultValuedAttr<TT_CacheModifierAttr, \"triton::CacheModifier::NONE\">:$cache,\n+                     DefaultValuedAttr<TT_EvictionPolicyAttr, \"triton::EvictionPolicy::NORMAL\">:$evict);\n \n     let builders = [\n-        OpBuilder<(ins \"Value\":$ptr, \"Value\":$value)>,\n+        OpBuilder<(ins \"Value\":$ptr, \"Value\":$value, \"triton::CacheModifier\":$cache,\n+                       \"triton::EvictionPolicy\":$evict)>,\n     ];\n \n-    // let assemblyFormat = \"operands attr-dict `:` type($value)\";\n-    let parser = [{ return mlir::triton::parseStoreOp(parser, result); }];\n-\n-    let printer = [{ return mlir::triton::printStoreOp(p, *this); }];\n-\n+    let hasCustomAssemblyFormat = 1;\n     let hasCanonicalizer = 1;\n }\n \n@@ -227,8 +222,9 @@ def TT_AtomicCASOp : TT_Op<\"atomic_cas\", [MemoryEffects<[MemRead]>,\n //\n // Shape Manipulation Ops\n //\n-def TT_SplatOp : TT_Op<\"splat\", [NoSideEffect,\n-                                 SameOperandsAndResultElementType]> {\n+def TT_SplatOp : TT_Op<\"splat\", [Pure,\n+                                 SameOperandsAndResultElementType,\n+                                 SameOperandsAndResultEncoding]> {\n     let summary = \"splat\";\n \n     let arguments = (ins TT_Type:$src);\n@@ -240,7 +236,7 @@ def TT_SplatOp : TT_Op<\"splat\", [NoSideEffect,\n     let hasFolder = 1;\n }\n \n-def TT_ExpandDimsOp : TT_Op<\"expand_dims\", [NoSideEffect,\n+def TT_ExpandDimsOp : TT_Op<\"expand_dims\", [Pure,\n                                             DeclareOpInterfaceMethods<InferTypeOpInterface>,\n                                             SameOperandsAndResultElementType]> {\n     let summary = \"expand_dims\";\n@@ -252,7 +248,8 @@ def TT_ExpandDimsOp : TT_Op<\"expand_dims\", [NoSideEffect,\n     let assemblyFormat = \"$src attr-dict `:` functional-type(operands, results)\";\n }\n \n-def TT_ViewOp : TT_Op<\"view\", [NoSideEffect,\n+// view is not `pure` because it may reorder elements\n+def TT_ViewOp : TT_Op<\"view\", [NoMemoryEffect,\n                                SameOperandsAndResultElementType]> {\n     let summary = \"view\";\n \n@@ -264,8 +261,9 @@ def TT_ViewOp : TT_Op<\"view\", [NoSideEffect,\n \n }\n \n-def TT_BroadcastOp : TT_Op<\"broadcast\", [NoSideEffect,\n-                                         SameOperandsAndResultElementType]> {\n+def TT_BroadcastOp : TT_Op<\"broadcast\", [Pure,\n+                                         SameOperandsAndResultElementType,\n+                                         SameOperandsAndResultEncoding]> {\n     let summary = \"broadcast. No left-padding as of now.\";\n \n     let arguments = (ins TT_Type:$src);\n@@ -277,7 +275,8 @@ def TT_BroadcastOp : TT_Op<\"broadcast\", [NoSideEffect,\n     let hasFolder = 1;\n }\n \n-def TT_CatOp : TT_Op<\"cat\", [NoSideEffect,\n+// cat is not `pure` because it may reorder elements\n+def TT_CatOp : TT_Op<\"cat\", [NoMemoryEffect,\n                              SameOperandsAndResultElementType]> {\n     let summary = \"concatenate 2 tensors\";\n \n@@ -288,8 +287,9 @@ def TT_CatOp : TT_Op<\"cat\", [NoSideEffect,\n     let assemblyFormat = \"$lhs `,` $rhs attr-dict `:` functional-type(operands, results)\";\n }\n \n-def TT_TransOp : TT_Op<\"trans\", [NoSideEffect,\n-                                 DeclareOpInterfaceMethods<InferTypeOpInterface>]> {\n+def TT_TransOp : TT_Op<\"trans\", [Pure,\n+                                 DeclareOpInterfaceMethods<InferTypeOpInterface>,\n+                                 SameOperandsAndResultElementType]> {\n \n     let summary = \"transpose a tensor\";\n \n@@ -303,15 +303,15 @@ def TT_TransOp : TT_Op<\"trans\", [NoSideEffect,\n //\n // SPMD Ops\n //\n-def TT_GetProgramIdOp : TT_Op<\"get_program_id\", [NoSideEffect]> {\n+def TT_GetProgramIdOp : TT_Op<\"get_program_id\", [Pure]> {\n     let arguments = (ins I32Attr:$axis);\n \n     let results = (outs I32:$result);\n \n     let assemblyFormat = \"attr-dict `:` type($result)\";\n }\n \n-def TT_GetNumProgramsOp : TT_Op<\"get_num_programs\", [NoSideEffect]> {\n+def TT_GetNumProgramsOp : TT_Op<\"get_num_programs\", [Pure]> {\n     let arguments = (ins I32Attr:$axis);\n \n     let results = (outs I32:$result);\n@@ -322,7 +322,7 @@ def TT_GetNumProgramsOp : TT_Op<\"get_num_programs\", [NoSideEffect]> {\n //\n // Dot Op\n //\n-def TT_DotOp : TT_Op<\"dot\", [NoSideEffect,\n+def TT_DotOp : TT_Op<\"dot\", [Pure,\n                              DeclareOpInterfaceMethods<InferTypeOpInterface>,\n                              TypesMatchWith<\"result's type matches accumulator's type\",\n                                             \"d\", \"c\", \"$_self\">]> {\n@@ -342,7 +342,7 @@ def TT_DotOp : TT_Op<\"dot\", [NoSideEffect,\n //\n // Reduce Op\n //\n-def TT_ReduceOp : TT_Op<\"reduce\", [NoSideEffect,\n+def TT_ReduceOp : TT_Op<\"reduce\", [Pure,\n                                    DeclareOpInterfaceMethods<InferTypeOpInterface>]> {\n     let summary = \"reduce\";\n \n@@ -366,7 +366,7 @@ def TT_ReduceOp : TT_Op<\"reduce\", [NoSideEffect,\n //\n // External elementwise op\n //\n-def TT_ExtElemwiseOp : TT_Op<\"ext_elemwise\", [NoSideEffect, Elementwise, SameOperandsAndResultShape,\n+def TT_ExtElemwiseOp : TT_Op<\"ext_elemwise\", [Pure, Elementwise, SameOperandsAndResultShape,\n                                               SameOperandsAndResultEncoding,\n                                               SameVariadicOperandSize]> {\n     let summary = \"ext_elemwise\";\n@@ -388,7 +388,7 @@ def TT_ExtElemwiseOp : TT_Op<\"ext_elemwise\", [NoSideEffect, Elementwise, SameOpe\n // Make Range Op\n //\n // TODO: should have ConstantLike as Trait\n-def TT_MakeRangeOp : TT_Op<\"make_range\", [NoSideEffect]> {\n+def TT_MakeRangeOp : TT_Op<\"make_range\", [Pure]> {\n     let summary = \"make range\";\n \n     let description = [{"}, {"filename": "include/triton/Dialect/Triton/IR/TritonTypes.td", "status": "modified", "additions": 2, "deletions": 0, "changes": 2, "file_content_changes": "@@ -1,6 +1,7 @@\n #ifndef TRITON_TYPES\n #define TRITON_TYPES\n \n+include \"mlir/IR/AttrTypeBase.td\"\n include \"triton/Dialect/Triton/IR/TritonDialect.td\"\n \n //\n@@ -58,6 +59,7 @@ def TT_Ptr : TritonTypeDef<\"Pointer\", \"ptr\"> {\n         }]>\n     ];\n \n+    let hasCustomAssemblyFormat = 1;\n     let skipDefaultBuilders = 1;\n }\n def TT_PtrTensor : TensorOf<[TT_Ptr]>;"}, {"filename": "include/triton/Dialect/Triton/IR/Types.h", "status": "modified", "additions": 7, "deletions": 0, "changes": 7, "file_content_changes": "@@ -1,10 +1,17 @@\n #ifndef TRITON_IR_TYPES_H_\n #define TRITON_IR_TYPES_H_\n \n+#include \"mlir/IR/BuiltinTypes.h\"\n #include \"mlir/IR/TypeSupport.h\"\n #include \"mlir/IR/Types.h\"\n \n #define GET_TYPEDEF_CLASSES\n #include \"triton/Dialect/Triton/IR/Types.h.inc\"\n \n+namespace mlir {\n+\n+unsigned getPointeeBitWidth(RankedTensorType tensorTy);\n+\n+}\n+\n #endif // TRITON_IR_TYPES_H_"}, {"filename": "include/triton/Dialect/Triton/Transforms/Passes.td", "status": "modified", "additions": 1, "deletions": 2, "changes": 3, "file_content_changes": "@@ -16,8 +16,7 @@ def TritonCombineOps : Pass</*cli-arg*/\"triton-combine\", /*Op*/\"mlir::ModuleOp\">\n \n   let constructor = \"mlir::triton::createCombineOpsPass()\";\n \n-  let dependentDialects = [\"mlir::arith::ArithmeticDialect\",\n-                           /*SelectOp*/\"mlir::StandardOpsDialect\"];\n+  let dependentDialects = [\"mlir::arith::ArithDialect\"];\n }\n \n #endif"}, {"filename": "include/triton/Dialect/TritonGPU/IR/Dialect.h", "status": "modified", "additions": 5, "deletions": 5, "changes": 10, "file_content_changes": "@@ -1,19 +1,17 @@\n #ifndef TRITON_DIALECT_TRITONGPU_IR_DIALECT_H_\n #define TRITON_DIALECT_TRITONGPU_IR_DIALECT_H_\n \n-#include \"mlir/Dialect/GPU/GPUDialect.h\"\n+#include \"mlir/Dialect/GPU/IR/GPUDialect.h\"\n #include \"mlir/Dialect/Tensor/IR/Tensor.h\"\n #include \"mlir/IR/BuiltinOps.h\"\n #include \"mlir/IR/Dialect.h\"\n \n // TritonGPU depends on Triton\n #include \"triton/Dialect/Triton/IR/Dialect.h\"\n-\n #include \"triton/Dialect/TritonGPU/IR/Dialect.h.inc\"\n #include \"triton/Dialect/TritonGPU/IR/Traits.h\"\n \n #define GET_ATTRDEF_CLASSES\n-#include \"triton/Dialect/Triton/IR/AttrInterfaces.h.inc\"\n #include \"triton/Dialect/TritonGPU/IR/TritonGPUAttrDefs.h.inc\"\n \n #define GET_OP_CLASSES\n@@ -31,11 +29,13 @@ SmallVector<unsigned> getWarpsPerCTA(const Attribute &layout);\n \n SmallVector<unsigned> getSizePerThread(const Attribute &layout);\n \n-SmallVector<unsigned> getContigPerThread(Attribute layout);\n+SmallVector<unsigned> getContigPerThread(const Attribute &layout);\n \n SmallVector<unsigned> getThreadsPerCTA(const Attribute &layout);\n \n-SmallVector<unsigned> getShapePerCTA(const Attribute &layout);\n+SmallVector<unsigned>\n+getShapePerCTA(const Attribute &layout,\n+               ArrayRef<int64_t> tensorShape = ArrayRef<int64_t>());\n \n SmallVector<unsigned> getOrder(const Attribute &layout);\n "}, {"filename": "include/triton/Dialect/TritonGPU/IR/TritonGPUAttrDefs.td", "status": "modified", "additions": 8, "deletions": 10, "changes": 18, "file_content_changes": "@@ -1,6 +1,7 @@\n #ifndef TRITONGPU_ATTRDEFS\n #define TRITONGPU_ATTRDEFS\n \n+include \"mlir/IR/AttrTypeBase.td\"\n include \"triton/Dialect/TritonGPU/IR/TritonGPUDialect.td\"\n include \"triton/Dialect/Triton/IR/TritonInterfaces.td\"\n \n@@ -95,9 +96,6 @@ A_{3, 2}  A_{3, 3}  A_{3, 0}  A_{3, 1} ...   [phase 1] /\n           bool is_row = order[0] != 0;\n           bool is_vec4 = opIdx == 0 ? !is_row && (shape[order[0]] <= 16) :\n               is_row && (shape[order[0]] <= 16);\n-          // TODO[Superjomn]: Support the case when is_vec4=false later\n-          // Currently, we only support ld.v2, for the mma layout varies with different ld vector width.\n-          is_vec4 = true;\n           int pack_size = opIdx == 0 ? ((is_row || is_vec4) ? 1 : 2) :\n                                        ((is_row && !is_vec4) ? 2 : 1);\n           int rep = 2 * pack_size;\n@@ -135,12 +133,11 @@ A_{3, 2}  A_{3, 3}  A_{3, 0}  A_{3, 1} ...   [phase 1] /\n \n         // ---- not implemented ----\n         llvm_unreachable(\"unsupported swizzling for provided MMA version\");\n-\n-\n     }]>\n   ];\n \n   let extraClassDeclaration = extraBaseClassDeclaration;\n+  let hasCustomAssemblyFormat = 1;\n }\n \n //===----------------------------------------------------------------------===//\n@@ -278,6 +275,7 @@ for\n     // ArrayRefParameter<\"unsigned\">:$sizePerCTA\n   );\n \n+  let hasCustomAssemblyFormat = 1;\n }\n \n //===----------------------------------------------------------------------===//\n@@ -403,6 +401,7 @@ For example, the matrix L corresponding to blockTileSize=[32,16] is:\n       bool isAVec4 = !isARow && (shapeA[isARow] <= 16);\n       bool isBVec4 = isBRow && (shapeB[isBRow] <= 16);\n       // 4-bits to encode 4 booleans: [isARow, isBRow, isAVec4, isBVec4]\n+      // 3-bits to encode the MMA ID to make each unique\n       int versionMinor = (isARow * (1<<0)) |\\\n                          (isBRow * (1<<1)) |\\\n                          (isAVec4 * (1<<2)) |\\\n@@ -424,13 +423,9 @@ For example, the matrix L corresponding to blockTileSize=[32,16] is:\n     // Number of bits in versionMinor to hold the ID of the MMA encoding instance.\n     // Here 5 bits can hold 32 IDs in a single module.\n     static constexpr int numBitsToHoldMmaV1ID{5};\n-\n-    // Here is a temporary flag that indicates whether we need to update the warpsPerCTA for MMAv1, since the current backend cannot support the updated wpt.\n-    // The mmav1's wpt-related logic is separated into multiple files, so a global flag is added here for universal coordination.\n-    // TODO[Superjomn]: Remove this flag once the MMAv1 backend is ready.\n-    static constexpr bool _mmaV1UpdateWpt{false};\n   }];\n \n+  let hasCustomAssemblyFormat = 1;\n }\n \n def SliceEncodingAttr : DistributedEncoding<\"SliceEncoding\"> {\n@@ -465,6 +460,8 @@ def SliceEncodingAttr : DistributedEncoding<\"SliceEncoding\"> {\n     template<class T>\n     SmallVector<T> paddedShape(ArrayRef<T> shape) const;\n   }];\n+\n+  let hasCustomAssemblyFormat = 1;\n }\n \n def DotOperandEncodingAttr : DistributedEncoding<\"DotOperandEncoding\"> {\n@@ -501,6 +498,7 @@ section 9.7.13.4.1 for more details.\n \n   ];\n \n+  let hasCustomAssemblyFormat = 1;\n   let extraClassDeclaration = extraBaseClassDeclaration;\n }\n "}, {"filename": "include/triton/Dialect/TritonGPU/IR/TritonGPUDialect.td", "status": "modified", "additions": 1, "deletions": 1, "changes": 2, "file_content_changes": "@@ -30,7 +30,7 @@ def TritonGPU_Dialect : Dialect {\n     }\n   }];\n   \n-\n+  let useDefaultAttributePrinterParser = 1;\n }\n \n #endif"}, {"filename": "include/triton/Dialect/TritonGPU/IR/TritonGPUOps.td", "status": "modified", "additions": 24, "deletions": 12, "changes": 36, "file_content_changes": "@@ -3,11 +3,11 @@\n \n include \"triton/Dialect/TritonGPU/IR/TritonGPUDialect.td\"\n include \"triton/Dialect/TritonGPU/IR/TritonGPUAttrDefs.td\"\n-include \"mlir/Dialect/Arithmetic/IR/ArithmeticBase.td\"\n+include \"mlir/Dialect/Arith/IR/ArithBase.td\"\n include \"triton/Dialect/Triton/IR/TritonTypes.td\"\n include \"triton/Dialect/Triton/IR/TritonAttrDefs.td\"\n include \"mlir/IR/OpBase.td\"\n-include \"mlir/Interfaces/SideEffectInterfaces.td\" // NoSideEffect\n+include \"mlir/Interfaces/SideEffectInterfaces.td\" // Pure\n include \"mlir/Interfaces/InferTypeOpInterface.td\" // SameOperandsAndResultType\n \n def ResultsAreSharedEncoding: NativeOpTrait<\"ResultsAreSharedEncoding\">;\n@@ -16,7 +16,9 @@ class TTG_Op<string mnemonic, list<Trait> traits = []> :\n     Op<TritonGPU_Dialect, mnemonic, traits>;\n \n def TTG_ConvertLayoutOp : TTG_Op<\"convert_layout\",\n-                                 [SameOperandsAndResultShape, NoSideEffect]> {\n+                                 [SameOperandsAndResultShape,\n+                                  SameOperandsAndResultElementType,\n+                                  Pure]> {\n   let summary = \"convert layout\";\n \n   let arguments = (ins TT_Tensor:$src);\n@@ -40,11 +42,24 @@ def TTG_AsyncWaitOp : TTG_Op<\"async_wait\"> {\n   }];\n }\n \n+def TTG_AsyncCommitGroupOp : TTG_Op<\"async_commit_group\"> {\n+  let summary = \"async commit group\";\n+\n+  let assemblyFormat = \"attr-dict\";\n+\n+  let extraClassDeclaration = [{\n+    static bool isSupported(int computeCapability) {\n+      return computeCapability >= 80;\n+    }\n+  }];\n+}\n+\n+\n // Port Arith_CmpIOp & Arith_CmpFOp & Std_SelectOp to TritonGPU.\n // This is needed because these ops don't\n // handle encodings\n // e.g., https://github.com/llvm/llvm-project/blob/main/mlir/include/mlir/Dialect/Arith/IR/ArithOps.td#L111\n-def TTG_CmpIOp : TTG_Op<\"cmpi\", [NoSideEffect, Elementwise, \n+def TTG_CmpIOp : TTG_Op<\"cmpi\", [Pure, Elementwise,\n                                  SameOperandsAndResultShape, \n                                  SameOperandsAndResultEncoding]> {\n   let summary = \"integer comparison operation\";\n@@ -58,7 +73,7 @@ def TTG_CmpIOp : TTG_Op<\"cmpi\", [NoSideEffect, Elementwise,\n   let results = (outs TT_BoolLike:$result);\n }\n \n-def TTG_CmpFOp : TTG_Op<\"cmpf\", [NoSideEffect, Elementwise, \n+def TTG_CmpFOp : TTG_Op<\"cmpf\", [Pure, Elementwise,\n                                  SameOperandsAndResultShape, \n                                  SameOperandsAndResultEncoding]> {\n   let summary = \"floating-point comparison operation\";\n@@ -73,9 +88,9 @@ def TTG_CmpFOp : TTG_Op<\"cmpf\", [NoSideEffect, Elementwise,\n }\n \n // TODO: migrate to arith::SelectOp on LLVM16\n-def TTG_SelectOp : TTG_Op<\"select\", [NoSideEffect, Elementwise, \n-                                 SameOperandsAndResultShape, \n-                                 SameOperandsAndResultEncoding]> {\n+def TTG_SelectOp : TTG_Op<\"select\", [Pure, Elementwise,\n+                                     SameOperandsAndResultShape,\n+                                     SameOperandsAndResultEncoding]> {\n   let summary = \"select operation\";\n \n   let description = [{}];\n@@ -173,10 +188,7 @@ def TTG_InsertSliceAsyncOp : TTG_Op<\"insert_slice_async\",\n     }\n   }];\n \n-  // The custom parser could be replaced with oilist in LLVM-16\n-  let parser = [{ return parseInsertSliceAsyncOp(parser, result); }];\n-\n-  let printer = [{ return printInsertSliceAsyncOp(p, *this); }];\n+  let hasCustomAssemblyFormat = 1;\n }\n \n def TTG_AllocTensorOp : TTG_Op<\"alloc_tensor\", [MemoryEffects<[MemAlloc]>,  // Allocate shared memory"}, {"filename": "include/triton/Dialect/TritonGPU/Transforms/Passes.td", "status": "modified", "additions": 2, "deletions": 2, "changes": 4, "file_content_changes": "@@ -14,7 +14,7 @@ def TritonGPUPipeline : Pass<\"tritongpu-pipeline\", \"mlir::ModuleOp\"> {\n \n   let dependentDialects = [\"mlir::triton::gpu::TritonGPUDialect\",\n                            \"mlir::scf::SCFDialect\",\n-                           \"mlir::arith::ArithmeticDialect\"];\n+                           \"mlir::arith::ArithDialect\"];\n \n   let options = [\n     Option<\"numStages\", \"num-stages\",\n@@ -34,7 +34,7 @@ def TritonGPUPrefetch : Pass<\"tritongpu-prefetch\", \"mlir::ModuleOp\"> {\n \n   let dependentDialects = [\"mlir::triton::gpu::TritonGPUDialect\",\n                            \"mlir::scf::SCFDialect\",\n-                           \"mlir::arith::ArithmeticDialect\"];\n+                           \"mlir::arith::ArithDialect\"];\n }\n \n def TritonGPUCoalesce: Pass<\"tritongpu-coalesce\", \"mlir::ModuleOp\"> {"}, {"filename": "lib/Analysis/Alias.cpp", "status": "modified", "additions": 6, "deletions": 8, "changes": 14, "file_content_changes": "@@ -18,8 +18,9 @@ AliasInfo AliasInfo::join(const AliasInfo &lhs, const AliasInfo &rhs) {\n   return ret;\n }\n \n-ChangeResult SharedMemoryAliasAnalysis::visitOperation(\n-    Operation *op, ArrayRef<LatticeElement<AliasInfo> *> operands) {\n+void SharedMemoryAliasAnalysis::visitOperation(\n+    Operation *op, ArrayRef<const dataflow::Lattice<AliasInfo> *> operands,\n+    ArrayRef<dataflow::Lattice<AliasInfo> *> results) {\n   AliasInfo aliasInfo;\n   bool pessimistic = true;\n   if (maybeSharedAllocationOp(op)) {\n@@ -44,14 +45,11 @@ ChangeResult SharedMemoryAliasAnalysis::visitOperation(\n   }\n \n   if (pessimistic) {\n-    return markAllPessimisticFixpoint(op->getResults());\n+    return setAllToEntryStates(results);\n   }\n   // Join all lattice elements\n-  ChangeResult result = ChangeResult::NoChange;\n-  for (Value value : op->getResults()) {\n-    result |= getLatticeElement(value).join(aliasInfo);\n-  }\n-  return result;\n+  for (auto *result : results)\n+    propagateIfChanged(result, result->join(aliasInfo));\n }\n \n AliasResult SharedMemoryAliasAnalysis::alias(Value lhs, Value rhs) {"}, {"filename": "lib/Analysis/Allocation.cpp", "status": "modified", "additions": 29, "deletions": 16, "changes": 45, "file_content_changes": "@@ -1,4 +1,5 @@\n #include \"triton/Analysis/Allocation.h\"\n+#include \"mlir/Analysis/DataFlowFramework.h\"\n #include \"mlir/Analysis/Liveness.h\"\n #include \"mlir/Analysis/SliceAnalysis.h\"\n #include \"mlir/Dialect/Tensor/IR/Tensor.h\"\n@@ -33,10 +34,8 @@ constexpr int kPtrBitWidth = 64;\n \n static std::pair<SmallVector<unsigned>, SmallVector<unsigned>>\n getCvtOrder(const Attribute &srcLayout, const Attribute &dstLayout) {\n-  auto srcBlockedLayout = srcLayout.dyn_cast<BlockedEncodingAttr>();\n   auto srcMmaLayout = srcLayout.dyn_cast<MmaEncodingAttr>();\n   auto srcDotLayout = srcLayout.dyn_cast<DotOperandEncodingAttr>();\n-  auto dstBlockedLayout = dstLayout.dyn_cast<BlockedEncodingAttr>();\n   auto dstMmaLayout = dstLayout.dyn_cast<MmaEncodingAttr>();\n   auto dstDotLayout = dstLayout.dyn_cast<DotOperandEncodingAttr>();\n   assert(!(srcMmaLayout && dstMmaLayout) &&\n@@ -54,10 +53,17 @@ getCvtOrder(const Attribute &srcLayout, const Attribute &dstLayout) {\n SmallVector<unsigned>\n getScratchConfigForCvtLayout(triton::gpu::ConvertLayoutOp op, unsigned &inVec,\n                              unsigned &outVec) {\n-  auto srcTy = op.src().getType().cast<RankedTensorType>();\n-  auto dstTy = op.result().getType().cast<RankedTensorType>();\n+  auto srcTy = op.getSrc().getType().cast<RankedTensorType>();\n+  auto dstTy = op.getResult().getType().cast<RankedTensorType>();\n   Attribute srcLayout = srcTy.getEncoding();\n   Attribute dstLayout = dstTy.getEncoding();\n+\n+  // MmaToDotShortcut doesn't use shared mem\n+  if (auto mmaLayout = srcLayout.dyn_cast<MmaEncodingAttr>())\n+    if (auto dotOperandLayout = dstLayout.dyn_cast<DotOperandEncodingAttr>())\n+      if (isMmaToDotShortcut(mmaLayout, dotOperandLayout))\n+        return {};\n+\n   assert(srcLayout && dstLayout &&\n          \"Unexpect layout in getScratchConfigForCvtLayout()\");\n   auto [inOrd, outOrd] = getCvtOrder(srcLayout, dstLayout);\n@@ -68,8 +74,10 @@ getScratchConfigForCvtLayout(triton::gpu::ConvertLayoutOp op, unsigned &inVec,\n   inVec = outOrd[0] == 0 ? 1 : inOrd[0] == 0 ? 1 : srcContigPerThread;\n   outVec = outOrd[0] == 0 ? 1 : dstContigPerThread;\n \n-  auto srcShapePerCTA = getShapePerCTA(srcLayout);\n-  auto dstShapePerCTA = getShapePerCTA(dstLayout);\n+  auto srcShape = srcTy.getShape();\n+  auto dstShape = dstTy.getShape();\n+  auto srcShapePerCTA = getShapePerCTA(srcLayout, srcShape);\n+  auto dstShapePerCTA = getShapePerCTA(dstLayout, dstShape);\n \n   unsigned rank = dstTy.getRank();\n   SmallVector<unsigned> paddedRepShape(rank);\n@@ -92,7 +100,7 @@ getScratchConfigForCvtLayout(triton::gpu::ConvertLayoutOp op, unsigned &inVec,\n // TODO: extend beyond scalars\n SmallVector<unsigned> getScratchConfigForAtomicRMW(triton::AtomicRMWOp op) {\n   SmallVector<unsigned> smemShape;\n-  if (op.ptr().getType().isa<RankedTensorType>()) {\n+  if (op.getPtr().getType().isa<RankedTensorType>()) {\n     // do nothing or just assert because shared memory is not used in tensor up\n     // to now\n   } else {\n@@ -159,8 +167,8 @@ class AllocationAnalysis {\n       unsigned bytes = helper.getScratchSizeInBytes();\n       allocation->addBuffer<BufferT::BufferKind::Scratch>(op, bytes);\n     } else if (auto cvtLayout = dyn_cast<triton::gpu::ConvertLayoutOp>(op)) {\n-      auto srcTy = cvtLayout.src().getType().cast<RankedTensorType>();\n-      auto dstTy = cvtLayout.result().getType().cast<RankedTensorType>();\n+      auto srcTy = cvtLayout.getSrc().getType().cast<RankedTensorType>();\n+      auto dstTy = cvtLayout.getResult().getType().cast<RankedTensorType>();\n       auto srcEncoding = srcTy.getEncoding();\n       auto dstEncoding = dstTy.getEncoding();\n       if (srcEncoding.isa<SharedEncodingAttr>() ||\n@@ -215,10 +223,10 @@ class AllocationAnalysis {\n   }\n \n   void getValueAlias(Value value, SharedMemoryAliasAnalysis &analysis) {\n-    LatticeElement<AliasInfo> *latticeElement =\n-        analysis.lookupLatticeElement(value);\n+    dataflow::Lattice<AliasInfo> *latticeElement =\n+        analysis.getLatticeElement(value);\n     if (latticeElement) {\n-      auto &info = latticeElement->getValue();\n+      AliasInfo &info = latticeElement->getValue();\n       if (!info.getAllocs().empty()) {\n         for (auto alloc : info.getAllocs()) {\n           allocation->addAlias(value, alloc);\n@@ -235,14 +243,19 @@ class AllocationAnalysis {\n       getScratchValueSize(op);\n     });\n     // Get the alias values\n-    SharedMemoryAliasAnalysis aliasAnalysis(operation->getContext());\n-    aliasAnalysis.run(operation);\n+    std::unique_ptr<DataFlowSolver> solver = createDataFlowSolver();\n+    SharedMemoryAliasAnalysis *aliasAnalysis =\n+        solver->load<SharedMemoryAliasAnalysis>();\n+    if (failed(solver->initializeAndRun(operation))) {\n+      // TODO: return error instead of bailing out..\n+      llvm_unreachable(\"failed to run SharedMemoryAliasAnalysis\");\n+    }\n     operation->walk<WalkOrder::PreOrder>([&](Operation *op) {\n       for (auto operand : op->getOperands()) {\n-        getValueAlias(operand, aliasAnalysis);\n+        getValueAlias(operand, *aliasAnalysis);\n       }\n       for (auto value : op->getResults()) {\n-        getValueAlias(value, aliasAnalysis);\n+        getValueAlias(value, *aliasAnalysis);\n       }\n     });\n   }"}, {"filename": "lib/Analysis/AxisInfo.cpp", "status": "modified", "additions": 779, "deletions": 173, "changes": 952, "file_content_changes": "@@ -1,49 +1,58 @@\n-#include \"mlir/Analysis/DataFlowAnalysis.h\"\n+#include \"mlir/Analysis/DataFlowFramework.h\"\n #include \"mlir/Dialect/LLVMIR/LLVMDialect.h\"\n #include \"llvm/Support/raw_ostream.h\"\n-#include <iostream>\n \n #include \"triton/Analysis/AxisInfo.h\"\n #include \"triton/Dialect/Triton/IR/Dialect.h\"\n #include \"triton/Dialect/TritonGPU/IR/Dialect.h\"\n \n namespace mlir {\n \n-//===----------------------------------------------------------------------===//\n-// AxisInfo\n-//===----------------------------------------------------------------------===//\n-\n // Function for extended Euclidean Algorithm\n-static int gcd_impl(int a, int b, int *x, int *y) {\n+static int64_t gcdImpl(int64_t a, int64_t b, int64_t *x, int64_t *y) {\n   // Base Case\n   if (a == 0) {\n     *x = 0;\n     *y = 1;\n     return b;\n   }\n-  int x1, y1; // To store results of recursive call\n-  int gcd = gcd_impl(b % a, a, &x1, &y1);\n+  int64_t x1, y1; // To store results of recursive call\n+  int64_t gcd = gcdImpl(b % a, a, &x1, &y1);\n   // Update x and y using results of\n   // recursive call\n   *x = y1 - (b / a) * x1;\n   *y = x1;\n   return gcd;\n }\n \n-static int gcd(int a, int b) {\n-  int x, y;\n-  return gcd_impl(a, b, &x, &y);\n+static int64_t gcd(int64_t a, int64_t b) {\n+  if (a == 0)\n+    return b;\n+  if (b == 0)\n+    return a;\n+  int64_t x, y;\n+  return gcdImpl(a, b, &x, &y);\n }\n \n+static constexpr int log2Int(int64_t num) {\n+  return (num > 1) ? 1 + log2Int(num / 2) : 0;\n+}\n+\n+//===----------------------------------------------------------------------===//\n+// AxisInfo\n+//===----------------------------------------------------------------------===//\n+\n AxisInfo AxisInfo::getPessimisticValueState(Value value) {\n-  size_t rank = 1;\n+  auto rank = 1;\n   if (TensorType ty = value.getType().dyn_cast<TensorType>())\n     rank = ty.getRank();\n-  int divHint = 1;\n+  auto contiHint = 1;\n+  auto divHint = 1;\n+  auto constHint = 1;\n   BlockArgument blockArg = value.dyn_cast<BlockArgument>();\n   if (blockArg && blockArg.getOwner()->isEntryBlock()) {\n     Operation *op = blockArg.getOwner()->getParentOp();\n-    if (FuncOp fun = dyn_cast<FuncOp>(op)) {\n+    if (func::FuncOp fun = dyn_cast<func::FuncOp>(op)) {\n       Attribute attr =\n           fun.getArgAttr(blockArg.getArgNumber(), \"tt.divisibility\");\n       if (attr)\n@@ -53,139 +62,371 @@ AxisInfo AxisInfo::getPessimisticValueState(Value value) {\n           fun.getArgAttr(blockArg.getArgNumber(), \"tt.divisibility\");\n       if (attr)\n         divHint = attr.cast<IntegerAttr>().getValue().getZExtValue();\n+    } else {\n+      // Derive the divisibility of the induction variable only when\n+      // the step and the lower bound are both constants\n+      if (auto forOp = dyn_cast<scf::ForOp>(op)) {\n+        if (blockArg == forOp.getInductionVar()) {\n+          if (auto lowerBound =\n+                  forOp.getLowerBound().getDefiningOp<arith::ConstantOp>()) {\n+            if (auto step =\n+                    forOp.getStep().getDefiningOp<arith::ConstantOp>()) {\n+              auto lowerBoundVal = lowerBound.getValue()\n+                                       .cast<IntegerAttr>()\n+                                       .getValue()\n+                                       .getZExtValue();\n+              auto stepVal =\n+                  step.getValue().cast<IntegerAttr>().getValue().getZExtValue();\n+              auto k = gcd(lowerBoundVal, stepVal);\n+              if (k != 0)\n+                divHint = k;\n+            }\n+          }\n+        }\n+      }\n+    }\n+  } else if (Operation *op = value.getDefiningOp()) {\n+    DimVectorT knownContiguity(rank, 1);\n+    DimVectorT knownDivisibility(rank, 1);\n+    DimVectorT knownConstancy(rank, 1);\n+    if (Attribute attr = op->getAttr(\"tt.divisibility\")) {\n+      auto vals = attr.cast<DenseElementsAttr>().getValues<int>();\n+      knownDivisibility = DimVectorT(vals.begin(), vals.end());\n+    }\n+    if (Attribute attr = op->getAttr(\"tt.contiguity\")) {\n+      auto vals = attr.cast<DenseElementsAttr>().getValues<int>();\n+      knownContiguity = DimVectorT(vals.begin(), vals.end());\n+    }\n+    if (Attribute attr = op->getAttr(\"tt.constancy\")) {\n+      auto vals = attr.cast<DenseElementsAttr>().getValues<int>();\n+      knownConstancy = DimVectorT(vals.begin(), vals.end());\n     }\n+    return AxisInfo(knownContiguity, knownDivisibility, knownConstancy);\n   }\n-  DimVectorT contiguity(rank, 1);\n-  DimVectorT divisibility(rank, divHint);\n-  DimVectorT constancy(rank, 1);\n-  return AxisInfo(contiguity, divisibility, constancy);\n+\n+  return AxisInfo(/*knownContiguity=*/DimVectorT(rank, contiHint),\n+                  /*knownDivisibility=*/DimVectorT(rank, divHint),\n+                  /*knownConstancy=*/DimVectorT(rank, constHint));\n }\n \n // The gcd of both arguments for each dimension\n AxisInfo AxisInfo::join(const AxisInfo &lhs, const AxisInfo &rhs) {\n-  DimVectorT retContiguity;\n-  DimVectorT retDivisibility;\n-  DimVectorT retConstancy;\n-  for (int d = 0; d < lhs.getRank(); ++d) {\n-    retContiguity.push_back(gcd(lhs.getContiguity(d), rhs.getContiguity(d)));\n-    retDivisibility.push_back(\n-        gcd(lhs.getDivisibility(d), rhs.getDivisibility(d)));\n-    retConstancy.push_back(gcd(lhs.getConstancy(d), rhs.getConstancy(d)));\n-  }\n-  return AxisInfo(retContiguity, retDivisibility, retConstancy);\n+  // If one argument is not initialized, return the other.\n+  if (lhs.getRank() == 0)\n+    return rhs;\n+  if (rhs.getRank() == 0)\n+    return lhs;\n+  DimVectorT contiguity;\n+  DimVectorT divisibility;\n+  DimVectorT constancy;\n+  for (auto d = 0; d < lhs.getRank(); ++d) {\n+    contiguity.push_back(gcd(lhs.getContiguity(d), rhs.getContiguity(d)));\n+    divisibility.push_back(gcd(lhs.getDivisibility(d), rhs.getDivisibility(d)));\n+    constancy.push_back(gcd(lhs.getConstancy(d), rhs.getConstancy(d)));\n+  }\n+  std::optional<int64_t> constantValue;\n+  if (lhs.getConstantValue().has_value() &&\n+      rhs.getConstantValue().has_value() &&\n+      lhs.getConstantValue() == rhs.getConstantValue())\n+    constantValue = lhs.getConstantValue();\n+  return AxisInfo(contiguity, divisibility, constancy, constantValue);\n }\n \n //===----------------------------------------------------------------------===//\n-// AxisInfoAnalysis\n+// AxisInfoVisitor\n //===----------------------------------------------------------------------===//\n \n-AxisInfo AxisInfoAnalysis::visitBinaryOp(\n-    Operation *op, AxisInfo lhsInfo, AxisInfo rhsInfo,\n-    const std::function<int(AxisInfo, AxisInfo, int)> &getContiguity,\n-    const std::function<int(AxisInfo, AxisInfo, int)> &getDivisibility,\n-    const std::function<int(AxisInfo, AxisInfo, int)> &getConstancy) {\n-  int rank = lhsInfo.getRank();\n-  AxisInfo::DimVectorT newContiguity;\n-  AxisInfo::DimVectorT newDivisibility;\n-  AxisInfo::DimVectorT newConstancy;\n-  for (int d = 0; d < rank; ++d) {\n-    newContiguity.push_back(getContiguity(lhsInfo, rhsInfo, d));\n-    newDivisibility.push_back(getDivisibility(lhsInfo, rhsInfo, d));\n-    newConstancy.push_back(getConstancy(lhsInfo, rhsInfo, d));\n-  }\n-  return AxisInfo(newContiguity, newDivisibility, newConstancy);\n-}\n+template <typename OpTy>\n+class CastOpAxisInfoVisitor final : public AxisInfoVisitorImpl<OpTy> {\n+public:\n+  using AxisInfoVisitorImpl<OpTy>::AxisInfoVisitorImpl;\n \n-ChangeResult AxisInfoAnalysis::visitOperation(\n-    Operation *op, ArrayRef<LatticeElement<AxisInfo> *> operands) {\n-  AxisInfo curr;\n-  // This preserves the input axes (e.g., cast):\n-  if (llvm::isa<arith::ExtSIOp, arith::ExtUIOp, arith::TruncIOp,\n-                triton::PtrToIntOp, triton::IntToPtrOp,\n-                triton::gpu::ConvertLayoutOp>(op))\n-    curr = operands[0]->getValue();\n-  // Constant ranges\n-  if (triton::MakeRangeOp make_range =\n-          llvm::dyn_cast<triton::MakeRangeOp>(op)) {\n-    int start = make_range.start();\n-    int end = make_range.end();\n-    AxisInfo::DimVectorT contiguity = {end - start};\n-    AxisInfo::DimVectorT divisibility = {highestPowOf2Divisor(start)};\n-    AxisInfo::DimVectorT constancy = {1};\n-    curr = AxisInfo(contiguity, divisibility, constancy);\n-  }\n-  // Constant\n-  if (arith::ConstantOp constant = llvm::dyn_cast<arith::ConstantOp>(op)) {\n-    auto intAttr = constant.getValue().dyn_cast<IntegerAttr>();\n-    if (intAttr) {\n-      size_t val = intAttr.getValue().getZExtValue();\n-      curr = AxisInfo({1}, {highestPowOf2Divisor(val)}, {1});\n+  AxisInfo\n+  getAxisInfo(OpTy op,\n+              ArrayRef<const dataflow::Lattice<AxisInfo> *> operands) override {\n+    return operands[0]->getValue();\n+  }\n+};\n+\n+class MakeRangeOpAxisInfoVisitor final\n+    : public AxisInfoVisitorImpl<triton::MakeRangeOp> {\n+public:\n+  using AxisInfoVisitorImpl<triton::MakeRangeOp>::AxisInfoVisitorImpl;\n+\n+  AxisInfo\n+  getAxisInfo(triton::MakeRangeOp op,\n+              ArrayRef<const dataflow::Lattice<AxisInfo> *> operands) override {\n+    auto start = op.getStart();\n+    auto end = op.getEnd();\n+    return AxisInfo(/*contiguity=*/{end - start},\n+                    /*divisibility=*/{highestPowOf2Divisor(start)},\n+                    /*constancy=*/{1});\n+  }\n+};\n+\n+class ConstantOpAxisInfoVisitor final\n+    : public AxisInfoVisitorImpl<arith::ConstantOp> {\n+public:\n+  using AxisInfoVisitorImpl<arith::ConstantOp>::AxisInfoVisitorImpl;\n+\n+  AxisInfo\n+  getAxisInfo(arith::ConstantOp op,\n+              ArrayRef<const dataflow::Lattice<AxisInfo> *> operands) override {\n+    auto intAttr = op.getValue().dyn_cast<IntegerAttr>();\n+    auto boolAttr = op.getValue().dyn_cast<BoolAttr>();\n+    if (intAttr || boolAttr) {\n+      int64_t value{};\n+      if (intAttr)\n+        value = intAttr.getValue().getZExtValue();\n+      else\n+        value = boolAttr.getValue() ? 1 : 0;\n+      return AxisInfo(/*contiguity=*/{1},\n+                      /*divisibility=*/{highestPowOf2Divisor(value)},\n+                      /*constancy=*/{1},\n+                      /*knownConstantValue=*/{value});\n     }\n     // TODO: generalize to dense attr\n-    auto splatAttr = constant.getValue().dyn_cast<SplatElementsAttr>();\n-    if (splatAttr && splatAttr.getElementType().isInteger(32)) {\n-      auto value = splatAttr.getSplatValue<int>();\n+    auto splatAttr = op.getValue().dyn_cast<SplatElementsAttr>();\n+    if (splatAttr && splatAttr.getElementType().isIntOrIndex()) {\n+      int64_t value = splatAttr.getSplatValue<APInt>().getZExtValue();\n       TensorType ty = splatAttr.getType().cast<TensorType>();\n-      curr = AxisInfo(\n-          AxisInfo::DimVectorT(ty.getRank(), 1),\n+      return AxisInfo(\n+          /*contiguity=*/AxisInfo::DimVectorT(ty.getRank(), 1),\n+          /*divisibility=*/\n           AxisInfo::DimVectorT(ty.getRank(), highestPowOf2Divisor(value)),\n-          AxisInfo::DimVectorT(ty.getShape().begin(), ty.getShape().end()));\n+          /*constancy=*/\n+          AxisInfo::DimVectorT(ty.getShape().begin(), ty.getShape().end()),\n+          /*knownConstantValue=*/{value});\n+    }\n+    return AxisInfo();\n+  }\n+};\n+\n+template <typename OpTy>\n+class AddSubOpAxisInfoVisitor final : public BinaryOpVisitorImpl<OpTy> {\n+public:\n+  using BinaryOpVisitorImpl<OpTy>::BinaryOpVisitorImpl;\n+\n+private:\n+  int64_t getContiguity(OpTy op, const AxisInfo &lhs, const AxisInfo &rhs,\n+                        int dim) override {\n+    return std::max(gcd(lhs.getConstancy(dim), rhs.getContiguity(dim)),\n+                    gcd(lhs.getContiguity(dim), rhs.getConstancy(dim)));\n+  }\n+\n+  int64_t getDivisibility(OpTy op, const AxisInfo &lhs, const AxisInfo &rhs,\n+                          int dim) override {\n+    // lhs = k * d_lhs = k * k' * gcd(d_lhs, d_rhs)\n+    // rhs = p * d_rhs = p * p' * gcd(d_lhs, d_rhs)\n+    // lhs + rhs = k * d_lhs + p * d_rhs = (k * d_lhs + p * d_rhs) *\n+    // gcd(d_lhs, d_rhs)\n+    return gcd(lhs.getDivisibility(dim), rhs.getDivisibility(dim));\n+  }\n+\n+  int64_t getConstancy(OpTy op, const AxisInfo &lhs, const AxisInfo &rhs,\n+                       int dim) override {\n+    return gcd(lhs.getConstancy(dim), rhs.getConstancy(dim));\n+  }\n+\n+  std::optional<int64_t> getConstantValue(OpTy op, const AxisInfo &lhs,\n+                                          const AxisInfo &rhs) override {\n+    if (lhs.getConstantValue().has_value() &&\n+        rhs.getConstantValue().has_value()) {\n+      if constexpr (std::is_same_v<OpTy, arith::AddIOp> ||\n+                    std::is_same_v<OpTy, triton::AddPtrOp>) {\n+        return {lhs.getConstantValue().value() +\n+                rhs.getConstantValue().value()};\n+      } else if constexpr (std::is_same_v<OpTy, arith::SubIOp>) {\n+        return {lhs.getConstantValue().value() -\n+                rhs.getConstantValue().value()};\n+      }\n+    }\n+    return {};\n+  }\n+};\n+\n+class MulIOpAxisInfoVisitor final : public BinaryOpVisitorImpl<arith::MulIOp> {\n+public:\n+  using BinaryOpVisitorImpl<arith::MulIOp>::BinaryOpVisitorImpl;\n+\n+private:\n+  int64_t getContiguity(arith::MulIOp op, const AxisInfo &lhs,\n+                        const AxisInfo &rhs, int dim) override {\n+    // lhs * 1 = lhs\n+    auto lhsContiguity =\n+        rhs.getConstantValue().has_value() && rhs.getConstantValue() == 1\n+            ? lhs.getContiguity(dim)\n+            : 1;\n+    // 1 * rhs = rhs\n+    auto rhsContiguity =\n+        lhs.getConstantValue().has_value() && lhs.getConstantValue() == 1\n+            ? rhs.getContiguity(dim)\n+            : 1;\n+    return std::max(lhsContiguity, rhsContiguity);\n+  }\n+\n+  int64_t getConstancy(arith::MulIOp op, const AxisInfo &lhs,\n+                       const AxisInfo &rhs, int dim) override {\n+    return gcd(lhs.getConstancy(dim), rhs.getConstancy(dim));\n+  }\n+\n+  int64_t getDivisibility(arith::MulIOp op, const AxisInfo &lhs,\n+                          const AxisInfo &rhs, int dim) override {\n+    // lhs = k * d_lhs\n+    // rhs = p * d_rhs\n+    // lhs * rhs = k * d_lhs * p * d_rhs = k * p * d_lhs * d_rhs\n+    return lhs.getDivisibility(dim) * rhs.getDivisibility(dim);\n+  }\n+\n+  std::optional<int64_t> getConstantValue(arith::MulIOp op, const AxisInfo &lhs,\n+                                          const AxisInfo &rhs) override {\n+    if (lhs.getConstantValue().has_value() &&\n+        rhs.getConstantValue().has_value())\n+      return {lhs.getConstantValue().value() * rhs.getConstantValue().value()};\n+    return {};\n+  }\n+};\n+\n+template <typename OpTy>\n+class DivOpAxisInfoVisitor final : public BinaryOpVisitorImpl<OpTy> {\n+public:\n+  using BinaryOpVisitorImpl<OpTy>::BinaryOpVisitorImpl;\n+\n+private:\n+  int64_t getContiguity(OpTy op, const AxisInfo &lhs, const AxisInfo &rhs,\n+                        int dim) override {\n+    // lhs / 1 = lhs\n+    return rhs.getConstantValue().has_value() &&\n+                   rhs.getConstantValue().value() == 1\n+               ? lhs.getContiguity(dim)\n+               : 1;\n+  }\n+\n+  int64_t getConstancy(OpTy op, const AxisInfo &lhs, const AxisInfo &rhs,\n+                       int dim) override {\n+    auto resTy = op.getResult().getType().template dyn_cast<RankedTensorType>();\n+    if (!resTy)\n+      return BinaryOpVisitorImpl<OpTy>::getConstancy(op, lhs, rhs, dim);\n+    auto shape = resTy.getShape();\n+    // Case 1: both lhs and rhs are constants.\n+    auto constancy = gcd(lhs.getConstancy(dim), rhs.getConstancy(dim));\n+    // Case 2: lhs contiguous, rhs constant.\n+    // lhs: d_lhs * k, d_lhs * k + 1, ..., d_lhs * k + n\n+    // rhs: d_rhs * p, d_rhs * p, ..., d_rhs * p\n+    // lhs / rhs = d_lhs * k / (d_rhs * p), (d_lhs * k + 1) / (d_rhs * p),\n+    // ..., (d_lhs * k + n) / (d_rhs * p)\n+    // Because d_lhs % d_rhs = 0 || d_rhs % d_lhs = 0,\n+    // the minimal constancy is gcd(d_lhs, d_rhs).\n+    // Since gcd(d_lhs, d_rhs) maybe > len(lhs),\n+    // we need to use another gcd to get the actual constancy.\n+    if (AxisInfoVisitor::isContiguousDim(lhs, shape, dim) &&\n+        AxisInfoVisitor::isConstantDim(rhs, shape, dim)) {\n+      constancy = std::max(constancy, gcd(lhs.getContiguity(dim),\n+                                          gcd(lhs.getDivisibility(dim),\n+                                              rhs.getDivisibility(dim))));\n+    }\n+    return constancy;\n+  }\n+\n+  int64_t getDivisibility(OpTy op, const AxisInfo &lhs, const AxisInfo &rhs,\n+                          int dim) override {\n+    // Case 1: lhs is 0\n+    if (lhs.getConstantValue().has_value() &&\n+        lhs.getConstantValue().value() == 0)\n+      return lhs.getDivisibility(dim);\n+    // Case 2: rhs is constant\n+    if (rhs.getConstantValue().has_value()) {\n+      auto lhsDivisibility = lhs.getDivisibility(dim);\n+      auto rhsValue = rhs.getConstantValue().value();\n+      if (lhsDivisibility % rhsValue == 0)\n+        return lhsDivisibility / rhsValue;\n     }\n+    // Case 3: both are not constant\n+    return 1;\n+  }\n+\n+  std::optional<int64_t> getConstantValue(OpTy op, const AxisInfo &lhs,\n+                                          const AxisInfo &rhs) override {\n+    if (lhs.getConstantValue().has_value() &&\n+        rhs.getConstantValue().has_value())\n+      return {lhs.getConstantValue().value() / rhs.getConstantValue().value()};\n+    return {};\n+  }\n+};\n+\n+template <typename OpTy>\n+class RemOpAxisInfoVisitor final : public BinaryOpVisitorImpl<OpTy> {\n+public:\n+  using BinaryOpVisitorImpl<OpTy>::BinaryOpVisitorImpl;\n+\n+private:\n+  int64_t getContiguity(OpTy op, const AxisInfo &lhs, const AxisInfo &rhs,\n+                        int dim) override {\n+    auto resTy = op.getResult().getType().template dyn_cast<RankedTensorType>();\n+    if (!resTy)\n+      return BinaryOpVisitorImpl<OpTy>::getContiguity(op, lhs, rhs, dim);\n+    auto shape = resTy.getShape();\n+    int64_t contiguity = 1;\n+    // lhs contiguous, rhs constant\n+    // lhs: d_lhs * k, d_lhs * k + 1, ..., d_lhs * k + n\n+    // rhs: d_rhs * p, d_rhs * p, ..., d_rhs * p\n+    // lhs % rhs = d_lhs * k % (d_rhs * p), (d_lhs * k + 1) % (d_rhs * p),\n+    // ..., (d_lhs * k + n) % (d_rhs * p)\n+    // Because d_lhs % d_rhs = 0 || d_rhs % d_lhs = 0,\n+    // The minimal contiguity is gcd(d_lhs, d_rhs).\n+    // Since gcd(d_lhs, d_rhs) maybe > len(lhs),\n+    // we need to use another gcd to get the actual contiguity.\n+    if (AxisInfoVisitor::isContiguousDim(lhs, shape, dim) &&\n+        AxisInfoVisitor::isConstantDim(rhs, shape, dim)) {\n+      contiguity = std::max(contiguity, gcd(lhs.getContiguity(dim),\n+                                            gcd(lhs.getDivisibility(dim),\n+                                                rhs.getDivisibility(dim))));\n+    }\n+    return contiguity;\n+  }\n+\n+  int64_t getDivisibility(OpTy op, const AxisInfo &lhs, const AxisInfo &rhs,\n+                          int dim) override {\n+    // lhs: d_lhs * k = gcd(d_lhs, d_rhs) * k' * k = gcd(d_lhs, d_rhs) * k''\n+    // rhs: d_rhs * p = gcd(d_lhs, d_rhs) * p' * p = gcd(d_lhs, d_rhs) * p''\n+    // lhs = gcd(d_lhs, d_rhs) * k'' = gcd(d_lhs, d_rhs) * d + r\n+    // r must be divisible by gcd(d_lhs, d_rhs)\n+    return gcd(lhs.getDivisibility(dim), rhs.getDivisibility(dim));\n+  };\n+\n+  int64_t getConstancy(OpTy op, const AxisInfo &lhs, const AxisInfo &rhs,\n+                       int dim) override {\n+    auto resTy = op.getResult().getType().template dyn_cast<RankedTensorType>();\n+    if (!resTy)\n+      return BinaryOpVisitorImpl<OpTy>::getConstancy(op, lhs, rhs, dim);\n+    auto shape = resTy.getShape();\n+    // lhs % 1 = 0\n+    return rhs.getConstantValue().has_value() &&\n+                   rhs.getConstantValue().value() == 1\n+               ? shape[dim]\n+               : gcd(lhs.getConstancy(dim), rhs.getConstancy(dim));\n+  }\n+\n+  std::optional<int64_t> getConstantValue(OpTy op, const AxisInfo &lhs,\n+                                          const AxisInfo &rhs) override {\n+    if (lhs.getConstantValue().has_value() &&\n+        rhs.getConstantValue().has_value())\n+      return {lhs.getConstantValue().value() % rhs.getConstantValue().value()};\n+    else if (rhs.getConstantValue().has_value() &&\n+             rhs.getConstantValue().value() == 1)\n+      return {0};\n+    return {};\n   }\n-  // TODO: refactor & complete binary ops\n-  // Addition\n-  if (llvm::isa<arith::AddIOp, triton::AddPtrOp>(op)) {\n-    auto newContiguity = [&](AxisInfo lhs, AxisInfo rhs, int d) {\n-      return std::max(gcd(lhs.getContiguity(d), rhs.getConstancy(d)),\n-                      gcd(lhs.getConstancy(d), rhs.getContiguity(d)));\n-    };\n-    auto newConstancy = [&](AxisInfo lhs, AxisInfo rhs, int d) {\n-      return gcd(lhs.getConstancy(d), rhs.getConstancy(d));\n-    };\n-    auto newDivisibility = [&](AxisInfo lhs, AxisInfo rhs, int d) {\n-      return gcd(lhs.getDivisibility(d), rhs.getDivisibility(d));\n-    };\n-    curr = visitBinaryOp(op, operands[0]->getValue(), operands[1]->getValue(),\n-                         newContiguity, newDivisibility, newConstancy);\n-  }\n-  // Multiplication\n-  if (llvm::isa<arith::MulIOp>(op)) {\n-    auto newContiguity = [](AxisInfo lhs, AxisInfo rhs, int d) { return 1; };\n-    auto newConstancy = [](AxisInfo lhs, AxisInfo rhs, int d) {\n-      return gcd(lhs.getConstancy(d), rhs.getConstancy(d));\n-    };\n-    auto newDivisibility = [](AxisInfo lhs, AxisInfo rhs, int d) {\n-      return lhs.getDivisibility(d) * rhs.getDivisibility(d);\n-    };\n-    curr = visitBinaryOp(op, operands[0]->getValue(), operands[1]->getValue(),\n-                         newContiguity, newDivisibility, newConstancy);\n-  }\n-  // Remainder\n-  if (llvm::isa<arith::RemSIOp, arith::RemUIOp>(op)) {\n-    auto newContiguity = [](AxisInfo lhs, AxisInfo rhs, int d) {\n-      return gcd(lhs.getContiguity(d), rhs.getDivisibility(d));\n-    };\n-    auto newDivisibility = [](AxisInfo lhs, AxisInfo rhs, int d) {\n-      return gcd(lhs.getDivisibility(d), rhs.getDivisibility(d));\n-    };\n-    auto newConstancy = [](AxisInfo lhs, AxisInfo rhs, int d) {\n-      return gcd(lhs.getConstancy(d), rhs.getConstancy(d));\n-    };\n-    curr = visitBinaryOp(op, operands[0]->getValue(), operands[1]->getValue(),\n-                         newContiguity, newDivisibility, newConstancy);\n-  }\n-  // TODO: All other binary ops\n-  if (llvm::isa<arith::AndIOp, arith::OrIOp>(op)) {\n-    auto newContiguity = [](AxisInfo lhs, AxisInfo rhs, int d) { return 1; };\n-    auto newDivisibility = [](AxisInfo lhs, AxisInfo rhs, int d) { return 1; };\n-    auto newConstancy = [](AxisInfo lhs, AxisInfo rhs, int d) {\n-      return gcd(lhs.getConstancy(d), rhs.getConstancy(d));\n-    };\n-    curr = visitBinaryOp(op, operands[0]->getValue(), operands[1]->getValue(),\n-                         newContiguity, newDivisibility, newConstancy);\n-  }\n-  // Splat\n-  if (llvm::isa<triton::SplatOp>(op)) {\n+};\n+\n+class SplatOpAxisInfoVisitor final\n+    : public AxisInfoVisitorImpl<triton::SplatOp> {\n+public:\n+  using AxisInfoVisitorImpl<triton::SplatOp>::AxisInfoVisitorImpl;\n+\n+  AxisInfo\n+  getAxisInfo(triton::SplatOp op,\n+              ArrayRef<const dataflow::Lattice<AxisInfo> *> operands) override {\n     Type _retTy = *op->result_type_begin();\n     TensorType retTy = _retTy.cast<TensorType>();\n     AxisInfo opInfo = operands[0]->getValue();\n@@ -197,21 +438,39 @@ ChangeResult AxisInfoAnalysis::visitOperation(\n       divisibility.push_back(opInfo.getDivisibility(0));\n       constancy.push_back(retTy.getShape()[d]);\n     }\n-    curr = AxisInfo(contiguity, divisibility, constancy);\n+    return AxisInfo(contiguity, divisibility, constancy,\n+                    operands[0]->getValue().getConstantValue());\n   }\n-  // expandDims\n-  if (auto expandDims = llvm::dyn_cast<triton::ExpandDimsOp>(op)) {\n+};\n+\n+class ExpandDimsOpAxisInfoVisitor final\n+    : public AxisInfoVisitorImpl<triton::ExpandDimsOp> {\n+public:\n+  using AxisInfoVisitorImpl<triton::ExpandDimsOp>::AxisInfoVisitorImpl;\n+\n+  AxisInfo\n+  getAxisInfo(triton::ExpandDimsOp op,\n+              ArrayRef<const dataflow::Lattice<AxisInfo> *> operands) override {\n     AxisInfo opInfo = operands[0]->getValue();\n     AxisInfo::DimVectorT contiguity = opInfo.getContiguity();\n     AxisInfo::DimVectorT divisibility = opInfo.getDivisibility();\n     AxisInfo::DimVectorT constancy = opInfo.getConstancy();\n-    contiguity.insert(contiguity.begin() + expandDims.axis(), 1);\n-    divisibility.insert(divisibility.begin() + expandDims.axis(), 1);\n-    constancy.insert(constancy.begin() + expandDims.axis(), 1);\n-    curr = AxisInfo(contiguity, divisibility, constancy);\n+    contiguity.insert(contiguity.begin() + op.getAxis(), 1);\n+    divisibility.insert(divisibility.begin() + op.getAxis(), 1);\n+    constancy.insert(constancy.begin() + op.getAxis(), 1);\n+    return AxisInfo(contiguity, divisibility, constancy,\n+                    operands[0]->getValue().getConstantValue());\n   }\n-  // Broadcast\n-  if (llvm::isa<triton::BroadcastOp>(op)) {\n+};\n+\n+class BroadcastOpAxisInfoVisitor final\n+    : public AxisInfoVisitorImpl<triton::BroadcastOp> {\n+public:\n+  using AxisInfoVisitorImpl<triton::BroadcastOp>::AxisInfoVisitorImpl;\n+\n+  AxisInfo\n+  getAxisInfo(triton::BroadcastOp op,\n+              ArrayRef<const dataflow::Lattice<AxisInfo> *> operands) override {\n     Type _retTy = *op->result_type_begin();\n     Type _opTy = *op->operand_type_begin();\n     TensorType retTy = _retTy.cast<TensorType>();\n@@ -228,55 +487,393 @@ ChangeResult AxisInfoAnalysis::visitOperation(\n       constancy.push_back(opShape[d] == 1 ? retShape[d]\n                                           : opInfo.getConstancy(d));\n     }\n-    curr = AxisInfo(contiguity, divisibility, constancy);\n+    return AxisInfo(contiguity, divisibility, constancy,\n+                    operands[0]->getValue().getConstantValue());\n   }\n+};\n+\n+template <typename OpTy>\n+class CmpOpAxisInfoVisitor final : public AxisInfoVisitorImpl<OpTy> {\n+public:\n+  using AxisInfoVisitorImpl<OpTy>::AxisInfoVisitorImpl;\n \n-  // CmpI\n-  if ((llvm::dyn_cast<arith::CmpIOp>(op) ||\n-       llvm::dyn_cast<triton::gpu::CmpIOp>(op)) &&\n-      op->getResult(0).getType().dyn_cast<TensorType>()) {\n-    auto resTy = op->getResult(0).getType().cast<TensorType>();\n+  AxisInfo\n+  getAxisInfo(OpTy op,\n+              ArrayRef<const dataflow::Lattice<AxisInfo> *> operands) override {\n+    auto resTy = op.getResult().getType().template dyn_cast<RankedTensorType>();\n+    if (!resTy)\n+      return AxisInfo();\n+    auto shape = resTy.getShape();\n     short rank = resTy.getRank();\n     auto lhsInfo = operands[0]->getValue();\n     auto rhsInfo = operands[1]->getValue();\n-    auto shape = resTy.getShape();\n \n     AxisInfo::DimVectorT contiguity, divisibility, constancy;\n+    std::optional<int64_t> constantValue;\n     for (short d = 0; d < rank; ++d) {\n-      if (rhsInfo.getConstancy(d) % lhsInfo.getContiguity(d) == 0 ||\n-          rhsInfo.getConstancy(d) % lhsInfo.getConstancy(d))\n-        constancy.push_back(\n-            gcd(lhsInfo.getDivisibility(d), rhsInfo.getDivisibility(d)));\n-      else\n-        constancy.push_back(1);\n+      int64_t constHint = 1;\n+      if (lhsInfo.getConstantValue().has_value() &&\n+          rhsInfo.getConstantValue().has_value()) {\n+        constHint = lhsInfo.getConstancy(d);\n+        constantValue =\n+            compare(getPredicate(op), lhsInfo.getConstantValue().value(),\n+                    rhsInfo.getConstantValue().value())\n+                ? 1\n+                : 0;\n+      } else {\n+        // Case 1: lhs and rhs are both partial constants\n+        constHint = gcd(lhsInfo.getConstancy(d), rhsInfo.getConstancy(d));\n+        // Case 2: lhs all constant, rhs all contiguous\n+        // NOTE:\n+        // lhs: 4 4 4 4\n+        // rhs: 4 5 6 7\n+        // lhs ge rhs: 1, 0, 0, 0\n+        // Case 3: lhs all contiguous, rhs all constant\n+        // NOTE\n+        // lhs: 4 5 6 7\n+        // rhs: 4 4 4 4\n+        // lhs sle rhs: 1, 0, 0, 0\n+        if (/*Case 2=*/(\n+                notGePredicate(getPredicate(op)) &&\n+                (AxisInfoVisitor::isConstantDim(lhsInfo, shape, d) &&\n+                 AxisInfoVisitor::isContiguousDim(rhsInfo, shape, d))) ||\n+            /*Case 3=*/(notLePredicate(getPredicate(op)) &&\n+                        (AxisInfoVisitor::isContiguousDim(lhsInfo, shape, d) &&\n+                         AxisInfoVisitor::isConstantDim(rhsInfo, shape, d)))) {\n+          constHint = std::max(constHint, gcd(lhsInfo.getContiguity(d),\n+                                              gcd(lhsInfo.getDivisibility(d),\n+                                                  rhsInfo.getDivisibility(d))));\n+        }\n+      }\n \n-      divisibility.push_back(shape[d]);\n+      constancy.push_back(constHint);\n+      divisibility.push_back(1);\n       contiguity.push_back(1);\n     }\n \n-    curr = AxisInfo(contiguity, divisibility, constancy);\n+    return AxisInfo(contiguity, divisibility, constancy, constantValue);\n+  }\n+\n+private:\n+  static arith::CmpIPredicate getPredicate(triton::gpu::CmpIOp op) {\n+    return op.getPredicate();\n+  }\n+\n+  static arith::CmpIPredicate getPredicate(arith::CmpIOp op) {\n+    return op.getPredicate();\n+  }\n+\n+  static bool notGePredicate(arith::CmpIPredicate predicate) {\n+    return predicate != arith::CmpIPredicate::sge &&\n+           predicate != arith::CmpIPredicate::uge;\n+  }\n+\n+  static bool notLePredicate(arith::CmpIPredicate predicate) {\n+    return predicate != arith::CmpIPredicate::sle &&\n+           predicate != arith::CmpIPredicate::ule;\n+  }\n+\n+  static bool compare(arith::CmpIPredicate predicate, int64_t lhs,\n+                      int64_t rhs) {\n+    switch (predicate) {\n+    case arith::CmpIPredicate::eq:\n+      return lhs == rhs;\n+    case arith::CmpIPredicate::ne:\n+      return lhs != rhs;\n+    case arith::CmpIPredicate::slt:\n+      return lhs < rhs;\n+    case arith::CmpIPredicate::sle:\n+      return lhs <= rhs;\n+    case arith::CmpIPredicate::sgt:\n+      return lhs > rhs;\n+    case arith::CmpIPredicate::sge:\n+      return lhs >= rhs;\n+    case arith::CmpIPredicate::ult:\n+      return (uint64_t)lhs < (uint64_t)rhs;\n+    case arith::CmpIPredicate::ule:\n+      return (uint64_t)lhs <= (uint64_t)rhs;\n+    case arith::CmpIPredicate::ugt:\n+      return (uint64_t)lhs > (uint64_t)rhs;\n+    case arith::CmpIPredicate::uge:\n+      return (uint64_t)lhs >= (uint64_t)rhs;\n+    default:\n+      break;\n+    }\n+    llvm_unreachable(\"unknown comparison predicate\");\n+  }\n+};\n+\n+template <typename OpTy>\n+class SelectOpAxisInfoVisitor final : public AxisInfoVisitorImpl<OpTy> {\n+public:\n+  using AxisInfoVisitorImpl<OpTy>::AxisInfoVisitorImpl;\n+\n+  AxisInfo\n+  getAxisInfo(OpTy op,\n+              ArrayRef<const dataflow::Lattice<AxisInfo> *> operands) override {\n+    auto resTy = op.getResult().getType().template dyn_cast<RankedTensorType>();\n+    if (!resTy)\n+      return AxisInfo();\n+    auto shape = resTy.getShape();\n+    auto rank = shape.size();\n+    auto condConstancy = operands[0]->getValue().getConstancy();\n+    auto lhsInfo = operands[1]->getValue();\n+    auto rhsInfo = operands[2]->getValue();\n+\n+    AxisInfo::DimVectorT contiguity, divisibility, constancy;\n+    std::optional<int64_t> constantValue;\n+    if (operands[0]->getValue().getConstantValue().has_value()) {\n+      if (operands[0]->getValue().getConstantValue() == 0) {\n+        contiguity = rhsInfo.getContiguity();\n+        divisibility = rhsInfo.getDivisibility();\n+        constancy = rhsInfo.getConstancy();\n+        constantValue = rhsInfo.getConstantValue();\n+      } else {\n+        contiguity = lhsInfo.getContiguity();\n+        divisibility = lhsInfo.getDivisibility();\n+        constancy = lhsInfo.getConstancy();\n+        constantValue = lhsInfo.getConstantValue();\n+      }\n+    } else {\n+      for (auto d = 0; d < rank; ++d) {\n+        constancy.push_back(\n+            std::min(gcd(lhsInfo.getConstancy(d), condConstancy[d]),\n+                     gcd(rhsInfo.getConstancy(d), condConstancy[d])));\n+        divisibility.push_back(\n+            std::min(lhsInfo.getDivisibility(d), rhsInfo.getDivisibility(d)));\n+        contiguity.push_back(\n+            std::min(gcd(lhsInfo.getContiguity(d), condConstancy[d]),\n+                     gcd(rhsInfo.getContiguity(d), condConstancy[d])));\n+      }\n+      if (lhsInfo.getConstantValue().has_value() &&\n+          rhsInfo.getConstantValue().has_value() &&\n+          lhsInfo.getConstantValue() == rhsInfo.getConstantValue())\n+        constantValue = lhsInfo.getConstantValue();\n+    }\n+\n+    return AxisInfo(contiguity, divisibility, constancy, constantValue);\n+  }\n+};\n+\n+template <typename OpTy>\n+class LogicalOpAxisInfoVisitor final : public BinaryOpVisitorImpl<OpTy> {\n+public:\n+  using BinaryOpVisitorImpl<OpTy>::BinaryOpVisitorImpl;\n+\n+private:\n+  int64_t getConstancy(OpTy op, const AxisInfo &lhs, const AxisInfo &rhs,\n+                       int dim) override {\n+    return gcd(lhs.getConstancy(dim), rhs.getConstancy(dim));\n+  }\n+\n+  std::optional<int64_t> getConstantValue(OpTy op, const AxisInfo &lhs,\n+                                          const AxisInfo &rhs) override {\n+    if (lhs.getConstantValue().has_value() &&\n+        rhs.getConstantValue().has_value()) {\n+      if constexpr (std::is_same<OpTy, arith::AndIOp>::value) {\n+        return {lhs.getConstantValue().value() &\n+                rhs.getConstantValue().value()};\n+      } else if constexpr (std::is_same<OpTy, arith::OrIOp>::value) {\n+        return {lhs.getConstantValue().value() |\n+                rhs.getConstantValue().value()};\n+      } else if constexpr (std::is_same<OpTy, arith::XOrIOp>::value) {\n+        return {lhs.getConstantValue().value() ^\n+                rhs.getConstantValue().value()};\n+      }\n+    }\n+    return {};\n+  }\n+};\n+\n+class ShLIOpAxisInfoVisitor final : public BinaryOpVisitorImpl<arith::ShLIOp> {\n+public:\n+  using BinaryOpVisitorImpl<arith::ShLIOp>::BinaryOpVisitorImpl;\n+\n+private:\n+  int64_t getContiguity(arith::ShLIOp op, const AxisInfo &lhs,\n+                        const AxisInfo &rhs, int dim) override {\n+    if (rhs.getConstantValue().has_value() &&\n+        rhs.getConstantValue().value() == 0)\n+      return lhs.getContiguity(dim);\n+    else\n+      return 1;\n   }\n \n-  // UnrealizedConversionCast\n+  int64_t getDivisibility(arith::ShLIOp op, const AxisInfo &lhs,\n+                          const AxisInfo &rhs, int dim) override {\n+    auto shift = rhs.getConstantValue().has_value()\n+                     ? rhs.getConstantValue().value()\n+                     : rhs.getDivisibility(dim);\n+    auto numBits = log2Int(lhs.getDivisibility(dim));\n+    auto maxBits = log2Int(highestPowOf2Divisor<int64_t>(0));\n+    // Make sure the return value doesn't exceed highestPowOf2Divisor<int64>(0)\n+    if (shift + numBits > maxBits)\n+      return highestPowOf2Divisor<int64_t>(0);\n+    return lhs.getDivisibility(dim) << shift;\n+  }\n+\n+  int64_t getConstancy(arith::ShLIOp op, const AxisInfo &lhs,\n+                       const AxisInfo &rhs, int dim) override {\n+    return gcd(lhs.getConstancy(dim), rhs.getConstancy(dim));\n+  }\n+\n+  std::optional<int64_t> getConstantValue(arith::ShLIOp op, const AxisInfo &lhs,\n+                                          const AxisInfo &rhs) override {\n+    if (lhs.getConstantValue().has_value() &&\n+        rhs.getConstantValue().has_value())\n+      return {lhs.getConstantValue().value() << rhs.getConstantValue().value()};\n+    return {};\n+  }\n+};\n+\n+template <typename OpTy>\n+class ShROpAxisInfoVisitor final : public BinaryOpVisitorImpl<OpTy> {\n+public:\n+  using BinaryOpVisitorImpl<OpTy>::BinaryOpVisitorImpl;\n+\n+private:\n+  int64_t getContiguity(OpTy op, const AxisInfo &lhs, const AxisInfo &rhs,\n+                        int dim) override {\n+    if (rhs.getConstantValue().has_value() &&\n+        rhs.getConstantValue().value() == 0)\n+      return lhs.getContiguity(dim);\n+    else\n+      return 1;\n+  }\n+\n+  int64_t getDivisibility(OpTy op, const AxisInfo &lhs, const AxisInfo &rhs,\n+                          int dim) override {\n+    if (rhs.getConstantValue().has_value())\n+      return std::max<int64_t>(1, lhs.getDivisibility(dim) /\n+                                      (1 << rhs.getConstantValue().value()));\n+    else\n+      return std::max<int64_t>(1, lhs.getDivisibility(dim) /\n+                                      (1 << rhs.getDivisibility(dim)));\n+  }\n+\n+  int64_t getConstancy(OpTy op, const AxisInfo &lhs, const AxisInfo &rhs,\n+                       int dim) override {\n+    return gcd(lhs.getConstancy(dim), rhs.getConstancy(dim));\n+  }\n+\n+  std::optional<int64_t> getConstantValue(OpTy op, const AxisInfo &lhs,\n+                                          const AxisInfo &rhs) override {\n+    if (lhs.getConstantValue().has_value() &&\n+        rhs.getConstantValue().has_value())\n+      return {lhs.getConstantValue().value() >> rhs.getConstantValue().value()};\n+    return {};\n+  }\n+};\n+\n+template <typename OpTy>\n+class MaxMinOpAxisInfoVisitor final : public AxisInfoVisitorImpl<OpTy> {\n+public:\n+  using AxisInfoVisitorImpl<OpTy>::AxisInfoVisitorImpl;\n+\n+  AxisInfo\n+  getAxisInfo(OpTy op,\n+              ArrayRef<const dataflow::Lattice<AxisInfo> *> operands) override {\n+    auto lhsInfo = operands[0]->getValue();\n+    auto rhsInfo = operands[1]->getValue();\n+    std::optional<int64_t> constantValue;\n+    if (lhsInfo.getConstantValue().has_value() &&\n+        rhsInfo.getConstantValue().has_value()) {\n+      if constexpr (std::is_same_v<OpTy, arith::MaxSIOp> ||\n+                    std::is_same_v<OpTy, arith::MaxUIOp>) {\n+        constantValue = {std::max(lhsInfo.getConstantValue().value(),\n+                                  rhsInfo.getConstantValue().value())};\n+      } else if constexpr (std::is_same_v<OpTy, arith::MinSIOp> ||\n+                           std::is_same_v<OpTy, arith::MinUIOp>) {\n+        constantValue = {std::min(lhsInfo.getConstantValue().value(),\n+                                  rhsInfo.getConstantValue().value())};\n+      }\n+    }\n+    auto rank = lhsInfo.getRank();\n+    return AxisInfo(/*knownContiguity=*/AxisInfo::DimVectorT(rank, 1),\n+                    /*knownDivisibility=*/AxisInfo::DimVectorT(rank, 1),\n+                    /*knownConstancy=*/AxisInfo::DimVectorT(rank, 1),\n+                    /*constantValue=*/constantValue);\n+  }\n+};\n+\n+//===----------------------------------------------------------------------===//\n+// AxisInfoAnalysis\n+//===----------------------------------------------------------------------===//\n+\n+AxisInfoAnalysis::AxisInfoAnalysis(DataFlowSolver &solver)\n+    : dataflow::SparseDataFlowAnalysis<dataflow::Lattice<AxisInfo>>(solver) {\n+  // UnrealizedConversionCast:\n   // This is needed by TritonGPUToLLVM, to get AxisInfo when the graph is\n   // in the process of a PartialConversion, where UnrealizedConversionCast\n   // may exist\n-  if (llvm::isa<mlir::UnrealizedConversionCastOp>(op)) {\n-    curr = operands[0]->getValue();\n-  }\n+  visitors.append<CastOpAxisInfoVisitor<arith::ExtSIOp>,\n+                  CastOpAxisInfoVisitor<arith::ExtUIOp>,\n+                  CastOpAxisInfoVisitor<arith::TruncIOp>,\n+                  CastOpAxisInfoVisitor<arith::IndexCastOp>,\n+                  CastOpAxisInfoVisitor<triton::PtrToIntOp>,\n+                  CastOpAxisInfoVisitor<triton::IntToPtrOp>,\n+                  CastOpAxisInfoVisitor<triton::gpu::ConvertLayoutOp>,\n+                  CastOpAxisInfoVisitor<mlir::UnrealizedConversionCastOp>,\n+                  CastOpAxisInfoVisitor<triton::BitcastOp>>();\n+  visitors.append<MakeRangeOpAxisInfoVisitor>();\n+  visitors.append<ConstantOpAxisInfoVisitor>();\n+  visitors.append<AddSubOpAxisInfoVisitor<triton::AddPtrOp>,\n+                  AddSubOpAxisInfoVisitor<arith::AddIOp>,\n+                  AddSubOpAxisInfoVisitor<arith::SubIOp>>();\n+  visitors.append<MulIOpAxisInfoVisitor>();\n+  visitors.append<DivOpAxisInfoVisitor<arith::DivSIOp>,\n+                  DivOpAxisInfoVisitor<arith::DivUIOp>>();\n+  visitors.append<RemOpAxisInfoVisitor<arith::RemSIOp>,\n+                  RemOpAxisInfoVisitor<arith::RemUIOp>>();\n+  visitors.append<BroadcastOpAxisInfoVisitor>();\n+  visitors.append<SplatOpAxisInfoVisitor>();\n+  visitors.append<ExpandDimsOpAxisInfoVisitor>();\n+  visitors.append<CmpOpAxisInfoVisitor<arith::CmpIOp>,\n+                  CmpOpAxisInfoVisitor<triton::gpu::CmpIOp>>();\n+  visitors.append<LogicalOpAxisInfoVisitor<arith::AndIOp>,\n+                  LogicalOpAxisInfoVisitor<arith::OrIOp>,\n+                  LogicalOpAxisInfoVisitor<arith::XOrIOp>>();\n+  visitors.append<SelectOpAxisInfoVisitor<mlir::arith::SelectOp>,\n+                  SelectOpAxisInfoVisitor<triton::gpu::SelectOp>>();\n+  visitors.append<ShLIOpAxisInfoVisitor, ShROpAxisInfoVisitor<arith::ShRUIOp>,\n+                  ShROpAxisInfoVisitor<arith::ShRSIOp>>();\n+  visitors.append<MaxMinOpAxisInfoVisitor<arith::MaxSIOp>,\n+                  MaxMinOpAxisInfoVisitor<arith::MaxUIOp>,\n+                  MaxMinOpAxisInfoVisitor<arith::MinSIOp>,\n+                  MaxMinOpAxisInfoVisitor<arith::MinUIOp>>();\n+}\n+\n+void AxisInfoAnalysis::visitOperation(\n+    Operation *op, ArrayRef<const dataflow::Lattice<AxisInfo> *> operands,\n+    ArrayRef<dataflow::Lattice<AxisInfo> *> results) {\n+  AxisInfo curr = visitors.apply(op, operands);\n   if (curr.getRank() == 0) {\n-    return markAllPessimisticFixpoint(op->getResults());\n+    return setAllToEntryStates(results);\n   }\n-\n-  // join all lattice elements\n-  ChangeResult result = ChangeResult::NoChange;\n-  for (Value value : op->getResults()) {\n-    result |= getLatticeElement(value).join(curr);\n+  // override with hint\n+  auto newContiguity = curr.getContiguity();\n+  auto newDivisibility = curr.getDivisibility();\n+  auto newConstancy = curr.getConstancy();\n+  if (Attribute attr = op->getAttr(\"tt.contiguity\")) {\n+    auto vals = attr.cast<DenseElementsAttr>().getValues<int>();\n+    newContiguity = AxisInfo::DimVectorT(vals.begin(), vals.end());\n+  }\n+  if (Attribute attr = op->getAttr(\"tt.divisibility\")) {\n+    auto vals = attr.cast<DenseElementsAttr>().getValues<int>();\n+    newDivisibility = AxisInfo::DimVectorT(vals.begin(), vals.end());\n   }\n-  return result;\n+  if (Attribute attr = op->getAttr(\"tt.constancy\")) {\n+    auto vals = attr.cast<DenseElementsAttr>().getValues<int>();\n+    newConstancy = AxisInfo::DimVectorT(vals.begin(), vals.end());\n+  }\n+  curr = mlir::AxisInfo(newContiguity, newDivisibility, newConstancy,\n+                        curr.getConstantValue());\n+  // join all lattice elements\n+  for (auto *result : results)\n+    propagateIfChanged(result, result->join(curr));\n }\n \n-unsigned AxisInfoAnalysis::getPtrVectorSize(Value ptr) {\n+unsigned AxisInfoAnalysis::getPtrContiguity(Value ptr) {\n   auto tensorTy = ptr.getType().dyn_cast<RankedTensorType>();\n   if (!tensorTy)\n     return 1;\n@@ -289,21 +886,27 @@ unsigned AxisInfoAnalysis::getPtrVectorSize(Value ptr) {\n   unsigned align = getPtrAlignment(ptr);\n \n   unsigned contigPerThread = triton::gpu::getSizePerThread(layout)[order[0]];\n-  unsigned vec = std::min(align, contigPerThread);\n-  vec = std::min<unsigned>(shape[order[0]], vec);\n+  contigPerThread = std::min(align, contigPerThread);\n+  contigPerThread = std::min<unsigned>(shape[order[0]], contigPerThread);\n \n-  return vec;\n+  return contigPerThread;\n }\n \n unsigned AxisInfoAnalysis::getPtrAlignment(Value ptr) {\n   auto tensorTy = ptr.getType().dyn_cast<RankedTensorType>();\n   if (!tensorTy)\n     return 1;\n-  auto axisInfo = lookupLatticeElement(ptr)->getValue();\n+  dataflow::Lattice<AxisInfo> *latticeElement = getLatticeElement(ptr);\n+  if (!latticeElement)\n+    return 1;\n+  auto axisInfo = latticeElement->getValue();\n   auto layout = tensorTy.getEncoding();\n   auto order = triton::gpu::getOrder(layout);\n-  unsigned maxMultiple = axisInfo.getDivisibility(order[0]);\n-  unsigned maxContig = axisInfo.getContiguity(order[0]);\n+  auto maxMultipleBytes = axisInfo.getDivisibility(order[0]);\n+  auto maxContig = axisInfo.getContiguity(order[0]);\n+  auto elemNumBits = getPointeeBitWidth(tensorTy);\n+  auto elemNumBytes = std::max<unsigned>(elemNumBits / 8, 1);\n+  auto maxMultiple = std::max<int64_t>(maxMultipleBytes / elemNumBytes, 1);\n   unsigned alignment = std::min(maxMultiple, maxContig);\n   return alignment;\n }\n@@ -312,8 +915,11 @@ unsigned AxisInfoAnalysis::getMaskAlignment(Value mask) {\n   auto tensorTy = mask.getType().dyn_cast<RankedTensorType>();\n   if (!tensorTy)\n     return 1;\n+  dataflow::Lattice<AxisInfo> *latticeElement = getLatticeElement(mask);\n+  if (!latticeElement)\n+    return 1;\n+  auto maskAxis = latticeElement->getValue();\n   auto maskOrder = triton::gpu::getOrder(tensorTy.getEncoding());\n-  auto maskAxis = lookupLatticeElement(mask)->getValue();\n   auto alignment = std::max<unsigned>(maskAxis.getConstancy(maskOrder[0]), 1);\n   return alignment;\n }"}, {"filename": "lib/Analysis/CMakeLists.txt", "status": "modified", "additions": 3, "deletions": 0, "changes": 3, "file_content_changes": "@@ -8,4 +8,7 @@ add_mlir_library(TritonAnalysis\n   DEPENDS\n   TritonTableGen\n   TritonGPUAttrDefsIncGen\n+\n+  LINK_LIBS PUBLIC\n+  MLIRAnalysis\n )"}, {"filename": "lib/Analysis/Membar.cpp", "status": "modified", "additions": 77, "deletions": 67, "changes": 144, "file_content_changes": "@@ -2,109 +2,119 @@\n #include \"triton/Analysis/Alias.h\"\n #include \"triton/Dialect/TritonGPU/IR/Dialect.h\"\n \n-#include \"mlir/Dialect/GPU/GPUDialect.h\"\n+#include \"mlir/Dialect/Func/IR/FuncOps.h\"\n+#include \"mlir/Dialect/GPU/IR/GPUDialect.h\"\n #include \"mlir/Dialect/Tensor/IR/Tensor.h\"\n+#include <deque>\n \n namespace mlir {\n \n void MembarAnalysis::run() {\n   auto *operation = allocation->getOperation();\n-  RegionInfo regionInfo;\n   OpBuilder builder(operation);\n-  dfsOperation(operation, &regionInfo, &builder);\n+  resolve(operation, &builder);\n }\n \n-void MembarAnalysis::dfsOperation(Operation *operation,\n-                                  RegionInfo *parentRegionInfo,\n-                                  OpBuilder *builder) {\n-  transfer(operation, parentRegionInfo, builder);\n-  if (operation->getNumRegions()) {\n-    // If there's any nested regions, we need to visit them.\n-    // scf.if and scf.else: two regions\n-    // scf.if only: two regions\n-    // scf.for: one region\n-    RegionInfo curRegionInfo;\n-    auto traverseRegions = [&]() -> auto{\n-      for (auto &region : operation->getRegions()) {\n-        // Copy the parent info as the current info.\n-        RegionInfo regionInfo = *parentRegionInfo;\n-        for (auto &block : region.getBlocks()) {\n-          assert(region.getBlocks().size() == 1 &&\n-                 \"Multiple blocks in a region is not supported\");\n-          for (auto &op : block.getOperations()) {\n-            // Traverse the nested operation.\n-            dfsOperation(&op, &regionInfo, builder);\n-          }\n-        }\n-        curRegionInfo.join(regionInfo);\n+void MembarAnalysis::resolve(Operation *operation, OpBuilder *builder) {\n+  // Initialize the blockList\n+  std::deque<Block *> blockList;\n+  operation->walk<WalkOrder::PreOrder>([&](Block *block) {\n+    for (auto &op : block->getOperations()) {\n+      // Check if the operation belongs to scf dialect, if so, we need to\n+      // throw an error\n+      if (op.getDialect()->getNamespace() == \"scf\") {\n+        op.emitError(\"scf dialect is not supported in membar. Please lower it \"\n+                     \"to cf dialect first.\");\n+        return;\n       }\n-      // Set the parent region info as the union of the nested region info.\n-      *parentRegionInfo = curRegionInfo;\n-    };\n+    }\n+    if (block->isEntryBlock())\n+      blockList.emplace_back(block);\n+  });\n+\n+  // A fixed point algorithm\n+  while (!blockList.empty()) {\n+    auto *block = blockList.front();\n+    blockList.pop_front();\n+    // Make a copy of the inputblockInfo but not update\n+    auto inputBlockInfo = inputBlockInfoMap.lookup(block);\n+    SmallVector<Block *> successors;\n+    for (auto &op : block->getOperations()) {\n+      if (op.hasTrait<OpTrait::IsTerminator>()) {\n+        visitTerminator(&op, successors);\n+      } else {\n+        update(&op, &inputBlockInfo, builder);\n+      }\n+    }\n+    // Get the reference because we want to update if it changed\n+    if (outputBlockInfoMap.count(block) &&\n+        inputBlockInfo == outputBlockInfoMap[block]) {\n+      // If we have seen the block before and the inputBlockInfo is the same as\n+      // the outputBlockInfo, we skip the successors\n+      continue;\n+    }\n+    // Update the current block\n+    outputBlockInfoMap[block].join(inputBlockInfo);\n+    // Update the successors\n+    for (auto *successor : successors) {\n+      inputBlockInfoMap[successor].join(outputBlockInfoMap[block]);\n+      blockList.emplace_back(successor);\n+    }\n+  }\n+}\n \n-    traverseRegions();\n-    if (isa<scf::ForOp>(operation)) {\n-      // scf.for can have two possible inputs: the init value and the\n-      // previous iteration's result. Although we've applied alias analysis,\n-      // there could be unsynced memory accesses on reused memories.\n-      // For example, consider the following code:\n-      // %1 = convert_layout %0: blocked -> shared\n-      // ...\n-      // gpu.barrier\n-      // ...\n-      // %5 = convert_layout %4 : shared -> dot\n-      // %6 = tt.dot %2, %5\n-      // scf.yield\n-      //\n-      // Though %5 could be released before scf.yield, it may shared the same\n-      // memory with %1. So we actually have to insert a barrier before %1 to\n-      // make sure the memory is synced.\n-      traverseRegions();\n+void MembarAnalysis::visitTerminator(Operation *op,\n+                                     SmallVector<Block *> &successors) {\n+  if (auto branchInterface = dyn_cast<BranchOpInterface>(op)) {\n+    Block *parentBlock = branchInterface->getBlock();\n+    for (Block *successor : parentBlock->getSuccessors()) {\n+      successors.push_back(successor);\n     }\n+    return;\n   }\n+  // Otherwise, it could be a return op\n+  assert(isa<func::ReturnOp>(op) && \"Unknown terminator\");\n }\n \n-void MembarAnalysis::transfer(Operation *op, RegionInfo *regionInfo,\n-                              OpBuilder *builder) {\n-  if (isa<scf::ForOp>(op) || isa<scf::IfOp>(op) || isa<scf::YieldOp>(op) ||\n-      isa<tensor::ExtractSliceOp>(op) || isa<triton::gpu::AllocTensorOp>(op)) {\n-    // Do not insert barriers before control flow operations and\n-    // alloc/extract/insert\n+void MembarAnalysis::update(Operation *op, BlockInfo *blockInfo,\n+                            OpBuilder *builder) {\n+  if (isa<tensor::ExtractSliceOp>(op) || isa<triton::gpu::AllocTensorOp>(op) ||\n+      isa<triton::TransOp>(op)) {\n     // alloc is an allocation op without memory write.\n     // FIXME(Keren): extract_slice is always alias for now\n     return;\n   }\n \n   if (isa<gpu::BarrierOp>(op)) {\n     // If the current op is a barrier, we sync previous reads and writes\n-    regionInfo->sync();\n+    blockInfo->sync();\n     return;\n   }\n \n   if (isa<triton::gpu::AsyncWaitOp>(op) &&\n       !isa<gpu::BarrierOp>(op->getNextNode())) {\n     // If the current op is an async wait and the next op is not a barrier we\n     // insert a barrier op and sync\n-    regionInfo->sync();\n+    blockInfo->sync();\n     OpBuilder::InsertionGuard g(*builder);\n     builder->setInsertionPointAfter(op);\n     builder->create<gpu::BarrierOp>(op->getLoc());\n-    regionInfo->sync();\n+    blockInfo->sync();\n     return;\n   }\n \n-  RegionInfo curRegionInfo;\n+  BlockInfo curBlockInfo;\n   for (Value value : op->getOperands()) {\n     for (auto bufferId : allocation->getBufferIds(value)) {\n       if (bufferId != Allocation::InvalidBufferId) {\n         if (isa<triton::gpu::InsertSliceAsyncOp>(op) ||\n             isa<tensor::InsertSliceOp>(op)) {\n-          // FIXME(Keren): insert_slice and insert_slice_async are always alias\n-          // for now\n-          curRegionInfo.syncWriteBuffers.insert(bufferId);\n+          // FIXME(Keren): insert_slice and insert_slice_async are always\n+          // alias for now\n+          curBlockInfo.syncWriteBuffers.insert(bufferId);\n         } else {\n           // ConvertLayoutOp: shared memory -> registers\n-          curRegionInfo.syncReadBuffers.insert(bufferId);\n+          curBlockInfo.syncReadBuffers.insert(bufferId);\n         }\n       }\n     }\n@@ -113,25 +123,25 @@ void MembarAnalysis::transfer(Operation *op, RegionInfo *regionInfo,\n     // ConvertLayoutOp: registers -> shared memory\n     auto bufferId = allocation->getBufferId(value);\n     if (bufferId != Allocation::InvalidBufferId) {\n-      curRegionInfo.syncWriteBuffers.insert(bufferId);\n+      curBlockInfo.syncWriteBuffers.insert(bufferId);\n     }\n   }\n   // Scratch buffer is considered as both shared memory write & read\n   auto bufferId = allocation->getBufferId(op);\n   if (bufferId != Allocation::InvalidBufferId) {\n-    curRegionInfo.syncWriteBuffers.insert(bufferId);\n-    curRegionInfo.syncReadBuffers.insert(bufferId);\n+    curBlockInfo.syncWriteBuffers.insert(bufferId);\n+    curBlockInfo.syncReadBuffers.insert(bufferId);\n   }\n \n-  if (regionInfo->isIntersected(curRegionInfo, allocation)) {\n+  if (blockInfo->isIntersected(curBlockInfo, allocation)) {\n     OpBuilder::InsertionGuard g(*builder);\n     builder->setInsertionPoint(op);\n     builder->create<gpu::BarrierOp>(op->getLoc());\n-    regionInfo->sync();\n+    blockInfo->sync();\n   }\n   // Update the region info, even if barrier is inserted, we have to maintain\n   // the current op's read/write buffers.\n-  regionInfo->join(curRegionInfo);\n+  blockInfo->join(curBlockInfo);\n }\n \n } // namespace mlir"}, {"filename": "lib/Analysis/Utility.cpp", "status": "modified", "additions": 252, "deletions": 14, "changes": 266, "file_content_changes": "@@ -1,20 +1,24 @@\n #include \"triton/Analysis/Utility.h\"\n+#include \"mlir/Analysis/DataFlow/ConstantPropagationAnalysis.h\"\n+#include \"mlir/Analysis/DataFlow/DeadCodeAnalysis.h\"\n #include \"mlir/IR/Dialect.h\"\n+#include \"mlir/IR/Matchers.h\"\n #include \"triton/Dialect/Triton/IR/Dialect.h\"\n #include \"triton/Dialect/TritonGPU/IR/Dialect.h\"\n+#include <deque>\n \n namespace mlir {\n \n bool ReduceOpHelper::isFastReduction() {\n   auto srcLayout = srcTy.getEncoding();\n-  auto axis = op.axis();\n+  auto axis = op.getAxis();\n   return axis == triton::gpu::getOrder(srcLayout)[0];\n }\n \n unsigned ReduceOpHelper::getInterWarpSize() {\n   auto srcLayout = srcTy.getEncoding();\n   auto srcShape = srcTy.getShape();\n-  auto axis = op.axis();\n+  auto axis = op.getAxis();\n   auto srcReduceDimSize = static_cast<unsigned>(srcShape[axis]);\n   unsigned sizeIntraWarps = getIntraWarpSize();\n   return std::min(srcReduceDimSize / sizeIntraWarps,\n@@ -24,30 +28,36 @@ unsigned ReduceOpHelper::getInterWarpSize() {\n unsigned ReduceOpHelper::getIntraWarpSize() {\n   auto srcLayout = srcTy.getEncoding();\n   auto srcShape = srcTy.getShape();\n-  auto axis = op.axis();\n+  auto axis = op.getAxis();\n   auto srcReduceDimSize = static_cast<unsigned>(srcShape[axis]);\n   return std::min(srcReduceDimSize,\n                   triton::gpu::getThreadsPerWarp(srcLayout)[axis]);\n }\n \n unsigned ReduceOpHelper::getThreadsReductionAxis() {\n   auto srcLayout = srcTy.getEncoding();\n-  auto axis = op.axis();\n+  auto axis = op.getAxis();\n   return triton::gpu::getThreadsPerWarp(srcLayout)[axis] *\n          triton::gpu::getWarpsPerCTA(srcLayout)[axis];\n }\n \n SmallVector<unsigned> ReduceOpHelper::getScratchConfigBasic() {\n-  auto axis = op.axis();\n+  auto axis = op.getAxis();\n   auto smemShape = convertType<unsigned>(getSrcShape());\n   smemShape[axis] = std::min(smemShape[axis], getThreadsReductionAxis());\n   return smemShape;\n }\n \n SmallVector<SmallVector<unsigned>> ReduceOpHelper::getScratchConfigsFast() {\n-  auto axis = op.axis();\n+  auto axis = op.getAxis();\n   SmallVector<SmallVector<unsigned>> smemShapes(3);\n \n+  auto argLayout = srcTy.getEncoding();\n+  auto argLayoutMma = argLayout.dyn_cast<triton::gpu::MmaEncodingAttr>();\n+  if (argLayoutMma && argLayoutMma.getVersionMajor() == 2 &&\n+      triton::gpu::getWarpsPerCTA(argLayout)[axis] == 1)\n+    return {{1, 1}, {1, 1}};\n+\n   /// shared memory block0\n   smemShapes[0] = convertType<unsigned>(getSrcShape());\n   smemShapes[0][axis] = getInterWarpSize();\n@@ -72,10 +82,10 @@ unsigned ReduceOpHelper::getScratchSizeInBytes() {\n     elems = product<unsigned>(smemShape);\n   }\n \n-  auto tensorType = op.operand().getType().cast<RankedTensorType>();\n+  auto tensorType = op.getOperand().getType().cast<RankedTensorType>();\n   unsigned bytes = elems * tensorType.getElementTypeBitWidth() / 8;\n \n-  if (triton::ReduceOp::withIndex(op.redOp()))\n+  if (triton::ReduceOp::withIndex(op.getRedOp()))\n     bytes += elems * sizeof(int32_t);\n \n   return bytes;\n@@ -99,8 +109,7 @@ bool maybeSharedAllocationOp(Operation *op) {\n          (dialect->getTypeID() ==\n               mlir::TypeID::get<triton::gpu::TritonGPUDialect>() ||\n           dialect->getTypeID() == mlir::TypeID::get<triton::TritonDialect>() ||\n-          dialect->getTypeID() ==\n-              mlir::TypeID::get<arith::ArithmeticDialect>() ||\n+          dialect->getTypeID() == mlir::TypeID::get<arith::ArithDialect>() ||\n           dialect->getTypeID() == mlir::TypeID::get<tensor::TensorDialect>());\n }\n \n@@ -114,12 +123,12 @@ bool supportMMA(triton::DotOp op, int version) {\n   // Refer to mma section for the data type supported by Volta and Hopper\n   // Tensor Core in\n   // https://docs.nvidia.com/cuda/parallel-thread-execution/index.html#warp-level-matrix-fragment-mma-884-f16\n-  auto aElemTy = op.a().getType().cast<RankedTensorType>().getElementType();\n-  auto bElemTy = op.b().getType().cast<RankedTensorType>().getElementType();\n+  auto aElemTy = op.getA().getType().cast<RankedTensorType>().getElementType();\n+  auto bElemTy = op.getB().getType().cast<RankedTensorType>().getElementType();\n   if (aElemTy.isF32() && bElemTy.isF32()) {\n-    return op.allowTF32() && version >= 2;\n+    return op.getAllowTF32() && version >= 2;\n   }\n-  return supportMMA(op.a(), version) && supportMMA(op.b(), version);\n+  return supportMMA(op.getA(), version) && supportMMA(op.getB(), version);\n }\n \n bool supportMMA(Value value, int version) {\n@@ -148,4 +157,233 @@ std::string getValueOperandName(Value value, AsmState &state) {\n   return opName;\n }\n \n+bool isMmaToDotShortcut(triton::gpu::MmaEncodingAttr &mmaLayout,\n+                        triton::gpu::DotOperandEncodingAttr &dotOperandLayout) {\n+  // dot_op<opIdx=0, parent=#mma> = #mma\n+  // when #mma = MmaEncoding<version=2, warpsPerCTA=[..., 1]>\n+  return mmaLayout.getVersionMajor() == 2 &&\n+         mmaLayout.getWarpsPerCTA()[1] == 1 &&\n+         dotOperandLayout.getOpIdx() == 0 &&\n+         dotOperandLayout.getParent() == mmaLayout;\n+}\n+\n+bool isSingleValue(Value value) {\n+  // Don't consider load as expensive if it is loading a scalar.\n+  if (auto tensorTy = value.getType().dyn_cast<RankedTensorType>())\n+    return tensorTy.getNumElements() == 1;\n+  // TODO: Handle other cases.\n+  // For example, when ptr is a tensor of single value.\n+  // It means that ptr is a resultant of broadcast or generated through\n+  // a chain of broadcast and other operations.\n+  // Rematerialize it without considering contiguous memory access pattern is\n+  // fine.\n+  return true;\n+}\n+\n+namespace {\n+\n+/// A data structure similar to SetVector but maintains\n+/// a deque instead of a vector to allow for efficient\n+/// push_back and pop_front operations.\n+/// Using SetVector doesn't suffice our needs because\n+/// it only pushes and pops from the back.\n+/// For example, if we have a queue like this:\n+/// 0->4 1->2->3\n+///    ^--------\n+/// where 3 depends on 4, once we pop 3, we found\n+/// 4 is not ready, so we check 2 and push 3 back\n+/// to the queue.\n+struct DFSSubgraphState {\n+  DFSSubgraphState() : set(), deque() {}\n+  DenseSet<Operation *> set;\n+  std::deque<Operation *> deque;\n+\n+  bool push_back(Operation *op) {\n+    if (set.insert(op).second) {\n+      deque.push_back(op);\n+      return true;\n+    }\n+    return false;\n+  }\n+\n+  Operation *pop_front() {\n+    Operation *op = deque.front();\n+    deque.pop_front();\n+    set.erase(op);\n+    return op;\n+  }\n+\n+  bool empty() { return deque.empty(); }\n+};\n+\n+/// DFS post-order implementation that maintains a global count to work across\n+/// multiple invocations, to help implement topological sort on multi-root DAGs.\n+/// We traverse all operations but only record the ones that appear in\n+/// `toSort` for the final result.\n+struct DFSState {\n+  DFSState(const SetVector<Operation *> &set) : toSort(set), seen() {}\n+  const SetVector<Operation *> &toSort;\n+  SmallVector<Operation *, 16> topologicalCounts;\n+  DenseSet<Operation *> seen;\n+\n+  /// We mark each op as ready if all its operands are seen. If an op is ready,\n+  /// we add it to the queue. Otherwise, we keep adding its operands to the\n+  /// ancestors set.\n+  void addToReadyQueue(Operation *op, DFSSubgraphState &subGraph,\n+                       SmallVector<Operation *, 4> &readyQueue) {\n+    bool ready = true;\n+    for (Value operand : op->getOperands()) {\n+      auto def = operand.getDefiningOp();\n+      if (def && !seen.count(def)) {\n+        subGraph.push_back(def);\n+        ready = false;\n+      }\n+    }\n+    if (ready)\n+      readyQueue.push_back(op);\n+  }\n+};\n+\n+void dfsPostorder(Operation *root, DFSState *state) {\n+  DFSSubgraphState subGraph;\n+  subGraph.push_back(root);\n+  SmallVector<Operation *> ops;\n+  while (!subGraph.empty()) {\n+    // Nodes in the ready queue are ready to be processed.\n+    // Meaning that either their operands are all seen or they have null\n+    // operands.\n+    SmallVector<Operation *, 4> readyQueue;\n+    auto *current = subGraph.pop_front();\n+    state->addToReadyQueue(current, subGraph, readyQueue);\n+    while (!readyQueue.empty()) {\n+      Operation *current = readyQueue.pop_back_val();\n+      if (!state->seen.insert(current).second)\n+        continue;\n+      ops.push_back(current);\n+      for (Value result : current->getResults()) {\n+        for (Operation *op : result.getUsers())\n+          state->addToReadyQueue(op, subGraph, readyQueue);\n+      }\n+      for (Region &region : current->getRegions()) {\n+        for (Operation &op : region.getOps())\n+          state->addToReadyQueue(&op, subGraph, readyQueue);\n+      }\n+    }\n+  }\n+\n+  for (Operation *op : llvm::reverse(ops)) {\n+    if (state->toSort.count(op) > 0)\n+      state->topologicalCounts.push_back(op);\n+  }\n+}\n+\n+} // namespace\n+\n+SetVector<Operation *>\n+multiRootTopologicalSort(const SetVector<Operation *> &toSort) {\n+  if (toSort.empty()) {\n+    return toSort;\n+  }\n+\n+  // Run from each root with global count and `seen` set.\n+  DFSState state(toSort);\n+  for (auto *s : toSort) {\n+    assert(toSort.count(s) == 1 && \"NYI: multi-sets not supported\");\n+    dfsPostorder(s, &state);\n+  }\n+\n+  // Reorder and return.\n+  SetVector<Operation *> res;\n+  for (auto it = state.topologicalCounts.rbegin(),\n+            eit = state.topologicalCounts.rend();\n+       it != eit; ++it) {\n+    res.insert(*it);\n+  }\n+  return res;\n+}\n+\n+SetVector<Operation *> multiRootGetSlice(Operation *op,\n+                                         TransitiveFilter backwardFilter,\n+                                         TransitiveFilter forwardFilter) {\n+  SetVector<Operation *> slice;\n+  slice.insert(op);\n+\n+  unsigned currentIndex = 0;\n+  SetVector<Operation *> backwardSlice;\n+  SetVector<Operation *> forwardSlice;\n+  while (currentIndex != slice.size()) {\n+    auto *currentOp = (slice)[currentIndex];\n+    // Compute and insert the backwardSlice starting from currentOp.\n+    backwardSlice.clear();\n+    getBackwardSlice(currentOp, &backwardSlice, backwardFilter);\n+    slice.insert(backwardSlice.begin(), backwardSlice.end());\n+\n+    // Compute and insert the forwardSlice starting from currentOp.\n+    forwardSlice.clear();\n+    getForwardSlice(currentOp, &forwardSlice, forwardFilter);\n+    slice.insert(forwardSlice.begin(), forwardSlice.end());\n+    ++currentIndex;\n+  }\n+  return multiRootTopologicalSort(slice);\n+}\n+\n+namespace {\n+// Copied from TestDeadCodeAnalysis.cpp, because some dead code analysis\n+// interacts with constant propagation, but SparseConstantPropagation\n+// doesn't seem to be sufficient.\n+class ConstantAnalysis : public DataFlowAnalysis {\n+public:\n+  using DataFlowAnalysis::DataFlowAnalysis;\n+\n+  LogicalResult initialize(Operation *top) override {\n+    WalkResult result = top->walk([&](Operation *op) {\n+      if (failed(visit(op)))\n+        return WalkResult::interrupt();\n+      return WalkResult::advance();\n+    });\n+    return success(!result.wasInterrupted());\n+  }\n+\n+  LogicalResult visit(ProgramPoint point) override {\n+    Operation *op = point.get<Operation *>();\n+    Attribute value;\n+    if (matchPattern(op, m_Constant(&value))) {\n+      auto *constant = getOrCreate<dataflow::Lattice<dataflow::ConstantValue>>(\n+          op->getResult(0));\n+      propagateIfChanged(constant, constant->join(dataflow::ConstantValue(\n+                                       value, op->getDialect())));\n+      return success();\n+    }\n+    // Dead code analysis requires every operands has initialized ConstantValue\n+    // state before it is visited.\n+    // https://github.com/llvm/llvm-project/blob/2ec1aba2b69faa1de5f71832a48e25aa3b5d5314/mlir/lib/Analysis/DataFlow/DeadCodeAnalysis.cpp#L322\n+    // That's why we need to set all operands to unknown constants.\n+    setAllToUnknownConstants(op->getResults());\n+    for (Region &region : op->getRegions()) {\n+      for (Block &block : region.getBlocks())\n+        setAllToUnknownConstants(block.getArguments());\n+    }\n+    return success();\n+  }\n+\n+private:\n+  /// Set all given values as not constants.\n+  void setAllToUnknownConstants(ValueRange values) {\n+    dataflow::ConstantValue unknownConstant(nullptr, nullptr);\n+    for (Value value : values) {\n+      auto *constant =\n+          getOrCreate<dataflow::Lattice<dataflow::ConstantValue>>(value);\n+      propagateIfChanged(constant, constant->join(unknownConstant));\n+    }\n+  }\n+};\n+} // namespace\n+\n+std::unique_ptr<DataFlowSolver> createDataFlowSolver() {\n+  auto solver = std::make_unique<DataFlowSolver>();\n+  solver->load<dataflow::DeadCodeAnalysis>();\n+  solver->load<ConstantAnalysis>();\n+  return solver;\n+}\n+\n } // namespace mlir"}, {"filename": "lib/Conversion/TritonGPUToLLVM/CMakeLists.txt", "status": "modified", "additions": 7, "deletions": 5, "changes": 12, "file_content_changes": "@@ -1,13 +1,15 @@\n add_mlir_conversion_library(TritonGPUToLLVM\n-    TritonGPUToLLVM.cpp\n-    TritonGPUToLLVMPass.cpp\n-    PTXAsmFormat.cpp\n     ConvertLayoutOpToLLVM.cpp\n+    DotOpToLLVM.cpp\n     ElementwiseOpToLLVM.cpp\n-    ViewOpToLLVM.cpp\n     LoadStoreOpToLLVM.cpp\n-    DotOpToLLVM.cpp\n+    TritonGPUToLLVM.cpp\n+    TritonGPUToLLVMPass.cpp\n+    PTXAsmFormat.cpp\n     ReduceOpToLLVM.cpp\n+    Utility.cpp\n+    ViewOpToLLVM.cpp\n+    DotOpHelpers.cpp\n \n     ADDITIONAL_HEADER_DIRS\n     ${PROJECT_SOURCE_DIR}/include/triton/Conversion/TritonGPUToLLVM"}, {"filename": "lib/Conversion/TritonGPUToLLVM/ConvertLayoutOpToLLVM.cpp", "status": "modified", "additions": 171, "deletions": 84, "changes": 255, "file_content_changes": "@@ -1,5 +1,6 @@\n #include \"ConvertLayoutOpToLLVM.h\"\n #include \"DotOpHelpers.h\"\n+#include \"Utility.h\"\n \n using ::mlir::LLVM::DotOpFMAConversionHelper;\n using ::mlir::LLVM::DotOpMmaV1ConversionHelper;\n@@ -17,15 +18,6 @@ using ::mlir::triton::gpu::getSizePerThread;\n using ::mlir::triton::gpu::isaDistributedLayout;\n using ::mlir::triton::gpu::SharedEncodingAttr;\n \n-bool isMmaToDotShortcut(MmaEncodingAttr &mmaLayout,\n-                        DotOperandEncodingAttr &dotOperandLayout) {\n-  // dot_op<opIdx=0, parent=#mma> = #mma\n-  // when #mma = MmaEncoding<version=2, warpsPerCTA=[..., 1]>\n-  return mmaLayout.getWarpsPerCTA()[1] == 1 &&\n-         dotOperandLayout.getOpIdx() == 0 &&\n-         dotOperandLayout.getParent() == mmaLayout;\n-}\n-\n struct ConvertLayoutOpConversion\n     : public ConvertTritonGPUOpToLLVMPattern<triton::gpu::ConvertLayoutOp> {\n public:\n@@ -35,8 +27,8 @@ struct ConvertLayoutOpConversion\n   LogicalResult\n   matchAndRewrite(triton::gpu::ConvertLayoutOp op, OpAdaptor adaptor,\n                   ConversionPatternRewriter &rewriter) const override {\n-    Value src = op.src();\n-    Value dst = op.result();\n+    Value src = op.getSrc();\n+    Value dst = op.getResult();\n     auto srcTy = src.getType().cast<RankedTensorType>();\n     auto dstTy = dst.getType().cast<RankedTensorType>();\n     Attribute srcLayout = srcTy.getEncoding();\n@@ -128,27 +120,7 @@ struct ConvertLayoutOpConversion\n         mmaColIdx[0] = add(mmaThreadIdInGrpM2, colWarpOffset);\n         mmaColIdx[1] = add(mmaThreadIdInGrpM2P1, colWarpOffset);\n       } else if (mmaLayout.isVolta()) {\n-        multiDimWarpId[0] = urem(multiDimWarpId[0], idx_val(shape[0] / 16));\n-        multiDimWarpId[1] = urem(multiDimWarpId[1], idx_val(shape[1] / 16));\n-        Value laneIdDiv16 = udiv(laneId, _16);\n-        Value laneIdRem16 = urem(laneId, _16);\n-        Value laneIdRem2 = urem(laneId, _2);\n-        Value laneIdRem16Div8 = udiv(laneIdRem16, _8);\n-        Value laneIdRem16Div4 = udiv(laneIdRem16, _4);\n-        Value laneIdRem16Div4Rem2 = urem(laneIdRem16Div4, _2);\n-        Value laneIdRem4Div2 = udiv(urem(laneId, _4), _2);\n-        Value rowWarpOffset = mul(multiDimWarpId[0], _16);\n-        Value colWarpOffset = mul(multiDimWarpId[1], _16);\n-        mmaRowIdx[0] =\n-            add(add(mul(laneIdDiv16, _8), mul(laneIdRem16Div4Rem2, _4)),\n-                laneIdRem2);\n-        mmaRowIdx[0] = add(mmaRowIdx[0], rowWarpOffset);\n-        mmaRowIdx[1] = add(mmaRowIdx[0], _2);\n-        mmaColIdx[0] = add(mul(laneIdRem16Div8, _4), mul(laneIdRem4Div2, _2));\n-        mmaColIdx[0] = add(mmaColIdx[0], colWarpOffset);\n-        mmaColIdx[1] = add(mmaColIdx[0], _1);\n-        mmaColIdx[2] = add(mmaColIdx[0], _8);\n-        mmaColIdx[3] = add(mmaColIdx[0], idx_val(9));\n+        // Volta doesn't follow the pattern here.\"\n       } else {\n         llvm_unreachable(\"Unexpected MMALayout version\");\n       }\n@@ -163,26 +135,12 @@ struct ConvertLayoutOpConversion\n         multiDimOffset[1] = add(\n             multiDimOffset[1], idx_val(multiDimCTAInRepId[1] * shapePerCTA[1]));\n       } else if (mmaLayout.isVolta()) {\n-        // the order of elements in a thread:\n-        //   c0, c1, ...  c4, c5\n-        //   c2, c3, ...  c6, c7\n-        if (elemId < 2) {\n-          multiDimOffset[0] = mmaRowIdx[0];\n-          multiDimOffset[1] = mmaColIdx[elemId % 2];\n-        } else if (elemId >= 2 && elemId < 4) {\n-          multiDimOffset[0] = mmaRowIdx[1];\n-          multiDimOffset[1] = mmaColIdx[elemId % 2];\n-        } else if (elemId >= 4 && elemId < 6) {\n-          multiDimOffset[0] = mmaRowIdx[0];\n-          multiDimOffset[1] = mmaColIdx[elemId % 2 + 2];\n-        } else if (elemId >= 6) {\n-          multiDimOffset[0] = mmaRowIdx[1];\n-          multiDimOffset[1] = mmaColIdx[elemId % 2 + 2];\n-        }\n-        multiDimOffset[0] = add(\n-            multiDimOffset[0], idx_val(multiDimCTAInRepId[0] * shapePerCTA[0]));\n-        multiDimOffset[1] = add(\n-            multiDimOffset[1], idx_val(multiDimCTAInRepId[1] * shapePerCTA[1]));\n+        auto [isARow, isBRow, isAVec4, isBVec4, mmaId] =\n+            mmaLayout.decodeVoltaLayoutStates();\n+        auto coords = DotOpMmaV1ConversionHelper::getMNCoords(\n+            threadId, rewriter, mmaLayout.getWarpsPerCTA(), shape, isARow,\n+            isBRow, isAVec4, isBVec4);\n+        return DotOpMmaV1ConversionHelper::getCoord(elemId, coords);\n       } else {\n         llvm_unreachable(\"Unexpected MMALayout version\");\n       }\n@@ -201,14 +159,11 @@ struct ConvertLayoutOpConversion\n                       Value smemBase) const {\n     auto accumNumCTAsEachRep = product<unsigned>(numCTAsEachRep);\n     auto layout = type.getEncoding();\n-    auto blockedLayout = layout.dyn_cast<BlockedEncodingAttr>();\n-    auto sliceLayout = layout.dyn_cast<SliceEncodingAttr>();\n-    auto mmaLayout = layout.dyn_cast<MmaEncodingAttr>();\n     auto rank = type.getRank();\n     auto sizePerThread = getSizePerThread(layout);\n     auto accumSizePerThread = product<unsigned>(sizePerThread);\n     SmallVector<unsigned> numCTAs(rank);\n-    auto shapePerCTA = getShapePerCTA(layout);\n+    auto shapePerCTA = getShapePerCTA(layout, type.getShape());\n     auto order = getOrder(layout);\n     for (unsigned d = 0; d < rank; ++d) {\n       numCTAs[d] = ceil<unsigned>(type.getShape()[d], shapePerCTA[d]);\n@@ -277,15 +232,118 @@ struct ConvertLayoutOpConversion\n     }\n   }\n \n+  // The MMAV1's result is quite different from the exising \"Replica\" structure,\n+  // add a new simple but clear implementation for it to avoid modificating the\n+  // logic of the exising one.\n+  void processReplicaForMMAV1(Location loc, ConversionPatternRewriter &rewriter,\n+                              bool stNotRd, RankedTensorType type,\n+                              ArrayRef<unsigned> multiDimRepId, unsigned vec,\n+                              ArrayRef<unsigned> paddedRepShape,\n+                              ArrayRef<unsigned> outOrd,\n+                              SmallVector<Value> &vals, Value smemBase,\n+                              ArrayRef<int64_t> shape,\n+                              bool isDestMma = false) const {\n+    unsigned accumNumCTAsEachRep = 1;\n+    auto layout = type.getEncoding();\n+    MmaEncodingAttr mma = layout.dyn_cast<MmaEncodingAttr>();\n+    auto sliceLayout = layout.dyn_cast<SliceEncodingAttr>();\n+    if (sliceLayout)\n+      mma = sliceLayout.getParent().cast<MmaEncodingAttr>();\n+\n+    auto order = getOrder(layout);\n+    auto rank = type.getRank();\n+    int accumSizePerThread = vals.size();\n+\n+    SmallVector<unsigned> numCTAs(rank, 1);\n+    SmallVector<unsigned> numCTAsEachRep(rank, 1);\n+    SmallVector<unsigned> shapePerCTA = getShapePerCTA(layout, shape);\n+    auto elemTy = type.getElementType();\n+\n+    int ctaId = 0;\n+\n+    auto multiDimCTAInRepId =\n+        getMultiDimIndex<unsigned>(ctaId, numCTAsEachRep, order);\n+    SmallVector<unsigned> multiDimCTAId(rank);\n+    for (const auto &it : llvm::enumerate(multiDimCTAInRepId)) {\n+      auto d = it.index();\n+      multiDimCTAId[d] = multiDimRepId[d] * numCTAsEachRep[d] + it.value();\n+    }\n+\n+    std::vector<std::pair<SmallVector<Value>, Value>> coord2valT(\n+        accumSizePerThread);\n+    bool needTrans = outOrd[0] != 0;\n+    if (sliceLayout || isDestMma)\n+      needTrans = false;\n+\n+    vec = needTrans ? 2 : 1;\n+    {\n+      // We need to transpose the coordinates and values here to enable vec=2\n+      // when store to smem.\n+      std::vector<std::pair<SmallVector<Value>, Value>> coord2val(\n+          accumSizePerThread);\n+      for (unsigned elemId = 0; elemId < accumSizePerThread; ++elemId) {\n+        // TODO[Superjomn]: Move the coordinate computation out of loop, it is\n+        // duplicate in Volta.\n+        SmallVector<Value> multiDimOffset =\n+            getMultiDimOffset(layout, loc, rewriter, elemId, type.getShape(),\n+                              multiDimCTAInRepId, shapePerCTA);\n+        coord2val[elemId] = std::make_pair(multiDimOffset, vals[elemId]);\n+      }\n+\n+      if (needTrans) {\n+        auto [isARow, isBRow, isAVec4, isBVec4, mmaId] =\n+            mma.decodeVoltaLayoutStates();\n+        DotOpMmaV1ConversionHelper helper(mma);\n+        // do transpose\n+        int numM = helper.getElemsM(mma.getWarpsPerCTA()[0], shape[0], isARow,\n+                                    isAVec4);\n+        int numN = accumSizePerThread / numM;\n+\n+        for (int r = 0; r < numM; r++) {\n+          for (int c = 0; c < numN; c++) {\n+            coord2valT[r * numN + c] = std::move(coord2val[c * numM + r]);\n+          }\n+        }\n+      } else {\n+        coord2valT = std::move(coord2val);\n+      }\n+    }\n+\n+    // Now the coord2valT has the transposed and contiguous elements(with\n+    // vec=2), the original vals is not needed.\n+    for (unsigned elemId = 0; elemId < accumSizePerThread; elemId += vec) {\n+      auto coord = coord2valT[elemId].first;\n+      Value offset = linearize(rewriter, loc, coord, paddedRepShape, outOrd);\n+      auto elemPtrTy = ptr_ty(elemTy, 3);\n+      Value ptr = gep(elemPtrTy, smemBase, offset);\n+      auto vecTy = vec_ty(elemTy, vec);\n+      ptr = bitcast(ptr, ptr_ty(vecTy, 3));\n+      if (stNotRd) {\n+        Value valVec = undef(vecTy);\n+        for (unsigned v = 0; v < vec; ++v) {\n+          auto currVal = coord2valT[elemId + v].second;\n+          valVec = insert_element(vecTy, valVec, currVal, idx_val(v));\n+        }\n+        store(valVec, ptr);\n+      } else {\n+        Value valVec = load(ptr);\n+        for (unsigned v = 0; v < vec; ++v) {\n+          Value currVal = extract_element(elemTy, valVec, idx_val(v));\n+          vals[elemId + v] = currVal;\n+        }\n+      }\n+    }\n+  }\n+\n   // blocked/mma -> blocked/mma.\n   // Data padding in shared memory to avoid bank conflict.\n   LogicalResult\n   lowerDistributedToDistributed(triton::gpu::ConvertLayoutOp op,\n                                 OpAdaptor adaptor,\n                                 ConversionPatternRewriter &rewriter) const {\n     auto loc = op.getLoc();\n-    Value src = op.src();\n-    Value dst = op.result();\n+    Value src = op.getSrc();\n+    Value dst = op.getResult();\n     auto srcTy = src.getType().cast<RankedTensorType>();\n     auto dstTy = dst.getType().cast<RankedTensorType>();\n     Attribute srcLayout = srcTy.getEncoding();\n@@ -301,8 +359,26 @@ struct ConvertLayoutOpConversion\n     SmallVector<unsigned> outNumCTAsEachRep(rank);\n     SmallVector<unsigned> inNumCTAs(rank);\n     SmallVector<unsigned> outNumCTAs(rank);\n-    auto srcShapePerCTA = getShapePerCTA(srcLayout);\n-    auto dstShapePerCTA = getShapePerCTA(dstLayout);\n+    auto srcShapePerCTA = getShapePerCTA(srcLayout, srcTy.getShape());\n+    auto dstShapePerCTA = getShapePerCTA(dstLayout, shape);\n+\n+    // For Volta, all the coords for a CTA are calculated.\n+    bool isSrcMmaV1{}, isDstMmaV1{};\n+    if (auto mmaLayout = srcLayout.dyn_cast<MmaEncodingAttr>()) {\n+      isSrcMmaV1 = mmaLayout.isVolta();\n+    }\n+    if (auto sliceLayout = srcLayout.dyn_cast<SliceEncodingAttr>()) {\n+      isSrcMmaV1 = sliceLayout.getParent().isa<MmaEncodingAttr>() &&\n+                   sliceLayout.getParent().cast<MmaEncodingAttr>().isVolta();\n+    }\n+    if (auto mmaLayout = dstLayout.dyn_cast<MmaEncodingAttr>()) {\n+      isDstMmaV1 = mmaLayout.isVolta();\n+    }\n+    if (auto sliceLayout = dstLayout.dyn_cast<SliceEncodingAttr>()) {\n+      isDstMmaV1 = sliceLayout.getParent().isa<MmaEncodingAttr>() &&\n+                   sliceLayout.getParent().cast<MmaEncodingAttr>().isVolta();\n+    }\n+\n     for (unsigned d = 0; d < rank; ++d) …
: (tensor<1024x!tt.ptr<f64>, #blocked0>) -> tensor<1024x!tt.ptr<f64>, #blocked0>\n+  %362 = triton_gpu.convert_layout %339 : (tensor<1024xf64, #blocked0>) -> tensor<1024xf64, #blocked0>\n+  tt.store %361, %362 : tensor<1024xf64, #blocked0>\n+  %363 = tt.splat %arg15 : (!tt.ptr<f64>) -> tensor<1024x!tt.ptr<f64>, #blocked0>\n+  %364 = tt.addptr %363, %318 : tensor<1024x!tt.ptr<f64>, #blocked0>, tensor<1024xi64, #blocked0>\n+  %365 = triton_gpu.convert_layout %364 : (tensor<1024x!tt.ptr<f64>, #blocked0>) -> tensor<1024x!tt.ptr<f64>, #blocked0>\n+  %366 = triton_gpu.convert_layout %343 : (tensor<1024xf64, #blocked0>) -> tensor<1024xf64, #blocked0>\n+  tt.store %365, %366 : tensor<1024xf64, #blocked0>\n+  return\n+}\n+\n+// A mnist model from torch inductor.\n+// Check if topological sort is working correct and there's no unnecessary convert\n+// CHECK-LABEL: mnist\n+func.func public @mnist(%arg0: !tt.ptr<f32> {tt.divisibility = 16 : i32}, %arg1: !tt.ptr<f32> {tt.divisibility = 16 : i32}, %arg2: i32 {tt.divisibility = 16 : i32}, %arg3: i32) {\n+  // CHECK-NOT: triton_gpu.convert_layout\n+  %cst = arith.constant dense<10> : tensor<16x1xi32, #blocked2>\n+  %cst_0 = arith.constant dense<10> : tensor<1x16xi32, #blocked3>\n+  %c16_i32 = arith.constant 16 : i32\n+  %cst_1 = arith.constant dense<64> : tensor<16x1xi32, #blocked2>\n+  %cst_2 = arith.constant dense<0xFF800000> : tensor<16x16xf32, #blocked2>\n+  %cst_3 = arith.constant dense<0.000000e+00> : tensor<16x16xf32, #blocked2>\n+  %cst_4 = arith.constant dense<0> : tensor<16x16xi32, #blocked2>\n+  %0 = tt.get_program_id {axis = 0 : i32} : i32\n+  %1 = arith.muli %0, %c16_i32 : i32\n+  %2 = tt.make_range {end = 16 : i32, start = 0 : i32} : tensor<16xi32, #blocked0>\n+  %3 = triton_gpu.convert_layout %2 : (tensor<16xi32, #blocked0>) -> tensor<16xi32, #triton_gpu.slice<{dim = 1, parent = #blocked1}>>\n+  %4 = tt.expand_dims %3 {axis = 1 : i32} : (tensor<16xi32, #triton_gpu.slice<{dim = 1, parent = #blocked1}>>) -> tensor<16x1xi32, #blocked1>\n+  %5 = triton_gpu.convert_layout %4 : (tensor<16x1xi32, #blocked1>) -> tensor<16x1xi32, #blocked2>\n+  %6 = tt.splat %1 : (i32) -> tensor<16x1xi32, #blocked2>\n+  %7 = arith.addi %6, %5 : tensor<16x1xi32, #blocked2>\n+  %8 = \"triton_gpu.cmpi\"(%7, %cst_1) {predicate = 2 : i64} : (tensor<16x1xi32, #blocked2>, tensor<16x1xi32, #blocked2>) -> tensor<16x1xi1, #blocked2>\n+  %9 = triton_gpu.convert_layout %2 : (tensor<16xi32, #blocked0>) -> tensor<16xi32, #triton_gpu.slice<{dim = 0, parent = #blocked3}>>\n+  %10 = tt.expand_dims %9 {axis = 0 : i32} : (tensor<16xi32, #triton_gpu.slice<{dim = 0, parent = #blocked3}>>) -> tensor<1x16xi32, #blocked3>\n+  %11 = \"triton_gpu.cmpi\"(%10, %cst_0) {predicate = 2 : i64} : (tensor<1x16xi32, #blocked3>, tensor<1x16xi32, #blocked3>) -> tensor<1x16xi1, #blocked3>\n+  %12 = arith.muli %7, %cst : tensor<16x1xi32, #blocked2>\n+  %13 = tt.broadcast %10 : (tensor<1x16xi32, #blocked3>) -> tensor<16x16xi32, #blocked3>\n+  %14 = triton_gpu.convert_layout %13 : (tensor<16x16xi32, #blocked3>) -> tensor<16x16xi32, #blocked2>\n+  %15 = tt.broadcast %12 : (tensor<16x1xi32, #blocked2>) -> tensor<16x16xi32, #blocked2>\n+  %16 = arith.addi %14, %15 : tensor<16x16xi32, #blocked2>\n+  %17 = tt.splat %arg0 : (!tt.ptr<f32>) -> tensor<16x16x!tt.ptr<f32>, #blocked2>\n+  %18 = tt.addptr %17, %16 : tensor<16x16x!tt.ptr<f32>, #blocked2>, tensor<16x16xi32, #blocked2>\n+  %19 = tt.broadcast %11 : (tensor<1x16xi1, #blocked3>) -> tensor<16x16xi1, #blocked3>\n+  %20 = triton_gpu.convert_layout %19 : (tensor<16x16xi1, #blocked3>) -> tensor<16x16xi1, #blocked2>\n+  %21 = tt.broadcast %8 : (tensor<16x1xi1, #blocked2>) -> tensor<16x16xi1, #blocked2>\n+  %22 = arith.andi %20, %21 : tensor<16x16xi1, #blocked2>\n+  %23 = triton_gpu.convert_layout %18 : (tensor<16x16x!tt.ptr<f32>, #blocked2>) -> tensor<16x16x!tt.ptr<f32>, #blocked4>\n+  %24 = triton_gpu.convert_layout %22 : (tensor<16x16xi1, #blocked2>) -> tensor<16x16xi1, #blocked4>\n+  %25 = tt.load %23, %24 {cache = 1 : i32, evict = 3 : i32, isVolatile = false} : tensor<16x16xf32, #blocked4>\n+  %26 = triton_gpu.convert_layout %25 : (tensor<16x16xf32, #blocked4>) -> tensor<16x16xf32, #blocked2>\n+  %27 = \"triton_gpu.cmpf\"(%cst_2, %26) {predicate = 4 : i64} : (tensor<16x16xf32, #blocked2>, tensor<16x16xf32, #blocked2>) -> tensor<16x16xi1, #blocked2>\n+  %28 = arith.andi %22, %27 : tensor<16x16xi1, #blocked2>\n+  %29 = \"triton_gpu.select\"(%28, %26, %cst_2) : (tensor<16x16xi1, #blocked2>, tensor<16x16xf32, #blocked2>, tensor<16x16xf32, #blocked2>) -> tensor<16x16xf32, #blocked2>\n+  %30 = tt.reduce %29 {axis = 1 : i32, redOp = 12 : i32} : tensor<16x16xf32, #blocked2> -> tensor<16xf32, #triton_gpu.slice<{dim = 1, parent = #blocked2}>>\n+  %31 = triton_gpu.convert_layout %30 : (tensor<16xf32, #triton_gpu.slice<{dim = 1, parent = #blocked2}>>) -> tensor<16xf32, #blocked0>\n+  %32 = triton_gpu.convert_layout %31 : (tensor<16xf32, #blocked0>) -> tensor<16xf32, #triton_gpu.slice<{dim = 1, parent = #blocked1}>>\n+  %33 = tt.expand_dims %32 {axis = 1 : i32} : (tensor<16xf32, #triton_gpu.slice<{dim = 1, parent = #blocked1}>>) -> tensor<16x1xf32, #blocked1>\n+  %34 = triton_gpu.convert_layout %33 : (tensor<16x1xf32, #blocked1>) -> tensor<16x1xf32, #blocked2>\n+  %35 = arith.sitofp %cst_4 : tensor<16x16xi32, #blocked2> to tensor<16x16xf32, #blocked2>\n+  %36 = arith.addf %35, %cst_3 : tensor<16x16xf32, #blocked2>\n+  %37 = triton_gpu.convert_layout %18 : (tensor<16x16x!tt.ptr<f32>, #blocked2>) -> tensor<16x16x!tt.ptr<f32>, #blocked4>\n+  %38 = triton_gpu.convert_layout %22 : (tensor<16x16xi1, #blocked2>) -> tensor<16x16xi1, #blocked4>\n+  %39 = tt.load %37, %38 {cache = 1 : i32, evict = 3 : i32, isVolatile = false} : tensor<16x16xf32, #blocked4>\n+  %40 = triton_gpu.convert_layout %39 : (tensor<16x16xf32, #blocked4>) -> tensor<16x16xf32, #blocked2>\n+  %41 = tt.broadcast %34 : (tensor<16x1xf32, #blocked2>) -> tensor<16x16xf32, #blocked2>\n+  %42 = arith.subf %40, %41 : tensor<16x16xf32, #blocked2>\n+  %43 = math.exp %42 : tensor<16x16xf32, #blocked2>\n+  %44 = arith.addf %36, %43 : tensor<16x16xf32, #blocked2>\n+  %45 = \"triton_gpu.select\"(%22, %44, %36) : (tensor<16x16xi1, #blocked2>, tensor<16x16xf32, #blocked2>, tensor<16x16xf32, #blocked2>) -> tensor<16x16xf32, #blocked2>\n+  %46 = tt.reduce %45 {axis = 1 : i32, redOp = 2 : i32} : tensor<16x16xf32, #blocked2> -> tensor<16xf32, #triton_gpu.slice<{dim = 1, parent = #blocked2}>>\n+  %47 = triton_gpu.convert_layout %46 : (tensor<16xf32, #triton_gpu.slice<{dim = 1, parent = #blocked2}>>) -> tensor<16xf32, #blocked0>\n+  %48 = triton_gpu.convert_layout %47 : (tensor<16xf32, #blocked0>) -> tensor<16xf32, #triton_gpu.slice<{dim = 1, parent = #blocked1}>>\n+  %49 = tt.expand_dims %48 {axis = 1 : i32} : (tensor<16xf32, #triton_gpu.slice<{dim = 1, parent = #blocked1}>>) -> tensor<16x1xf32, #blocked1>\n+  %50 = triton_gpu.convert_layout %49 : (tensor<16x1xf32, #blocked1>) -> tensor<16x1xf32, #blocked2>\n+  %51 = triton_gpu.convert_layout %18 : (tensor<16x16x!tt.ptr<f32>, #blocked2>) -> tensor<16x16x!tt.ptr<f32>, #blocked4>\n+  %52 = triton_gpu.convert_layout %22 : (tensor<16x16xi1, #blocked2>) -> tensor<16x16xi1, #blocked4>\n+  %53 = tt.load %51, %52 {cache = 1 : i32, evict = 3 : i32, isVolatile = false} : tensor<16x16xf32, #blocked4>\n+  %54 = triton_gpu.convert_layout %53 : (tensor<16x16xf32, #blocked4>) -> tensor<16x16xf32, #blocked2>\n+  %55 = arith.subf %54, %41 : tensor<16x16xf32, #blocked2>\n+  %56 = math.log %50 : tensor<16x1xf32, #blocked2>\n+  %57 = tt.broadcast %56 : (tensor<16x1xf32, #blocked2>) -> tensor<16x16xf32, #blocked2>\n+  %58 = arith.subf %55, %57 : tensor<16x16xf32, #blocked2>\n+  %59 = tt.splat %arg1 : (!tt.ptr<f32>) -> tensor<16x16x!tt.ptr<f32>, #blocked2>\n+  %60 = tt.addptr %59, %16 : tensor<16x16x!tt.ptr<f32>, #blocked2>, tensor<16x16xi32, #blocked2>\n+  %61 = triton_gpu.convert_layout %60 : (tensor<16x16x!tt.ptr<f32>, #blocked2>) -> tensor<16x16x!tt.ptr<f32>, #blocked4>\n+  %62 = triton_gpu.convert_layout %58 : (tensor<16x16xf32, #blocked2>) -> tensor<16x16xf32, #blocked4>\n+  %63 = triton_gpu.convert_layout %22 : (tensor<16x16xi1, #blocked2>) -> tensor<16x16xi1, #blocked4>\n+  tt.store %61, %62, %63 : tensor<16x16xf32, #blocked4>\n+  return\n+}\n+\n+// -----\n+\n+#blocked0 = #triton_gpu.blocked<{sizePerThread = [1], threadsPerWarp = [32], warpsPerCTA = [8], order = [0]}>\n+#blocked1 = #triton_gpu.blocked<{sizePerThread = [1, 1], threadsPerWarp = [32, 1], warpsPerCTA = [8, 1], order = [0, 1]}>\n+#blocked2 = #triton_gpu.blocked<{sizePerThread = [1, 1], threadsPerWarp = [32, 1], warpsPerCTA = [2, 4], order = [0, 1]}>\n+#blocked3 = #triton_gpu.blocked<{sizePerThread = [1, 1], threadsPerWarp = [1, 32], warpsPerCTA = [1, 8], order = [0, 1]}>\n+#blocked4 = #triton_gpu.blocked<{sizePerThread = [1, 8], threadsPerWarp = [4, 8], warpsPerCTA = [8, 1], order = [1, 0]}>\n+#blocked5 = #triton_gpu.blocked<{sizePerThread = [1, 4], threadsPerWarp = [2, 16], warpsPerCTA = [8, 1], order = [1, 0]}>\n+// cmpf and cmpi have different operands and result types\n+// CHECK-LABEL: cmp\n+func.func public @cmp(%arg0: !tt.ptr<f16> {tt.divisibility = 16 : i32}, %arg1: !tt.ptr<f32> {tt.divisibility = 16 : i32}, %arg2: !tt.ptr<f32> {tt.divisibility = 16 : i32}, %arg3: !tt.ptr<f16> {tt.divisibility = 16 : i32}, %arg4: i32 {tt.divisibility = 16 : i32}, %arg5: i32 {tt.divisibility = 16 : i32}) {\n+  %c64 = arith.constant 64 : index\n+  %c2048 = arith.constant 2048 : index\n+  %c0 = arith.constant 0 : index\n+  %c64_i32 = arith.constant 64 : i32\n+  %cst = arith.constant dense<-3.40282347E+38> : tensor<64x64xf32, #blocked2>\n+  %cst_0 = arith.constant dense<4194304> : tensor<64x1xi32, #blocked2>\n+  %cst_1 = arith.constant dense<12> : tensor<64x1xi32, #blocked2>\n+  %cst_2 = arith.constant dense<2048> : tensor<1x64xi32, #blocked3>\n+  %cst_3 = arith.constant dense<0> : tensor<64x64xi32, #blocked2>\n+  %cst_4 = arith.constant dense<2048> : tensor<64x1xi32, #blocked2>\n+  %cst_5 = arith.constant dense<49152> : tensor<64x1xi32, #blocked2>\n+  %cst_6 = arith.constant dense<0.000000e+00> : tensor<64x64xf32, #blocked2>\n+  %0 = tt.get_program_id {axis = 0 : i32} : i32\n+  %1 = arith.muli %0, %c64_i32 : i32\n+  %2 = tt.make_range {end = 64 : i32, start = 0 : i32} : tensor<64xi32, #blocked0>\n+  %3 = triton_gpu.convert_layout %2 : (tensor<64xi32, #blocked0>) -> tensor<64xi32, #triton_gpu.slice<{dim = 1, parent = #blocked1}>>\n+  %4 = tt.expand_dims %3 {axis = 1 : i32} : (tensor<64xi32, #triton_gpu.slice<{dim = 1, parent = #blocked1}>>) -> tensor<64x1xi32, #blocked1>\n+  %5 = triton_gpu.convert_layout %4 : (tensor<64x1xi32, #blocked1>) -> tensor<64x1xi32, #blocked2>\n+  %6 = tt.splat %1 : (i32) -> tensor<64x1xi32, #blocked2>\n+  %7 = arith.addi %6, %5 : tensor<64x1xi32, #blocked2>\n+  %8 = \"triton_gpu.cmpi\"(%7, %cst_5) {predicate = 2 : i64} : (tensor<64x1xi32, #blocked2>, tensor<64x1xi32, #blocked2>) -> tensor<64x1xi1, #blocked2>\n+  %9 = triton_gpu.convert_layout %2 : (tensor<64xi32, #blocked0>) -> tensor<64xi32, #triton_gpu.slice<{dim = 0, parent = #blocked3}>>\n+  %10 = tt.expand_dims %9 {axis = 0 : i32} : (tensor<64xi32, #triton_gpu.slice<{dim = 0, parent = #blocked3}>>) -> tensor<1x64xi32, #blocked3>\n+  %11 = arith.remsi %7, %cst_4 : tensor<64x1xi32, #blocked2>\n+  %12 = arith.divsi %7, %cst_4 : tensor<64x1xi32, #blocked2>\n+  %13 = arith.sitofp %cst_3 : tensor<64x64xi32, #blocked2> to tensor<64x64xf32, #blocked2>\n+  %14 = arith.addf %13, %cst_6 : tensor<64x64xf32, #blocked2>\n+  %15 = arith.muli %7, %cst_4 : tensor<64x1xi32, #blocked2>\n+  %16 = tt.broadcast %15 : (tensor<64x1xi32, #blocked2>) -> tensor<64x64xi32, #blocked2>\n+  %17 = tt.splat %arg0 : (!tt.ptr<f16>) -> tensor<64x64x!tt.ptr<f16>, #blocked2>\n+  %18 = tt.broadcast %8 : (tensor<64x1xi1, #blocked2>) -> tensor<64x64xi1, #blocked2>\n+  %19 = arith.muli %11, %cst_4 : tensor<64x1xi32, #blocked2>\n+  %20 = tt.broadcast %19 : (tensor<64x1xi32, #blocked2>) -> tensor<64x64xi32, #blocked2>\n+  %21 = arith.divsi %12, %cst_1 : tensor<64x1xi32, #blocked2>\n+  %22 = arith.muli %21, %cst_0 : tensor<64x1xi32, #blocked2>\n+  %23 = tt.broadcast %22 : (tensor<64x1xi32, #blocked2>) -> tensor<64x64xi32, #blocked2>\n+  %24 = tt.splat %arg1 : (!tt.ptr<f32>) -> tensor<64x64x!tt.ptr<f32>, #blocked2>\n+  %25 = scf.for %arg6 = %c0 to %c2048 step %c64 iter_args(%arg7 = %14) -> (tensor<64x64xf32, #blocked2>) {\n+    %44 = arith.index_cast %arg6 : index to i32\n+    %45 = tt.splat %44 : (i32) -> tensor<1x64xi32, #blocked3>\n+    %46 = arith.addi %45, %10 : tensor<1x64xi32, #blocked3>\n+    %47 = \"triton_gpu.cmpi\"(%46, %cst_2) {predicate = 2 : i64} : (tensor<1x64xi32, #blocked3>, tensor<1x64xi32, #blocked3>) -> tensor<1x64xi1, #blocked3>\n+    %48 = tt.broadcast %46 : (tensor<1x64xi32, #blocked3>) -> tensor<64x64xi32, #blocked3>\n+    %49 = triton_gpu.convert_layout %48 : (tensor<64x64xi32, #blocked3>) -> tensor<64x64xi32, #blocked2>\n+    %50 = arith.addi %49, %16 : tensor<64x64xi32, #blocked2>\n+    %51 = tt.addptr %17, %50 : tensor<64x64x!tt.ptr<f16>, #blocked2>, tensor<64x64xi32, #blocked2>\n+    %52 = tt.broadcast %47 : (tensor<1x64xi1, #blocked3>) -> tensor<64x64xi1, #blocked3>\n+    %53 = triton_gpu.convert_layout %52 : (tensor<64x64xi1, #blocked3>) -> tensor<64x64xi1, #blocked2>\n+    %54 = arith.andi %53, %18 : tensor<64x64xi1, #blocked2>\n+    %55 = triton_gpu.convert_layout %51 : (tensor<64x64x!tt.ptr<f16>, #blocked2>) -> tensor<64x64x!tt.ptr<f16>, #blocked4>\n+    %56 = triton_gpu.convert_layout %54 : (tensor<64x64xi1, #blocked2>) -> tensor<64x64xi1, #blocked4>\n+    %57 = tt.load %55, %56 {cache = 1 : i32, evict = 3 : i32, isVolatile = false} : tensor<64x64xf16, #blocked4>\n+    %58 = triton_gpu.convert_layout %57 : (tensor<64x64xf16, #blocked4>) -> tensor<64x64xf16, #blocked2>\n+    %59 = arith.extf %58 : tensor<64x64xf16, #blocked2> to tensor<64x64xf32, #blocked2>\n+    %60 = arith.addi %49, %20 : tensor<64x64xi32, #blocked2>\n+    %61 = arith.addi %60, %23 : tensor<64x64xi32, #blocked2>\n+    %62 = tt.addptr %24, %61 : tensor<64x64x!tt.ptr<f32>, #blocked2>, tensor<64x64xi32, #blocked2>\n+    %63 = triton_gpu.convert_layout %62 : (tensor<64x64x!tt.ptr<f32>, #blocked2>) -> tensor<64x64x!tt.ptr<f32>, #blocked5>\n+    %64 = triton_gpu.convert_layout %54 : (tensor<64x64xi1, #blocked2>) -> tensor<64x64xi1, #blocked5>\n+    %65 = tt.load %63, %64 {cache = 1 : i32, evict = 3 : i32, isVolatile = false} : tensor<64x64xf32, #blocked5>\n+    %66 = triton_gpu.convert_layout %65 : (tensor<64x64xf32, #blocked5>) -> tensor<64x64xf32, #blocked2>\n+    %67 = arith.addf %59, %66 : tensor<64x64xf32, #blocked2>\n+    %68 = \"triton_gpu.cmpf\"(%67, %67) {predicate = 13 : i64} : (tensor<64x64xf32, #blocked2>, tensor<64x64xf32, #blocked2>) -> tensor<64x64xi1, #blocked2>\n+    %69 = \"triton_gpu.cmpf\"(%67, %cst) {predicate = 2 : i64} : (tensor<64x64xf32, #blocked2>, tensor<64x64xf32, #blocked2>) -> tensor<64x64xi1, #blocked2>\n+    %70 = \"triton_gpu.select\"(%69, %67, %cst) : (tensor<64x64xi1, #blocked2>, tensor<64x64xf32, #blocked2>, tensor<64x64xf32, #blocked2>) -> tensor<64x64xf32, #blocked2>\n+    %71 = \"triton_gpu.select\"(%68, %67, %70) : (tensor<64x64xi1, #blocked2>, tensor<64x64xf32, #blocked2>, tensor<64x64xf32, #blocked2>) -> tensor<64x64xf32, #blocked2>\n+    %72 = math.exp %71 : tensor<64x64xf32, #blocked2>\n+    %73 = arith.addf %arg7, %72 : tensor<64x64xf32, #blocked2>\n+    %74 = \"triton_gpu.select\"(%54, %73, %arg7) : (tensor<64x64xi1, #blocked2>, tensor<64x64xf32, #blocked2>, tensor<64x64xf32, #blocked2>) -> tensor<64x64xf32, #blocked2>\n+    scf.yield %74 : tensor<64x64xf32, #blocked2>\n+  }\n+  %26 = tt.reduce %25 {axis = 1 : i32, redOp = 2 : i32} : tensor<64x64xf32, #blocked2> -> tensor<64xf32, #triton_gpu.slice<{dim = 1, parent = #blocked2}>>\n+  %27 = triton_gpu.convert_layout %26 : (tensor<64xf32, #triton_gpu.slice<{dim = 1, parent = #blocked2}>>) -> tensor<64xf32, #blocked0>\n+  %28 = triton_gpu.convert_layout %27 : (tensor<64xf32, #blocked0>) -> tensor<64xf32, #triton_gpu.slice<{dim = 1, parent = #blocked1}>>\n+  %29 = tt.expand_dims %28 {axis = 1 : i32} : (tensor<64xf32, #triton_gpu.slice<{dim = 1, parent = #blocked1}>>) -> tensor<64x1xf32, #blocked1>\n+  %30 = triton_gpu.convert_layout %29 : (tensor<64x1xf32, #blocked1>) -> tensor<64x1xf32, #blocked2>\n+  %31 = arith.muli %7, %cst_4 : tensor<64x1xi32, #blocked2>\n+  %32 = tt.broadcast %31 : (tensor<64x1xi32, #blocked2>) -> tensor<64x64xi32, #blocked2>\n+  %33 = tt.splat %arg0 : (!tt.ptr<f16>) -> tensor<64x64x!tt.ptr<f16>, #blocked2>\n+  %34 = tt.broadcast %8 : (tensor<64x1xi1, #blocked2>) -> tensor<64x64xi1, #blocked2>\n+  %35 = arith.muli %11, %cst_4 : tensor<64x1xi32, #blocked2>\n+  %36 = tt.broadcast %35 : (tensor<64x1xi32, #blocked2>) -> tensor<64x64xi32, #blocked2>\n+  %37 = arith.divsi %12, %cst_1 : tensor<64x1xi32, #blocked2>\n+  %38 = arith.muli %37, %cst_0 : tensor<64x1xi32, #blocked2>\n+  %39 = tt.broadcast %38 : (tensor<64x1xi32, #blocked2>) -> tensor<64x64xi32, #blocked2>\n+  %40 = tt.splat %arg1 : (!tt.ptr<f32>) -> tensor<64x64x!tt.ptr<f32>, #blocked2>\n+  %41 = tt.broadcast %30 : (tensor<64x1xf32, #blocked2>) -> tensor<64x64xf32, #blocked2>\n+  %42 = tt.splat %arg2 : (!tt.ptr<f32>) -> tensor<64x64x!tt.ptr<f32>, #blocked2>\n+  %43 = tt.splat %arg3 : (!tt.ptr<f16>) -> tensor<64x64x!tt.ptr<f16>, #blocked2>\n+  scf.for %arg6 = %c0 to %c2048 step %c64 {\n+    %44 = arith.index_cast %arg6 : index to i32\n+    %45 = tt.splat %44 : (i32) -> tensor<1x64xi32, #blocked3>\n+    %46 = arith.addi %45, %10 : tensor<1x64xi32, #blocked3>\n+    %47 = \"triton_gpu.cmpi\"(%46, %cst_2) {predicate = 2 : i64} : (tensor<1x64xi32, #blocked3>, tensor<1x64xi32, #blocked3>) -> tensor<1x64xi1, #blocked3>\n+    %48 = tt.broadcast %46 : (tensor<1x64xi32, #blocked3>) -> tensor<64x64xi32, #blocked3>\n+    %49 = triton_gpu.convert_layout %48 : (tensor<64x64xi32, #blocked3>) -> tensor<64x64xi32, #blocked2>\n+    %50 = arith.addi %49, %32 : tensor<64x64xi32, #blocked2>\n+    %51 = tt.addptr %33, %50 : tensor<64x64x!tt.ptr<f16>, #blocked2>, tensor<64x64xi32, #blocked2>\n+    %52 = tt.broadcast %47 : (tensor<1x64xi1, #blocked3>) -> tensor<64x64xi1, #blocked3>\n+    %53 = triton_gpu.convert_layout %52 : (tensor<64x64xi1, #blocked3>) -> tensor<64x64xi1, #blocked2>\n+    %54 = arith.andi %53, %34 : tensor<64x64xi1, #blocked2>\n+    %55 = triton_gpu.convert_layout %51 : (tensor<64x64x!tt.ptr<f16>, #blocked2>) -> tensor<64x64x!tt.ptr<f16>, #blocked4>\n+    %56 = triton_gpu.convert_layout %54 : (tensor<64x64xi1, #blocked2>) -> tensor<64x64xi1, #blocked4>\n+    %57 = tt.load %55, %56 {cache = 1 : i32, evict = 3 : i32, isVolatile = false} : tensor<64x64xf16, #blocked4>\n+    %58 = triton_gpu.convert_layout %57 : (tensor<64x64xf16, #blocked4>) -> tensor<64x64xf16, #blocked2>\n+    %59 = arith.extf %58 : tensor<64x64xf16, #blocked2> to tensor<64x64xf32, #blocked2>\n+    %60 = arith.addi %49, %36 : tensor<64x64xi32, #blocked2>\n+    %61 = arith.addi %60, %39 : tensor<64x64xi32, #blocked2>\n+    %62 = tt.addptr %40, %61 : tensor<64x64x!tt.ptr<f32>, #blocked2>, tensor<64x64xi32, #blocked2>\n+    %63 = triton_gpu.convert_layout %62 : (tensor<64x64x!tt.ptr<f32>, #blocked2>) -> tensor<64x64x!tt.ptr<f32>, #blocked5>\n+    %64 = triton_gpu.convert_layout %54 : (tensor<64x64xi1, #blocked2>) -> tensor<64x64xi1, #blocked5>\n+    %65 = tt.load %63, %64 {cache = 1 : i32, evict = 3 : i32, isVolatile = false} : tensor<64x64xf32, #blocked5>\n+    %66 = triton_gpu.convert_layout %65 : (tensor<64x64xf32, #blocked5>) -> tensor<64x64xf32, #blocked2>\n+    %67 = arith.addf %59, %66 : tensor<64x64xf32, #blocked2>\n+    %68 = \"triton_gpu.cmpf\"(%67, %67) {predicate = 13 : i64} : (tensor<64x64xf32, #blocked2>, tensor<64x64xf32, #blocked2>) -> tensor<64x64xi1, #blocked2>\n+    %69 = \"triton_gpu.cmpf\"(%67, %cst) {predicate = 2 : i64} : (tensor<64x64xf32, #blocked2>, tensor<64x64xf32, #blocked2>) -> tensor<64x64xi1, #blocked2>\n+    %70 = \"triton_gpu.select\"(%69, %67, %cst) : (tensor<64x64xi1, #blocked2>, tensor<64x64xf32, #blocked2>, tensor<64x64xf32, #blocked2>) -> tensor<64x64xf32, #blocked2>\n+    %71 = \"triton_gpu.select\"(%68, %67, %70) : (tensor<64x64xi1, #blocked2>, tensor<64x64xf32, #blocked2>, tensor<64x64xf32, #blocked2>) -> tensor<64x64xf32, #blocked2>\n+    %72 = math.exp %71 : tensor<64x64xf32, #blocked2>\n+    %73 = arith.divf %72, %41 : tensor<64x64xf32, #blocked2>\n+    %74 = tt.addptr %42, %50 : tensor<64x64x!tt.ptr<f32>, #blocked2>, tensor<64x64xi32, #blocked2>\n+    %75 = triton_gpu.convert_layout %74 : (tensor<64x64x!tt.ptr<f32>, #blocked2>) -> tensor<64x64x!tt.ptr<f32>, #blocked5>\n+    %76 = triton_gpu.convert_layout %73 : (tensor<64x64xf32, #blocked2>) -> tensor<64x64xf32, #blocked5>\n+    %77 = triton_gpu.convert_layout %54 : (tensor<64x64xi1, #blocked2>) -> tensor<64x64xi1, #blocked5>\n+    tt.store %75, %76, %77 : tensor<64x64xf32, #blocked5>\n+    %78 = tt.addptr %43, %50 : tensor<64x64x!tt.ptr<f16>, #blocked2>, tensor<64x64xi32, #blocked2>\n+    %79 = arith.truncf %73 : tensor<64x64xf32, #blocked2> to tensor<64x64xf16, #blocked2>\n+    %80 = triton_gpu.convert_layout %78 : (tensor<64x64x!tt.ptr<f16>, #blocked2>) -> tensor<64x64x!tt.ptr<f16>, #blocked4>\n+    %81 = triton_gpu.convert_layout %79 : (tensor<64x64xf16, #blocked2>) -> tensor<64x64xf16, #blocked4>\n+    %82 = triton_gpu.convert_layout %54 : (tensor<64x64xi1, #blocked2>) -> tensor<64x64xi1, #blocked4>\n+    tt.store %80, %81, %82 : tensor<64x64xf16, #blocked4>\n+  }\n+  return\n+}"}, {"filename": "test/TritonGPU/loop-pipeline.mlir", "status": "modified", "additions": 51, "deletions": 12, "changes": 63, "file_content_changes": "@@ -4,11 +4,13 @@\n // matmul: 128x32 @ 32x128 -> 128x128\n #AL = #triton_gpu.blocked<{sizePerThread = [1, 4], threadsPerWarp = [4, 8], warpsPerCTA = [4, 1], order = [1, 0]}>\n #BL = #triton_gpu.blocked<{sizePerThread = [1, 4], threadsPerWarp = [1, 32], warpsPerCTA = [4, 1], order = [1, 0]}>\n+#ALs0 = #triton_gpu.slice<{parent=#AL, dim=0}>\n+#BLs0 = #triton_gpu.slice<{parent=#BL, dim=0}>\n #C = #triton_gpu.mma<{versionMajor = 2, warpsPerCTA = [4, 1]}>\n #A = #triton_gpu.dot_op<{opIdx = 0, parent = #C}>\n #B = #triton_gpu.dot_op<{opIdx = 1, parent = #C}>\n \n-// CHECK: func @matmul_loop\n+// CHECK: func.func @matmul_loop\n // CHECK-DAG: %[[CONSTANT_0:.*]] = arith.constant 0 : i32\n // CHECK-DAG: %[[CONSTANT_1:.*]] = arith.constant 1 : i32\n // CHECK-DAG: %[[CONSTANT_2:.*]] = arith.constant 2 : i32\n@@ -44,9 +46,22 @@\n // CHECK-DAG: %[[NEXT_PIPELINE_IDX:.*]] = arith.addi %[[PIPELINE_IDX]], %[[CONSTANT_1]]\n // CHECK-DAG: %[[NEXT_LOOP_IDX:.*]] = arith.addi %[[LOOP_IDX]], %[[CONSTANT_1]]\n // CHECK:   scf.yield {{.*}}, {{.*}}, {{.*}}, %[[NEXT_A_BUFFER]], %[[NEXT_B_BUFFER]], %[[NEXT_A]], %[[NEXT_B]], {{.*}}, {{.*}}, {{.*}}, %[[NEXT_PIPELINE_IDX]], %[[NEXT_LOOP_IDX]]\n-func @matmul_loop(%lb : index, %ub : index, %step : index, %A : !tt.ptr<f16>, %B : !tt.ptr<f16>) {\n-  %a_ptr_init = tt.broadcast %A : (!tt.ptr<f16>) -> tensor<128x32x!tt.ptr<f16>, #AL>\n-  %b_ptr_init = tt.broadcast %B : (!tt.ptr<f16>) -> tensor<32x128x!tt.ptr<f16>, #BL>\n+func.func @matmul_loop(%lb : index, %ub : index, %step : index,\n+                  %A : !tt.ptr<f16> {tt.divisibility = 16 : i32},\n+                  %B : !tt.ptr<f16> {tt.divisibility = 16 : i32}) {\n+  // A ptrs\n+  %a_ptr_splat = tt.splat %A : (!tt.ptr<f16>) -> tensor<128x32x!tt.ptr<f16>, #AL>\n+  %a_tmp0 = tt.make_range {end = 32: i32, start = 0: i32} : tensor<32xi32, #ALs0>\n+  %a_tmp1 = tt.expand_dims %a_tmp0 {axis = 0 : i32} : (tensor<32xi32, #ALs0>) -> tensor<1x32xi32, #AL>\n+  %a_offs = tt.broadcast %a_tmp1 : (tensor<1x32xi32, #AL>) -> tensor<128x32xi32, #AL>\n+  %a_ptr_init = tt.addptr %a_ptr_splat, %a_offs : tensor<128x32x!tt.ptr<f16>, #AL>, tensor<128x32xi32, #AL>\n+  // B ptrs\n+  %b_ptr_splat = tt.splat %B : (!tt.ptr<f16>) -> tensor<32x128x!tt.ptr<f16>, #BL>\n+  %b_tmp0 = tt.make_range {end = 128: i32, start = 0: i32} : tensor<128xi32, #BLs0>\n+  %b_tmp1 = tt.expand_dims %b_tmp0 {axis = 0 : i32} : (tensor<128xi32, #BLs0>) -> tensor<1x128xi32, #BL>\n+  %b_offs = tt.broadcast %b_tmp1 : (tensor<1x128xi32, #BL>) -> tensor<32x128xi32, #BL>\n+  %b_ptr_init = tt.addptr %b_ptr_splat, %b_offs : tensor<32x128x!tt.ptr<f16>, #BL>, tensor<32x128xi32, #BL>\n+\n \n   %a_mask = arith.constant dense<true> : tensor<128x32xi1, #AL>\n   %a_other = arith.constant dense<0.00e+00> : tensor<128x32xf16, #AL>\n@@ -73,7 +88,7 @@ func @matmul_loop(%lb : index, %ub : index, %step : index, %A : !tt.ptr<f16>, %B\n }\n \n \n-// CHECK: func @matmul_loop_nested\n+// CHECK: func.func @matmul_loop_nested\n // CHECK-DAG: %[[CONSTANT_0:.*]] = arith.constant 0 : i32\n // CHECK-DAG: %[[CONSTANT_1:.*]] = arith.constant 1 : i32\n // CHECK-DAG: %[[CONSTANT_2:.*]] = arith.constant 2 : i32\n@@ -103,10 +118,22 @@ func @matmul_loop(%lb : index, %ub : index, %step : index, %A : !tt.ptr<f16>, %B\n // CHECK-DAG: %[[NEXT_PIPELINE_IDX:.*]] = arith.addi %[[PIPELINE_IDX]], %[[CONSTANT_1]]\n // CHECK-DAG: %[[NEXT_LOOP_IDX:.*]] = arith.addi %[[LOOP_IDX]], %[[CONSTANT_1]]\n // CHECK:     scf.yield {{.*}}, {{.*}}, {{.*}}, %[[NEXT_A_BUFFER]], %[[NEXT_B_BUFFER]], %[[NEXT_A]], %[[NEXT_B]], {{.*}}, {{.*}}, {{.*}}, %[[NEXT_PIPELINE_IDX]], %[[NEXT_LOOP_IDX]]\n-func @matmul_loop_nested(%lb : index, %ub : index, %step : index, %A : !tt.ptr<f16>, %B : !tt.ptr<f16>) {\n+func.func @matmul_loop_nested(%lb : index, %ub : index, %step : index,\n+                         %A : !tt.ptr<f16> {tt.divisibility = 16 : i32},\n+                         %B : !tt.ptr<f16> {tt.divisibility = 16 : i32}) {\n   scf.for %iv0 = %lb to %ub step %step {\n-    %a_ptr_init = tt.broadcast %A : (!tt.ptr<f16>) -> tensor<128x32x!tt.ptr<f16>, #AL>\n-    %b_ptr_init = tt.broadcast %B : (!tt.ptr<f16>) -> tensor<32x128x!tt.ptr<f16>, #BL>\n+    // A ptrs\n+    %a_ptr_splat = tt.splat %A : (!tt.ptr<f16>) -> tensor<128x32x!tt.ptr<f16>, #AL>\n+    %a_tmp0 = tt.make_range {end = 32: i32, start = 0: i32} : tensor<32xi32, #ALs0>\n+    %a_tmp1 = tt.expand_dims %a_tmp0 {axis = 0 : i32} : (tensor<32xi32, #ALs0>) -> tensor<1x32xi32, #AL>\n+    %a_offs = tt.broadcast %a_tmp1 : (tensor<1x32xi32, #AL>) -> tensor<128x32xi32, #AL>\n+    %a_ptr_init = tt.addptr %a_ptr_splat, %a_offs : tensor<128x32x!tt.ptr<f16>, #AL>, tensor<128x32xi32, #AL>\n+    // B ptrs\n+    %b_ptr_splat = tt.splat %B : (!tt.ptr<f16>) -> tensor<32x128x!tt.ptr<f16>, #BL>\n+    %b_tmp0 = tt.make_range {end = 128: i32, start = 0: i32} : tensor<128xi32, #BLs0>\n+    %b_tmp1 = tt.expand_dims %b_tmp0 {axis = 0 : i32} : (tensor<128xi32, #BLs0>) -> tensor<1x128xi32, #BL>\n+    %b_offs = tt.broadcast %b_tmp1 : (tensor<1x128xi32, #BL>) -> tensor<32x128xi32, #BL>\n+    %b_ptr_init = tt.addptr %b_ptr_splat, %b_offs : tensor<32x128x!tt.ptr<f16>, #BL>, tensor<32x128xi32, #BL>\n \n     %a_mask = arith.constant dense<true> : tensor<128x32xi1, #AL>\n     %a_other = arith.constant dense<0.00e+00> : tensor<128x32xf16, #AL>\n@@ -134,7 +161,7 @@ func @matmul_loop_nested(%lb : index, %ub : index, %step : index, %A : !tt.ptr<f\n }\n \n \n-// CHECK: func @matmul_loop_single_pipeline\n+// CHECK: func.func @matmul_loop_single_pipeline\n // CHECK-DAG: %[[CONSTANT_0:.*]] = arith.constant 0 : i32\n // CHECK-DAG: %[[CONSTANT_1:.*]] = arith.constant 1 : i32\n // CHECK-DAG: %[[CONSTANT_2:.*]] = arith.constant 2 : i32\n@@ -156,9 +183,21 @@ func @matmul_loop_nested(%lb : index, %ub : index, %step : index, %A : !tt.ptr<f\n // CHECK-DAG: %[[NEXT_PIPELINE_IDX:.*]] = arith.addi %[[PIPELINE_IDX]], %[[CONSTANT_1]]\n // CHECK-DAG: %[[NEXT_LOOP_IDX:.*]] = arith.addi %[[LOOP_IDX]], %[[CONSTANT_1]]\n // CHECK:   scf.yield {{.*}}, {{.*}}, %[[NEXT_B_BUFFER]], %[[NEXT_B]], {{.*}}, {{.*}}, %[[NEXT_PIPELINE_IDX]], %[[NEXT_LOOP_IDX]]\n-func @matmul_loop_single_pipeline(%lb : index, %ub : index, %step : index, %A : !tt.ptr<f16>, %B : !tt.ptr<f16>) {\n-  %a_ptr_init = tt.broadcast %A : (!tt.ptr<f16>) -> tensor<128x32x!tt.ptr<f16>, #AL>\n-  %b_ptr_init = tt.broadcast %B : (!tt.ptr<f16>) -> tensor<32x128x!tt.ptr<f16>, #BL>\n+func.func @matmul_loop_single_pipeline(%lb : index, %ub : index, %step : index,\n+                                  %A : !tt.ptr<f16> {tt.divisibility = 16 : i32},\n+                                  %B : !tt.ptr<f16> {tt.divisibility = 16 : i32}) {\n+  // A ptrs\n+  %a_ptr_splat = tt.splat %A : (!tt.ptr<f16>) -> tensor<128x32x!tt.ptr<f16>, #AL>\n+  %a_tmp0 = tt.make_range {end = 32: i32, start = 0: i32} : tensor<32xi32, #ALs0>\n+  %a_tmp1 = tt.expand_dims %a_tmp0 {axis = 0 : i32} : (tensor<32xi32, #ALs0>) -> tensor<1x32xi32, #AL>\n+  %a_offs = tt.broadcast %a_tmp1 : (tensor<1x32xi32, #AL>) -> tensor<128x32xi32, #AL>\n+  %a_ptr_init = tt.addptr %a_ptr_splat, %a_offs : tensor<128x32x!tt.ptr<f16>, #AL>, tensor<128x32xi32, #AL>\n+  // B ptrs\n+  %b_ptr_splat = tt.splat %B : (!tt.ptr<f16>) -> tensor<32x128x!tt.ptr<f16>, #BL>\n+  %b_tmp0 = tt.make_range {end = 128: i32, start = 0: i32} : tensor<128xi32, #BLs0>\n+  %b_tmp1 = tt.expand_dims %b_tmp0 {axis = 0 : i32} : (tensor<128xi32, #BLs0>) -> tensor<1x128xi32, #BL>\n+  %b_offs = tt.broadcast %b_tmp1 : (tensor<1x128xi32, #BL>) -> tensor<32x128xi32, #BL>\n+  %b_ptr_init = tt.addptr %b_ptr_splat, %b_offs : tensor<32x128x!tt.ptr<f16>, #BL>, tensor<32x128xi32, #BL>\n \n   %a_mask = arith.constant dense<true> : tensor<128x32xi1, #AL>\n   %a_other = arith.constant dense<0.00e+00> : tensor<128x32xf16, #AL>"}, {"filename": "test/TritonGPU/matmul.mlir", "status": "modified", "additions": 2, "deletions": 2, "changes": 4, "file_content_changes": "@@ -4,7 +4,7 @@\n // CHECK: offset = 49152, size = 49152\n // CHECK: size = 98304\n module {\n-func @matmul_kernel__Pfp32_Pfp32_Pfp32_i32_i32_i32_i32_i32_i32_i32_i32_i32__12c64_13c64_14c64_15c8(%arg0: !tt.ptr<f32> {tt.divisibility = 16 : i32}, %arg1: !tt.ptr<f32> {tt.divisibility = 16 : i32}, %arg2: !tt.ptr<f32> {tt.divisibility = 16 : i32}, %arg3: i32, %arg4: i32, %arg5: i32, %arg6: i32 {tt.divisibility = 16 : i32}, %arg7: i32, %arg8: i32 {tt.divisibility = 16 : i32}, %arg9: i32, %arg10: i32 {tt.divisibility = 16 : i32}, %arg11: i32) {\n+func.func @matmul_kernel__Pfp32_Pfp32_Pfp32_i32_i32_i32_i32_i32_i32_i32_i32_i32__12c64_13c64_14c64_15c8(%arg0: !tt.ptr<f32> {tt.divisibility = 16 : i32}, %arg1: !tt.ptr<f32> {tt.divisibility = 16 : i32}, %arg2: !tt.ptr<f32> {tt.divisibility = 16 : i32}, %arg3: i32, %arg4: i32, %arg5: i32, %arg6: i32 {tt.divisibility = 16 : i32}, %arg7: i32, %arg8: i32 {tt.divisibility = 16 : i32}, %arg9: i32, %arg10: i32 {tt.divisibility = 16 : i32}, %arg11: i32) {\n     %cst = arith.constant dense<true> : tensor<64x64xi1>\n     %c64 = arith.constant 64 : index\n     %c0 = arith.constant 0 : index\n@@ -22,7 +22,7 @@ func @matmul_kernel__Pfp32_Pfp32_Pfp32_i32_i32_i32_i32_i32_i32_i32_i32_i32__12c6\n     %7 = arith.muli %6, %c8_i32 : i32\n     %8 = arith.subi %2, %7 : i32\n     %9 = arith.cmpi slt, %8, %c8_i32 : i32\n-    %10 = select %9, %8, %c8_i32 : i32\n+    %10 = arith.select %9, %8, %c8_i32 : i32\n     %11 = arith.remsi %0, %10 : i32\n     %12 = arith.addi %7, %11 : i32\n     %13 = arith.remsi %0, %5 : i32"}, {"filename": "test/TritonGPU/prefetch.mlir", "status": "modified", "additions": 3, "deletions": 3, "changes": 6, "file_content_changes": "@@ -11,24 +11,24 @@\n #B_OP = #triton_gpu.dot_op<{opIdx = 1, parent = #C}>\n \n \n-// CHECK: func @matmul_loop\n+// CHECK: func.func @matmul_loop\n // CHECK-DAG: %[[A0_PREFETCH_SMEM:.*]] = tensor.extract_slice %[[A0:.*]][0, 0] [128, 16]\n // CHECK-DAG: %[[A0_PREFETCH:.*]] = triton_gpu.convert_layout %[[A0_PREFETCH_SMEM]]\n // CHECK-DAG: %[[B0_PREFETCH_SMEM:.*]] = tensor.extract_slice %[[B0:.*]][0, 0] [16, 128]\n // CHECK-DAG: %[[B0_PREFETCH:.*]] = triton_gpu.convert_layout %[[B0_PREFETCH_SMEM]]\n // CHECK:     scf.for {{.*}} iter_args({{.*}}, {{.*}}, %[[arg_a0:.*]] = %[[A0]], %[[arg_b0:.*]] = %[[B0]], {{.*}}, %[[a0_prefetch:.*]] = %[[A0_PREFETCH]], %[[b0_prefetch:.*]] = %[[B0_PREFETCH]]\n-// CHECK:       %[[D_FIRST:.*]] = tt.dot %[[a0_prefetch]], %[[b0_prefetch:.*]], {{.*}}\n // CHECK-DAG:   %[[A_REM_SMEM:.*]] = tensor.extract_slice %[[arg_a0]][0, 16] [128, 16]\n // CHECK-DAG:   %[[A_REM:.*]] = triton_gpu.convert_layout %[[A_REM_SMEM]]\n // CHECK-DAG:   %[[B_REM_SMEM:.*]] = tensor.extract_slice %[[arg_b0]][16, 0] [16, 128]\n // CHECK-DAG:   %[[B_REM:.*]] = triton_gpu.convert_layout %[[B_REM_SMEM]]\n+// CHECK:       %[[D_FIRST:.*]] = tt.dot %[[a0_prefetch]], %[[b0_prefetch:.*]], {{.*}}\n // CHECK:       tt.dot %[[A_REM]], %[[B_REM]], %[[D_FIRST:.*]]\n // CHECK-DAG:   %[[NEXT_A_PREFETCH_SMEM:.*]] = tensor.extract_slice {{.*}}[0, 0] [128, 16]\n // CHECK-DAG:   %[[NEXT_A_PREFETCH:.*]] = triton_gpu.convert_layout %[[NEXT_A_PREFETCH_SMEM]]\n // CHECK-DAG:   %[[NEXT_B_PREFETCH_SMEM:.*]] = tensor.extract_slice {{.*}}[0, 0] [16, 128]\n // CHECK-DAG:   %[[NEXT_B_PREFETCH:.*]] = triton_gpu.convert_layout %[[NEXT_B_PREFETCH_SMEM]]\n // CHECK:     scf.yield {{.*}}, {{.*}}, {{.*}}, {{.*}}, {{.*}}, %[[NEXT_A_PREFETCH]], %[[NEXT_B_PREFETCH]]\n-func @matmul_loop(%lb : index, %ub : index, %step : index, %A : !tt.ptr<f16>, %B : !tt.ptr<f16>) {\n+func.func @matmul_loop(%lb : index, %ub : index, %step : index, %A : !tt.ptr<f16>, %B : !tt.ptr<f16>) {\n   %a_ptr_init = tt.broadcast %A : (!tt.ptr<f16>) -> tensor<128x32x!tt.ptr<f16>, #AL>\n   %b_ptr_init = tt.broadcast %B : (!tt.ptr<f16>) -> tensor<32x128x!tt.ptr<f16>, #BL>\n "}, {"filename": "test/TritonGPU/update-mma-for-volta.mlir", "status": "modified", "additions": 8, "deletions": 8, "changes": 16, "file_content_changes": "@@ -12,16 +12,16 @@\n #dot_operand_b = #triton_gpu.dot_op<{opIdx=1, parent=#mma0, isMMAv1Row=false}>\n // It creates a new MMA layout to fit with $a and $b's dot_operand, and get the right warpsPerCTA\n // The ID of this MMA instance should be 0.\n-// CHECK: [[new_mma:#mma.*]] = #triton_gpu.mma<{versionMajor = 1, versionMinor = 3, warpsPerCTA = [4, 4]}>\n+// CHECK: [[$new_mma:#mma.*]] = #triton_gpu.mma<{versionMajor = 1, versionMinor = 3, warpsPerCTA = [4, 2]}>\n module attributes {\"triton_gpu.num-warps\" = 16 : i32} {\n   // CHECK-LABEL: dot_mmav1\n-  func @dot_mmav1(%A: tensor<64x64xf16, #blocked0>, %B: tensor<64x64xf16, #blocked0>) -> tensor<64x64xf32, #blocked0> {\n+  func.func @dot_mmav1(%A: tensor<64x64xf16, #blocked0>, %B: tensor<64x64xf16, #blocked0>) -> tensor<64x64xf32, #blocked0> {\n     %C = arith.constant dense<0.000000e+00> : tensor<64x64xf32, #blocked0>\n     %AA = triton_gpu.convert_layout %A : (tensor<64x64xf16, #blocked0>) -> tensor<64x64xf16, #dot_operand_a>\n     %BB = triton_gpu.convert_layout %B : (tensor<64x64xf16, #blocked0>) -> tensor<64x64xf16, #dot_operand_b>\n     %CC = triton_gpu.convert_layout %C : (tensor<64x64xf32, #blocked0>) -> tensor<64x64xf32, #mma0>\n \n-    // CHECK: {{.*}} = tt.dot {{.*}}, {{.*}}, %cst {allowTF32 = true} : tensor<64x64xf16, #triton_gpu.dot_op<{opIdx = 0, parent = [[new_mma]], isMMAv1Row = true}>> * tensor<64x64xf16, #triton_gpu.dot_op<{opIdx = 1, parent = [[new_mma]], isMMAv1Row = true}>> -> tensor<64x64xf32, [[new_mma]]>\n+    // CHECK: {{.*}} = tt.dot {{.*}}, {{.*}}, %cst {allowTF32 = true} : tensor<64x64xf16, #triton_gpu.dot_op<{opIdx = 0, parent = [[$new_mma]], isMMAv1Row = true}>> * tensor<64x64xf16, #triton_gpu.dot_op<{opIdx = 1, parent = [[$new_mma]], isMMAv1Row = true}>> -> tensor<64x64xf32, [[$new_mma]]>\n     %D = tt.dot %AA, %BB, %CC {allowTF32 = true} : tensor<64x64xf16, #dot_operand_a> * tensor<64x64xf16, #dot_operand_b> -> tensor<64x64xf32, #mma0>\n     %res = triton_gpu.convert_layout %D : (tensor<64x64xf32, #mma0>) -> tensor<64x64xf32, #blocked0>\n \n@@ -40,8 +40,8 @@ module attributes {\"triton_gpu.num-warps\" = 16 : i32} {\n #mma1 = #triton_gpu.mma<{versionMajor=1, versionMinor=16, warpsPerCTA=[4,4]}>\n \n // Will still get two MMA layouts\n-// CHECK: [[new_mma:#mma.*]] = #triton_gpu.mma<{versionMajor = 1, versionMinor = 3, warpsPerCTA = [4, 4]}>\n-// CHECK: [[new_mma1:#mma.*]] = #triton_gpu.mma<{versionMajor = 1, versionMinor = 19, warpsPerCTA = [4, 4]}>\n+// CHECK-DAG: [[$new_mma:#mma.*]] = #triton_gpu.mma<{versionMajor = 1, versionMinor = 3, warpsPerCTA = [4, 2]}>\n+// CHECK-DAG: [[$new_mma1:#mma.*]] = #triton_gpu.mma<{versionMajor = 1, versionMinor = 19, warpsPerCTA = [4, 2]}>\n \n #dot_operand_a = #triton_gpu.dot_op<{opIdx=0, parent=#mma0, isMMAv1Row=true}>\n #dot_operand_b = #triton_gpu.dot_op<{opIdx=1, parent=#mma0, isMMAv1Row=false}>\n@@ -50,7 +50,7 @@ module attributes {\"triton_gpu.num-warps\" = 16 : i32} {\n \n module attributes {\"triton_gpu.num-warps\" = 16 : i32} {\n   // CHECK-LABEL: dot_mmav1\n-  func @dot_mmav1(%A: tensor<64x64xf16, #blocked0>, %B: tensor<64x64xf16, #blocked0>) -> tensor<64x64xf32, #blocked0> {\n+  func.func @dot_mmav1(%A: tensor<64x64xf16, #blocked0>, %B: tensor<64x64xf16, #blocked0>) -> tensor<64x64xf32, #blocked0> {\n     %C = arith.constant dense<0.000000e+00> : tensor<64x64xf32, #blocked0>\n     %AA = triton_gpu.convert_layout %A : (tensor<64x64xf16, #blocked0>) -> tensor<64x64xf16, #dot_operand_a>\n     %BB = triton_gpu.convert_layout %B : (tensor<64x64xf16, #blocked0>) -> tensor<64x64xf16, #dot_operand_b>\n@@ -60,8 +60,8 @@ module attributes {\"triton_gpu.num-warps\" = 16 : i32} {\n     %BB1 = triton_gpu.convert_layout %B : (tensor<64x64xf16, #blocked0>) -> tensor<64x64xf16, #dot_operand_b1>\n     %CC1 = triton_gpu.convert_layout %C : (tensor<64x64xf32, #blocked0>) -> tensor<64x64xf32, #mma1>\n \n-    // CHECK: {{.*}} = tt.dot {{.*}}, {{.*}}, {{.*}} {allowTF32 = true} : tensor<64x64xf16, #triton_gpu.dot_op<{opIdx = 0, parent = [[new_mma]], isMMAv1Row = true}>> * tensor<64x64xf16, #triton_gpu.dot_op<{opIdx = 1, parent = [[new_mma]], isMMAv1Row = true}>> -> tensor<64x64xf32, [[new_mma]]>\n-    // CHECK: {{.*}} = tt.dot {{.*}}, {{.*}}, {{.*}} {allowTF32 = true} : tensor<64x64xf16, #triton_gpu.dot_op<{opIdx = 0, parent = [[new_mma1]], isMMAv1Row = true}>> * tensor<64x64xf16, #triton_gpu.dot_op<{opIdx = 1, parent = [[new_mma1]], isMMAv1Row = true}>> -> tensor<64x64xf32, [[new_mma1]]>\n+    // CHECK: {{.*}} = tt.dot {{.*}}, {{.*}}, {{.*}} {allowTF32 = true} : tensor<64x64xf16, #triton_gpu.dot_op<{opIdx = 0, parent = [[$new_mma]], isMMAv1Row = true}>> * tensor<64x64xf16, #triton_gpu.dot_op<{opIdx = 1, parent = [[$new_mma]], isMMAv1Row = true}>> -> tensor<64x64xf32, [[$new_mma]]>\n+    // CHECK: {{.*}} = tt.dot {{.*}}, {{.*}}, {{.*}} {allowTF32 = true} : tensor<64x64xf16, #triton_gpu.dot_op<{opIdx = 0, parent = [[$new_mma1]], isMMAv1Row = true}>> * tensor<64x64xf16, #triton_gpu.dot_op<{opIdx = 1, parent = [[$new_mma1]], isMMAv1Row = true}>> -> tensor<64x64xf32, [[$new_mma1]]>\n     %D = tt.dot %AA, %BB, %CC {allowTF32 = true} : tensor<64x64xf16, #dot_operand_a> * tensor<64x64xf16, #dot_operand_b> -> tensor<64x64xf32, #mma0>\n     %D1 = tt.dot %AA1, %BB1, %CC1 {allowTF32 = true} : tensor<64x64xf16, #dot_operand_a1> * tensor<64x64xf16, #dot_operand_b1> -> tensor<64x64xf32, #mma1>\n     %res = triton_gpu.convert_layout %D : (tensor<64x64xf32, #mma0>) -> tensor<64x64xf32, #blocked0>"}, {"filename": "test/lib/Analysis/CMakeLists.txt", "status": "modified", "additions": 1, "deletions": 0, "changes": 1, "file_content_changes": "@@ -6,4 +6,5 @@ add_mlir_library(TritonTestAnalysis\n \n   LINK_LIBS PUBLIC\n   TritonAnalysis\n+  ${dialect_libs}\n )\n\\ No newline at end of file"}, {"filename": "test/lib/Analysis/TestAlias.cpp", "status": "modified", "additions": 28, "deletions": 16, "changes": 44, "file_content_changes": "@@ -9,10 +9,10 @@ using namespace mlir;\n namespace {\n \n struct TestAliasPass\n-    : public PassWrapper<TestAliasPass, OperationPass<FuncOp>> {\n+    : public PassWrapper<TestAliasPass, OperationPass<func::FuncOp>> {\n+\n+  MLIR_DEFINE_EXPLICIT_INTERNAL_INLINE_TYPE_ID(TestAliasPass);\n \n-  // LLVM15+\n-  // MLIR_DEFINE_EXPLICIT_INTERNAL_INLINE_TYPE_ID(TestAliasPass);\n   static void print(StringRef name, SmallVector<std::string, 4> &vals,\n                     raw_ostream &os) {\n     if (vals.empty())\n@@ -36,26 +36,27 @@ struct TestAliasPass\n   void runOnOperation() override {\n     Operation *operation = getOperation();\n     auto &os = llvm::errs();\n-    auto op_name = SymbolTable::getSymbolName(operation).getValue().str();\n-    os << op_name << \"\\n\";\n+    auto opName = SymbolTable::getSymbolName(operation).getValue().str();\n+    os << opName << \"\\n\";\n \n-    SharedMemoryAliasAnalysis analysis(&getContext());\n-    analysis.run(operation);\n+    std::unique_ptr<DataFlowSolver> solver = createDataFlowSolver();\n+    SharedMemoryAliasAnalysis *analysis =\n+        solver->load<SharedMemoryAliasAnalysis>();\n+    if (failed(solver->initializeAndRun(operation)))\n+      return signalPassFailure();\n \n     AsmState state(operation->getParentOfType<ModuleOp>());\n     // Get operation ids of value's aliases\n     auto getAllocOpNames = [&](Value value) {\n-      LatticeElement<AliasInfo> *latticeElement =\n-          analysis.lookupLatticeElement(value);\n+      dataflow::Lattice<AliasInfo> *latticeElement =\n+          analysis->getLatticeElement(value);\n       SmallVector<std::string, 4> opNames;\n       if (latticeElement) {\n         auto &info = latticeElement->getValue();\n-        if (!info.getAllocs().empty()) {\n-          for (auto &alias : info.getAllocs()) {\n-            auto opName =\n-                getValueOperandName(alias.getDefiningOp()->getResult(0), state);\n-            opNames.push_back(std::move(opName));\n-          }\n+        for (auto &alias : info.getAllocs()) {\n+          auto opName =\n+              getValueOperandName(alias.getDefiningOp()->getResult(0), state);\n+          opNames.push_back(std::move(opName));\n         }\n       }\n       // Ensure deterministic output\n@@ -64,8 +65,19 @@ struct TestAliasPass\n     };\n \n     operation->walk<WalkOrder::PreOrder>([&](Operation *op) {\n-      if (op->getNumResults() < 1)\n+      if (op->getNumResults() < 1) {\n+        // cond br, br\n+        if (auto branch = dyn_cast<BranchOpInterface>(op)) {\n+          auto *block = branch->getBlock();\n+          for (auto arg : llvm::enumerate(block->getArguments())) {\n+            auto operand = block->getArgument(arg.index());\n+            auto opNames = getAllocOpNames(operand);\n+            auto argName = getValueOperandName(arg.value(), state);\n+            print(argName, opNames, os);\n+          }\n+        }\n         return;\n+      }\n       if (auto forOp = dyn_cast<scf::ForOp>(op)) {\n         for (auto arg : llvm::enumerate(forOp.getRegionIterArgs())) {\n           auto operand = forOp.getOpOperandForRegionIterArg(arg.value()).get();"}, {"filename": "test/lib/Analysis/TestAllocation.cpp", "status": "modified", "additions": 5, "deletions": 6, "changes": 11, "file_content_changes": "@@ -6,10 +6,9 @@ using namespace mlir;\n namespace {\n \n struct TestAllocationPass\n-    : public PassWrapper<TestAllocationPass, OperationPass<FuncOp>> {\n+    : public PassWrapper<TestAllocationPass, OperationPass<func::FuncOp>> {\n \n-  // LLVM15+\n-  // MLIR_DEFINE_EXPLICIT_INTERNAL_INLINE_TYPE_ID(TestAllocationPass);\n+  MLIR_DEFINE_EXPLICIT_INTERNAL_INLINE_TYPE_ID(TestAllocationPass);\n \n   StringRef getArgument() const final { return \"test-print-allocation\"; }\n   StringRef getDescription() const final {\n@@ -19,9 +18,9 @@ struct TestAllocationPass\n   void runOnOperation() override {\n     Operation *operation = getOperation();\n     auto &os = llvm::errs();\n-    // Convert to std::string can remove quotes from op_name\n-    auto op_name = SymbolTable::getSymbolName(operation).getValue().str();\n-    os << op_name << \"\\n\";\n+    // Convert to std::string can remove quotes from opName\n+    auto opName = SymbolTable::getSymbolName(operation).getValue().str();\n+    os << opName << \"\\n\";\n     Allocation allocation(operation);\n     operation->walk([&](Operation *op) {\n       auto scratchBufferId = allocation.getBufferId(op);"}, {"filename": "test/lib/Analysis/TestAxisInfo.cpp", "status": "modified", "additions": 12, "deletions": 33, "changes": 45, "file_content_changes": "@@ -1,25 +1,15 @@\n #include \"mlir/Pass/Pass.h\"\n #include \"triton/Analysis/AxisInfo.h\"\n+#include \"triton/Analysis/Utility.h\"\n \n using namespace mlir;\n \n namespace {\n \n struct TestAxisInfoPass\n-    : public PassWrapper<TestAxisInfoPass, OperationPass<FuncOp>> {\n+    : public PassWrapper<TestAxisInfoPass, OperationPass<func::FuncOp>> {\n \n-  // LLVM15+\n-  // MLIR_DEFINE_EXPLICIT_INTERNAL_INLINE_TYPE_ID(TestAlignmentPass);\n-\n-  void print(const std::string &name, raw_ostream &os, ArrayRef<int> vals) {\n-    os << name << \": [\";\n-    for (size_t d = 0; d < vals.size(); d++) {\n-      if (d != 0)\n-        os << \", \";\n-      os << vals[d];\n-    }\n-    os << \"]\";\n-  }\n+  MLIR_DEFINE_EXPLICIT_INTERNAL_INLINE_TYPE_ID(TestAxisInfoPass);\n \n   StringRef getArgument() const final { return \"test-print-alignment\"; }\n   StringRef getDescription() const final {\n@@ -29,31 +19,20 @@ struct TestAxisInfoPass\n   void runOnOperation() override {\n     Operation *operation = getOperation();\n     auto &os = llvm::errs();\n-    os << \"Testing: \" << operation->getName() << \"\\n\";\n-    AxisInfoAnalysis analysis(&getContext());\n-    analysis.run(operation);\n+    auto opName = SymbolTable::getSymbolName(operation).getValue().str();\n+    os << \"@\" << opName << \"\\n\";\n+\n+    std::unique_ptr<DataFlowSolver> solver = createDataFlowSolver();\n+    AxisInfoAnalysis *analysis = solver->load<AxisInfoAnalysis>();\n+    if (failed(solver->initializeAndRun(operation)))\n+      return signalPassFailure();\n     operation->walk([&](Operation *op) {\n       if (op->getNumResults() < 1)\n         return;\n       for (Value result : op->getResults()) {\n-        // std::ostringstream oss;\n-        // result.print(oss);\n-        // os << \" => \";\n-        LatticeElement<AxisInfo> *latticeElement =\n-            analysis.lookupLatticeElement(result);\n-        if (!latticeElement) {\n-          os << \"None\\n\";\n-          return;\n-        }\n-        AxisInfo &info = latticeElement->getValue();\n-        print(\"Contiguity\", os, info.getContiguity());\n-        os << \" ; \";\n-        print(\"Divisibility\", os, info.getDivisibility());\n-        os << \" ; \";\n-        print(\"Constancy\", os, info.getConstancy());\n-        os << \" ( \";\n         result.print(os);\n-        os << \" ) \";\n+        os << \" => \";\n+        analysis->getLatticeElement(result)->getValue().print(os);\n         os << \"\\n\";\n       }\n     });"}, {"filename": "test/lib/Analysis/TestMembar.cpp", "status": "modified", "additions": 22, "deletions": 17, "changes": 39, "file_content_changes": "@@ -1,6 +1,8 @@\n-#include \"mlir/Dialect/GPU/GPUDialect.h\"\n+#include \"mlir/Conversion/SCFToControlFlow/SCFToControlFlow.h\"\n+#include \"mlir/Dialect/GPU/IR/GPUDialect.h\"\n #include \"mlir/IR/Dialect.h\"\n #include \"mlir/Pass/Pass.h\"\n+#include \"mlir/Transforms/DialectConversion.h\"\n #include \"triton/Analysis/Allocation.h\"\n #include \"triton/Analysis/Membar.h\"\n \n@@ -9,10 +11,9 @@ using namespace mlir;\n namespace {\n \n struct TestMembarPass\n-    : public PassWrapper<TestMembarPass, OperationPass<FuncOp>> {\n+    : public PassWrapper<TestMembarPass, OperationPass<func::FuncOp>> {\n \n-  // LLVM15+\n-  // MLIR_DEFINE_EXPLICIT_INTERNAL_INLINE_TYPE_ID(TestMembarPass);\n+  MLIR_DEFINE_EXPLICIT_INTERNAL_INLINE_TYPE_ID(TestMembarPass);\n \n   StringRef getArgument() const final { return \"test-print-membar\"; }\n   StringRef getDescription() const final {\n@@ -23,23 +24,27 @@ struct TestMembarPass\n     Operation *operation = getOperation();\n     auto &os = llvm::errs();\n     // Convert to std::string can remove quotes from op_name\n-    auto op_name = SymbolTable::getSymbolName(operation).getValue().str();\n-    os << op_name << \"\\n\";\n+    auto opName = SymbolTable::getSymbolName(operation).getValue().str();\n+    os << opName << \"\\n\";\n+\n+    // Lower the module to the cf dialect\n+    auto *context = operation->getContext();\n+    RewritePatternSet scfPatterns(context);\n+    mlir::populateSCFToControlFlowConversionPatterns(scfPatterns);\n+    mlir::ConversionTarget scfTarget(*context);\n+    scfTarget.addIllegalOp<scf::ForOp, scf::IfOp, scf::ParallelOp, scf::WhileOp,\n+                           scf::ExecuteRegionOp>();\n+    scfTarget.markUnknownOpDynamicallyLegal([](Operation *) { return true; });\n+    if (failed(applyPartialConversion(operation, scfTarget,\n+                                      std::move(scfPatterns))))\n+      return signalPassFailure();\n+\n+    // Print all ops after membar pass\n     Allocation allocation(operation);\n     MembarAnalysis membarPass(&allocation);\n     membarPass.run();\n \n-    size_t operationId = 0;\n-    operation->walk<WalkOrder::PreOrder>([&](Operation *op) {\n-      if (isa<gpu::BarrierOp>(op)) {\n-        os << \"Membar \" << operationId << \"\\n\";\n-      }\n-      if (op->getNumRegions() == 0) {\n-        // Don't count parent Operation to simplify the test.\n-        operationId++;\n-      }\n-      return;\n-    });\n+    os << *operation << \"\\n\";\n   }\n };\n "}, {"filename": "unittest/Conversion/TritonGPUToLLVM/PTXAsmFormatTest.cpp", "status": "modified", "additions": 2, "deletions": 2, "changes": 4, "file_content_changes": "@@ -1,5 +1,5 @@\n #include \"triton/Conversion/TritonGPUToLLVM/PTXAsmFormat.h\"\n-#include \"mlir/Dialect/Arithmetic/IR/Arithmetic.h\"\n+#include \"mlir/Dialect/Arith/IR/Arith.h\"\n #include \"mlir/IR/Builders.h\"\n #include \"triton/Dialect/Triton/IR/Dialect.h\"\n \n@@ -12,7 +12,7 @@ class PTXAsmFormatTest : public ::testing::Test {\n   static constexpr int numValues = 4;\n \n   PTXAsmFormatTest() {\n-    ctx.loadDialect<arith::ArithmeticDialect>();\n+    ctx.loadDialect<arith::ArithDialect>();\n \n     createValues();\n   }"}]