[{"filename": ".github/workflows/integration-tests.yml", "status": "modified", "additions": 87, "deletions": 61, "changes": 148, "file_content_changes": "@@ -19,25 +19,28 @@ jobs:\n   Runner-Preparation:\n     runs-on: ubuntu-latest\n     outputs:\n-      matrix: ${{ steps.set-matrix.outputs.matrix }}\n+      matrix-required: ${{ steps.set-matrix.outputs.matrix-required }}\n+      matrix-optional: ${{ steps.set-matrix.outputs.matrix-optional }}\n     steps:\n       - name: Prepare runner matrix\n         id: set-matrix\n         run: |\n           if [ x\"${{ github.repository }}\" == x\"openai/triton\" ]; then\n-            echo '::set-output name=matrix::[[\"self-hosted\", \"A100\"], [\"self-hosted\", \"H100\"], [\"self-hosted\", \"gfx908\"], [\"self-hosted\", \"arc770\"]]'\n+            echo '::set-output name=matrix-required::[[\"self-hosted\", \"A100\"], [\"self-hosted\", \"H100\"]]'\n+            echo '::set-output name=matrix-optional::[[\"self-hosted\", \"gfx908\"], [\"self-hosted\", \"arc770\"]]'\n           else\n-            echo '::set-output name=matrix::[\"ubuntu-latest\"]'\n+            echo '::set-output name=matrix-required::[\"ubuntu-latest\"]'\n+            echo '::set-output name=matrix-optional::[\"ubuntu-latest\"]'\n           fi\n \n-  Integration-Tests:\n+  Integration-Tests-Nvidia:\n     needs: Runner-Preparation\n \n     runs-on: ${{ matrix.runner }}\n \n     strategy:\n       matrix:\n-        runner: ${{fromJson(needs.Runner-Preparation.outputs.matrix)}}\n+        runner: ${{fromJson(needs.Runner-Preparation.outputs.matrix-required)}}\n \n     steps:\n       - name: Checkout\n@@ -48,6 +51,81 @@ jobs:\n         run: |\n           echo \"BACKEND=CUDA\" >> \"${GITHUB_ENV}\"\n \n+      - name: Clear cache\n+        run: |\n+          rm -rf ~/.triton\n+\n+      - name: Update PATH\n+        run: |\n+          echo \"PATH=${HOME}/.local/bin:${PATH}\" >> \"${GITHUB_ENV}\"\n+\n+      - name: Install Triton\n+        if: ${{ env.BACKEND == 'CUDA'}}\n+        run: |\n+          cd python\n+          python3 -m pip install --upgrade pip\n+          python3 -m pip install cmake==3.24\n+          python3 -m pip install --no-build-isolation -vvv '.[tests]'\n+\n+      - name: Run lit tests\n+        if: ${{ env.BACKEND == 'CUDA'}}\n+        run: |\n+          python3 -m pip install lit\n+          cd python\n+          LIT_TEST_DIR=\"build/$(ls build | grep -i cmake)/test\"\n+          if [ ! -d \"${LIT_TEST_DIR}\" ]; then\n+            echo \"Coult not find '${LIT_TEST_DIR}'\" ; exit -1\n+          fi\n+          lit -v \"${LIT_TEST_DIR}\"\n+\n+      - name: Run python tests on CUDA\n+        if: ${{ env.BACKEND == 'CUDA'}}\n+        run: |\n+          cd python/test/unit\n+          python3 -m pytest\n+\n+      - name: Create artifacts archive\n+        if: ${{(matrix.runner[0] == 'self-hosted') && (matrix.runner[1] == 'V100' || matrix.runner[1] == 'A100' || matrix.runner[1] == 'H100')}}\n+        run: |\n+          cd ~/.triton\n+          tar -czvf artifacts.tar.gz cache\n+\n+      - name: Upload artifacts archive\n+        if: ${{(matrix.runner[0] == 'self-hosted') && (matrix.runner[1] == 'V100' || matrix.runner[1] == 'A100' || matrix.runner[1] == 'H100')}}\n+        uses: actions/upload-artifact@v2\n+        with:\n+          name: artifacts ${{ matrix.runner[1] }}\n+          path: ~/.triton/artifacts.tar.gz\n+\n+      - name: Run CXX unittests\n+        if: ${{ env.BACKEND == 'CUDA'}}\n+        run: |\n+          cd python\n+          cd \"build/$(ls build | grep -i cmake)\"\n+          ctest\n+\n+      - name: Regression tests\n+        if: ${{ contains(matrix.runner, 'A100') }}\n+        run: |\n+          cd python/test/regression\n+          sudo nvidia-smi -i 0 -pm 1\n+          sudo nvidia-smi -i 0 --lock-gpu-clocks=1350,1350\n+          python3 -m pytest -vs .\n+          sudo nvidia-smi -i 0 -rgc\n+\n+  Integration-Tests-Third-Party:\n+    needs: Runner-Preparation\n+\n+    runs-on: ${{ matrix.runner }}\n+\n+    strategy:\n+      matrix:\n+        runner: ${{fromJson(needs.Runner-Preparation.outputs.matrix-optional)}}\n+\n+    steps:\n+      - name: Checkout\n+        uses: actions/checkout@v2\n+\n       - name: Set ROCM ENV\n         if: ${{(matrix.runner[0] == 'self-hosted') && (matrix.runner[1] == 'gfx908')}}\n         run: |\n@@ -81,14 +159,6 @@ jobs:\n           python3 -m pip install --upgrade pre-commit\n           python3 -m pre_commit run --all-files\n \n-      - name: Install Triton\n-        if: ${{ env.BACKEND == 'CUDA'}}\n-        run: |\n-          cd python\n-          python3 -m pip install --upgrade pip\n-          python3 -m pip install cmake==3.24\n-          python3 -m pip install --no-build-isolation -vvv '.[tests]'\n-\n       - name: Install Triton on ROCM\n         if: ${{ env.BACKEND == 'ROCM'}}\n         run: |\n@@ -113,43 +183,6 @@ jobs:\n           python3 setup.py build\n           python3 -m pip install --no-build-isolation -vvv '.[tests]'\n \n-      - name: Run lit tests\n-        if: ${{ env.BACKEND == 'CUDA'}}\n-        run: |\n-          python3 -m pip install lit\n-          cd python\n-          LIT_TEST_DIR=\"build/$(ls build | grep -i cmake)/test\"\n-          if [ ! -d \"${LIT_TEST_DIR}\" ]; then\n-            echo \"Coult not find '${LIT_TEST_DIR}'\" ; exit -1\n-          fi\n-          lit -v \"${LIT_TEST_DIR}\"\n-\n-      - name: Run python tests on CUDA\n-        if: ${{ env.BACKEND == 'CUDA'}}\n-        run: |\n-          cd python/test/unit\n-          python3 -m pytest\n-\n-      - name: Create artifacts archive\n-        if: ${{(matrix.runner[0] == 'self-hosted') && (matrix.runner[1] == 'V100' || matrix.runner[1] == 'A100' || matrix.runner[1] == 'H100')}}\n-        run: |\n-          cd ~/.triton\n-          tar -czvf artifacts.tar.gz cache\n-\n-      - name: Upload artifacts archive\n-        if: ${{(matrix.runner[0] == 'self-hosted') && (matrix.runner[1] == 'V100' || matrix.runner[1] == 'A100' || matrix.runner[1] == 'H100')}}\n-        uses: actions/upload-artifact@v2\n-        with:\n-          name: artifacts ${{ matrix.runner[1] }}\n-          path: ~/.triton/artifacts.tar.gz\n-\n-      - name: Run CXX unittests\n-        if: ${{ env.BACKEND == 'CUDA'}}\n-        run: |\n-          cd python\n-          cd \"build/$(ls build | grep -i cmake)\"\n-          ctest\n-\n       - name: Run python tests on ROCM\n         if: ${{ env.BACKEND == 'ROCM'}}\n         run: |\n@@ -165,17 +198,8 @@ jobs:\n           cd python/test/backend/third_party_backends\n           python3 -m pytest --capture=tee-sys -rfs --verbose --backend xpu\n \n-      - name: Regression tests\n-        if: ${{ contains(matrix.runner, 'A100') }}\n-        run: |\n-          cd python/test/regression\n-          sudo nvidia-smi -i 0 -pm 1\n-          sudo nvidia-smi -i 0 --lock-gpu-clocks=1350,1350\n-          python3 -m pytest -vs .\n-          sudo nvidia-smi -i 0 -rgc\n-\n   Compare-artifacts:\n-    needs: Integration-Tests\n+    needs: Integration-Tests-Nvidia\n \n     runs-on: ubuntu-latest\n \n@@ -193,7 +217,7 @@ jobs:\n       - name: Download latest main artifacts\n         env:\n           ARTIFACT_NAME: artifacts A100\n-          ARTIFACT_JOB_NAME: Integration-Tests\n+          ARTIFACT_JOB_NAME: Integration-Tests-Nvidia\n           GH_TOKEN: ${{ secrets.GITHUB_TOKEN }}\n         run: |\n           OWNER_REPO=\"${{ github.repository }}\"\n@@ -220,6 +244,7 @@ jobs:\n             mv cache reference\n           else\n             echo \"No artifact found with the name: $ARTIFACT_NAME\"\n+            exit 1\n           fi\n       - name: Download current job artifacts\n         uses: actions/download-artifact@v2\n@@ -270,6 +295,7 @@ jobs:\n         if: ${{ env.COMPARISON_RESULT == 'false' }}\n         uses: actions/github-script@v5\n         with:\n+          github-token: ${{ secrets.CI_ACCESS_TOKEN }}\n           script: |\n             const run_id = ${{ env.RUN_ID }};\n             const issue_number = context.payload.pull_request.number;"}, {"filename": "CMakeLists.txt", "status": "modified", "additions": 53, "deletions": 53, "changes": 106, "file_content_changes": "@@ -86,59 +86,59 @@ if(NOT MLIR_DIR)\n   else()\n     set(LLVM_LDFLAGS \"-L${LLVM_LIBRARY_DIR}\")\n     set(LLVM_LIBRARIES\n-      libLLVMNVPTXCodeGen.a\n-      libLLVMNVPTXDesc.a\n-      libLLVMNVPTXInfo.a\n-      libLLVMAMDGPUDisassembler.a\n-      libLLVMMCDisassembler.a\n-      libLLVMAMDGPUCodeGen.a\n-      libLLVMMIRParser.a\n-      libLLVMGlobalISel.a\n-      libLLVMSelectionDAG.a\n-      libLLVMipo.a\n-      libLLVMInstrumentation.a\n-      libLLVMVectorize.a\n-      libLLVMLinker.a\n-      libLLVMIRReader.a\n-      libLLVMAsmParser.a\n-      libLLVMFrontendOpenMP.a\n-      libLLVMAsmPrinter.a\n-      libLLVMDebugInfoDWARF.a\n-      libLLVMCodeGen.a\n-      libLLVMTarget.a\n-      libLLVMScalarOpts.a\n-      libLLVMInstCombine.a\n-      libLLVMAggressiveInstCombine.a\n-      libLLVMTransformUtils.a\n-      libLLVMBitWriter.a\n-      libLLVMAnalysis.a\n-      libLLVMProfileData.a\n-      libLLVMObject.a\n-      libLLVMTextAPI.a\n-      libLLVMBitReader.a\n-      libLLVMAMDGPUAsmParser.a\n-      libLLVMMCParser.a\n-      libLLVMAMDGPUDesc.a\n-      libLLVMAMDGPUUtils.a\n-      libLLVMMC.a\n-      libLLVMDebugInfoCodeView.a\n-      libLLVMDebugInfoMSF.a\n-      libLLVMCore.a\n-      libLLVMRemarks.a\n-      libLLVMBitstreamReader.a\n-      libLLVMBinaryFormat.a\n-      libLLVMAMDGPUInfo.a\n-      libLLVMSupport.a\n-      libLLVMDemangle.a\n-      libLLVMPasses.a\n-      libLLVMAnalysis.a\n-      libLLVMTransformUtils.a\n-      libLLVMScalarOpts.a\n-      libLLVMTransformUtils.a\n-      libLLVMipo.a\n-      libLLVMObjCARCOpts.a\n-      libLLVMCoroutines.a\n-      libLLVMAnalysis.a\n+      LLVMNVPTXCodeGen\n+      LLVMNVPTXDesc\n+      LLVMNVPTXInfo\n+      LLVMAMDGPUDisassembler\n+      LLVMMCDisassembler\n+      LLVMAMDGPUCodeGen\n+      LLVMMIRParser\n+      LLVMGlobalISel\n+      LLVMSelectionDAG\n+      LLVMipo\n+      LLVMInstrumentation\n+      LLVMVectorize\n+      LLVMLinker\n+      LLVMIRReader\n+      LLVMAsmParser\n+      LLVMFrontendOpenMP\n+      LLVMAsmPrinter\n+      LLVMDebugInfoDWARF\n+      LLVMCodeGen\n+      LLVMTarget\n+      LLVMScalarOpts\n+      LLVMInstCombine\n+      LLVMAggressiveInstCombine\n+      LLVMTransformUtils\n+      LLVMBitWriter\n+      LLVMAnalysis\n+      LLVMProfileData\n+      LLVMObject\n+      LLVMTextAPI\n+      LLVMBitReader\n+      LLVMAMDGPUAsmParser\n+      LLVMMCParser\n+      LLVMAMDGPUDesc\n+      LLVMAMDGPUUtils\n+      LLVMMC\n+      LLVMDebugInfoCodeView\n+      LLVMDebugInfoMSF\n+      LLVMCore\n+      LLVMRemarks\n+      LLVMBitstreamReader\n+      LLVMBinaryFormat\n+      LLVMAMDGPUInfo\n+      LLVMSupport\n+      LLVMDemangle\n+      LLVMPasses\n+      LLVMAnalysis\n+      LLVMTransformUtils\n+      LLVMScalarOpts\n+      LLVMTransformUtils\n+      LLVMipo\n+      LLVMObjCARCOpts\n+      LLVMCoroutines\n+      LLVMAnalysis\n     )\n   endif()\n "}, {"filename": "docs/python-api/triton.language.rst", "status": "modified", "additions": 10, "deletions": 0, "changes": 10, "file_content_changes": "@@ -111,6 +111,16 @@ Reduction Ops\n     sum\n     xor_sum\n \n+Scan Ops\n+-------------\n+\n+.. autosummary::\n+    :toctree: generated\n+    :nosignatures:\n+\n+    associative_scan\n+    cumsum\n+    cumprod\n \n Atomic Ops\n ----------"}, {"filename": "include/triton/Analysis/Utility.h", "status": "modified", "additions": 54, "deletions": 8, "changes": 62, "file_content_changes": "@@ -12,19 +12,19 @@ namespace mlir {\n \n class ReduceOpHelper {\n public:\n-  explicit ReduceOpHelper(triton::ReduceOp rop)\n-      : op(rop.getOperation()), axis(rop.getAxis()) {\n-    auto firstTy = rop.getOperands()[0].getType().cast<RankedTensorType>();\n+  explicit ReduceOpHelper(triton::ReduceOp op)\n+      : op(op.getOperation()), axis(op.getAxis()) {\n+    auto firstTy = op.getOperands()[0].getType().cast<RankedTensorType>();\n     srcShape = firstTy.getShape();\n     srcEncoding = firstTy.getEncoding();\n-    srcElementTypes = rop.getElementTypes();\n+    srcElementTypes = op.getElementTypes();\n \n-    for (const auto &t : rop.getInputTypes()) {\n+    for (const auto &t : op.getInputTypes()) {\n       if (t.getShape() != srcShape) {\n-        rop.emitError() << \"shape mismatch\";\n+        op.emitError() << \"shape mismatch\";\n       }\n       if (t.getEncoding() != srcEncoding) {\n-        rop.emitError() << \"encoding mismatch\";\n+        op.emitError() << \"encoding mismatch\";\n       }\n     }\n   }\n@@ -33,6 +33,8 @@ class ReduceOpHelper {\n \n   Attribute getSrcLayout() { return srcEncoding; }\n \n+  triton::ReduceOp getOperation() { return op; }\n+\n   bool isFastReduction();\n \n   unsigned getInterWarpSize();\n@@ -54,13 +56,57 @@ class ReduceOpHelper {\n   bool isSupportedLayout();\n \n private:\n-  Operation *op;\n+  triton::ReduceOp op;\n   ArrayRef<int64_t> srcShape;\n   Attribute srcEncoding;\n   SmallVector<Type> srcElementTypes;\n   int axis;\n };\n \n+class ScanLoweringHelper {\n+public:\n+  explicit ScanLoweringHelper(triton::ScanOp op) : scanOp(op) {\n+    auto type = scanOp.getOperand(0).getType().cast<RankedTensorType>();\n+    srcEncoding = type.getEncoding();\n+  }\n+  // Return true if the lowering of the scan op is supported.\n+  bool isSupported();\n+  // Return the number of elements per thread along axis dim.\n+  unsigned getAxisNumElementsPerThread();\n+  // Return the number of elements per thread along non-axis dims.\n+  unsigned getNonAxisNumElementsPerThread();\n+  // Return the number of threads per warp along non-axis dims.\n+  unsigned getNonAxisNumThreadsPerWarp();\n+  // Return the flat numbers of threads computing independent scan results.\n+  unsigned getNonAxisNumThreadsPerCTA();\n+  // Return the number of warps per CTA along axis dim.\n+  unsigned getAxisNumWarps();\n+  // Return the number of threads per warp along axis dim.\n+  unsigned getAxisNumThreadsPerWarp();\n+  // Return the number of blocks along axis dim.\n+  unsigned getAxisNumBlocks();\n+  // Return the number of blocks along non axis dim.\n+  unsigned getNonAxisNumBlocks();\n+  // Return the size of the scratch space needed for scan lowering.\n+  unsigned getScratchSizeInBytes();\n+\n+  // Stride between contiguous element along axis dim.\n+  unsigned getAxisElementStride();\n+  // Stride between contiguous threads along axis dim.\n+  unsigned getAxisThreadStride();\n+  // Stride between contiguous blocks along axis dim.\n+  unsigned getAxisBlockStride();\n+\n+  Location getLoc() { return scanOp.getLoc(); }\n+  unsigned getAxis() { return scanOp.getAxis(); }\n+  triton::gpu::BlockedEncodingAttr getEncoding();\n+  Region &getCombineOp();\n+\n+private:\n+  triton::ScanOp scanOp;\n+  Attribute srcEncoding;\n+};\n+\n bool maybeSharedAllocationOp(Operation *op);\n \n bool maybeAliasOp(Operation *op);"}, {"filename": "include/triton/Dialect/Triton/IR/TritonAttrDefs.td", "status": "modified", "additions": 1, "deletions": 0, "changes": 1, "file_content_changes": "@@ -12,6 +12,7 @@ def TT_CacheModifierAttr : I32EnumAttr<\n         I32EnumAttrCase<\"CG\", 3, \"cg\">,\n         I32EnumAttrCase<\"WB\", 4, \"wb\">,\n         I32EnumAttrCase<\"CS\", 5, \"cs\">,\n+        I32EnumAttrCase<\"WT\", 6, \"wt\">,\n     ]> {\n     let cppNamespace = \"::mlir::triton\";\n }"}, {"filename": "include/triton/Dialect/Triton/IR/TritonOps.td", "status": "modified", "additions": 26, "deletions": 0, "changes": 26, "file_content_changes": "@@ -426,6 +426,32 @@ def TT_ReduceReturnOp: TT_Op<\"reduce.return\",\n     let assemblyFormat = \"$result attr-dict `:` type($result)\";\n }\n \n+//\n+// Scan Op\n+//\n+def TT_ScanOp: TT_Op<\"scan\",\n+                       [Pure,\n+                        SameOperandsAndResultEncoding,\n+                        SameOperandsAndResultElementType,\n+                        SingleBlock,\n+                        DeclareOpInterfaceMethods<InferTypeOpInterface>]> {\n+    let summary = \"Reduction using generic combination algorithm\";\n+    let arguments = (ins Variadic<TT_Tensor>:$operands, I32Attr:$axis);\n+    let results = (outs Variadic<TT_Tensor>:$result);\n+    let regions = (region SizedRegion<1>:$combineOp);\n+    let builders = [\n+        OpBuilder<(ins \"ValueRange\":$operands, \"int\":$axis)>,\n+    ];\n+    let hasVerifier = 1;\n+}\n+\n+def TT_ScanReturnOp: TT_Op<\"scan.return\",\n+                             [HasParent<\"ScanOp\">, Pure, Terminator, ReturnLike]> {\n+    let summary = \"terminator for scan operator\";\n+    let arguments = (ins Variadic<AnyType>:$result);\n+    let assemblyFormat = \"$result attr-dict `:` type($result)\";\n+}\n+\n \n //\n // External Elementwise op"}, {"filename": "include/triton/Dialect/Triton/IR/TritonTypes.td", "status": "modified", "additions": 1, "deletions": 1, "changes": 2, "file_content_changes": "@@ -14,7 +14,7 @@ class TritonTypeDef<string name, string _mnemonic>\n }\n \n // Floating-point Type\n-def TT_Float : AnyTypeOf<[F8E4M3FNUZ, F8E4M3B11FNUZ, F8E5M2, F16, BF16, F32, F64], \"floating-point\">;\n+def TT_Float : AnyTypeOf<[F8E4M3FN, F8E5M2, F16, BF16, F32, F64], \"floating-point\">;\n def TT_FloatTensor : TensorOf<[TT_Float]>;\n def TT_FloatLike : AnyTypeOf<[TT_Float, TT_FloatTensor]>;\n "}, {"filename": "include/triton/Dialect/TritonGPU/IR/Dialect.h", "status": "modified", "additions": 5, "deletions": 0, "changes": 5, "file_content_changes": "@@ -28,8 +28,13 @@ unsigned getTotalElemsPerThread(Attribute layout, ArrayRef<int64_t> shape,\n \n SmallVector<unsigned> getElemsPerThread(Type type);\n \n+// Returns the number of threads per warp that may have access to replicated\n+// elements. If you want non-replicated threads, use\n+// getThreadsPerWarpWithUniqueData.\n SmallVector<unsigned> getThreadsPerWarp(Attribute layout);\n \n+// Returns the number of warps per CTA that may have access to replicated\n+// elements. If you want non-replicated warps, use getWarpsPerCTAWithUniqueData.\n SmallVector<unsigned> getWarpsPerCTA(Attribute layout);\n \n SmallVector<unsigned> getSizePerThread(Attribute layout);"}, {"filename": "lib/Analysis/Allocation.cpp", "status": "modified", "additions": 4, "deletions": 0, "changes": 4, "file_content_changes": "@@ -170,6 +170,10 @@ class AllocationAnalysis {\n       ReduceOpHelper helper(reduceOp);\n       unsigned bytes = helper.getScratchSizeInBytes();\n       allocation->addBuffer<BufferT::BufferKind::Scratch>(op, bytes);\n+    } else if (auto scanOp = dyn_cast<triton::ScanOp>(op)) {\n+      ScanLoweringHelper helper(scanOp);\n+      unsigned bytes = helper.getScratchSizeInBytes();\n+      allocation->addBuffer<BufferT::BufferKind::Scratch>(op, bytes);\n     } else if (auto cvtLayout = dyn_cast<triton::gpu::ConvertLayoutOp>(op)) {\n       auto srcTy = cvtLayout.getSrc().getType().cast<RankedTensorType>();\n       auto dstTy = cvtLayout.getResult().getType().cast<RankedTensorType>();"}, {"filename": "lib/Analysis/Membar.cpp", "status": "modified", "additions": 2, "deletions": 1, "changes": 3, "file_content_changes": "@@ -86,7 +86,8 @@ void MembarAnalysis::visitTerminator(Operation *op,\n     return;\n   }\n   // Otherwise, it could be a return op\n-  if (isa<triton::ReduceReturnOp>(op) || isa<triton::ReturnOp>(op)) {\n+  if (isa<triton::ReduceReturnOp>(op) || isa<triton::ScanReturnOp>(op) ||\n+      isa<triton::ReturnOp>(op)) {\n     return;\n   }\n   llvm_unreachable(\"Unknown terminator encountered in membar analysis\");"}, {"filename": "lib/Analysis/Utility.cpp", "status": "modified", "additions": 132, "deletions": 0, "changes": 132, "file_content_changes": "@@ -5,11 +5,15 @@\n #include \"mlir/IR/Matchers.h\"\n #include \"triton/Dialect/Triton/IR/Dialect.h\"\n #include \"triton/Dialect/TritonGPU/IR/Dialect.h\"\n+#include \"triton/Tools/Sys/GetEnv.hpp\"\n #include <deque>\n \n namespace mlir {\n \n bool ReduceOpHelper::isFastReduction() {\n+  // Disable fast reduction only for debugging purpose\n+  if (::triton::tools::getBoolEnv(\"DISABLE_FAST_REDUCTION\"))\n+    return false;\n   return axis == triton::gpu::getOrder(getSrcLayout())[0];\n }\n \n@@ -113,6 +117,134 @@ bool ReduceOpHelper::isSupportedLayout() {\n   return false;\n }\n \n+unsigned ScanLoweringHelper::getAxisNumElementsPerThread() {\n+  return getEncoding().getSizePerThread()[getAxis()];\n+}\n+\n+unsigned ScanLoweringHelper::getNonAxisNumElementsPerThread() {\n+  SmallVector<unsigned> sizePerThreads = getContigPerThread(getEncoding());\n+  sizePerThreads[getAxis()] = 1;\n+  return product<unsigned>(sizePerThreads);\n+}\n+\n+Region &ScanLoweringHelper::getCombineOp() { return scanOp.getCombineOp(); }\n+\n+unsigned ScanLoweringHelper::getAxisNumThreadsPerWarp() {\n+  return triton::gpu::getThreadsPerWarp(getEncoding())[getAxis()];\n+}\n+\n+unsigned ScanLoweringHelper::getNonAxisNumThreadsPerWarp() {\n+  auto threadsPerWarp = triton::gpu::getThreadsPerWarp(getEncoding());\n+  threadsPerWarp[getAxis()] = 1;\n+  return product<unsigned>(threadsPerWarp);\n+}\n+\n+// Return the flat numbers of threads computing independent scan results.\n+unsigned ScanLoweringHelper::getNonAxisNumThreadsPerCTA() {\n+  unsigned numParallelThreadsPerWarp = getNonAxisNumThreadsPerWarp();\n+  auto warpsPerCTA = triton::gpu::getWarpsPerCTA(getEncoding());\n+  warpsPerCTA[getAxis()] = 1;\n+  unsigned numParallelWarpsPerCTA = product<unsigned>(warpsPerCTA);\n+  return numParallelThreadsPerWarp * numParallelWarpsPerCTA;\n+}\n+unsigned ScanLoweringHelper::getAxisNumWarps() {\n+  auto warpsPerCTA = triton::gpu::getWarpsPerCTA(srcEncoding);\n+  return warpsPerCTA[getAxis()];\n+}\n+\n+unsigned ScanLoweringHelper::getAxisNumBlocks() {\n+  auto type = scanOp.getOperand(0).getType().cast<RankedTensorType>();\n+  auto sizePerThreads = triton::gpu::getSizePerThread(srcEncoding);\n+  auto threadsPerWarp = triton::gpu::getThreadsPerWarp(srcEncoding);\n+  auto warpsPerCTA = triton::gpu::getWarpsPerCTA(srcEncoding);\n+  unsigned axis = getAxis();\n+  return ceil<unsigned>(\n+      type.getShape()[axis],\n+      (sizePerThreads[axis] * threadsPerWarp[axis] * warpsPerCTA[axis]));\n+}\n+\n+unsigned ScanLoweringHelper::getNonAxisNumBlocks() {\n+  auto type = scanOp.getOperand(0).getType().cast<RankedTensorType>();\n+  auto sizePerThreads = triton::gpu::getSizePerThread(srcEncoding);\n+  auto threadsPerWarp = triton::gpu::getThreadsPerWarp(srcEncoding);\n+  auto warpsPerCTA = triton::gpu::getWarpsPerCTA(srcEncoding);\n+  unsigned axis = getAxis();\n+  unsigned numBlocks = 1;\n+  for (unsigned i = 0; i < sizePerThreads.size(); i++) {\n+    if (i == axis)\n+      continue;\n+    numBlocks *= ceil<unsigned>(\n+        type.getShape()[i],\n+        (sizePerThreads[i] * threadsPerWarp[i] * warpsPerCTA[i]));\n+  }\n+  return numBlocks;\n+}\n+\n+bool ScanLoweringHelper::isSupported() {\n+  // TODO: Support the following cases:\n+  // 1. Scan on non-blocking encodings\n+  // 2. Scan with multiple operands\n+  if (!isa<triton::gpu::BlockedEncodingAttr>(srcEncoding))\n+    return false;\n+  if (scanOp.getNumOperands() != 1)\n+    return false;\n+  return true;\n+}\n+\n+unsigned ScanLoweringHelper::getScratchSizeInBytes() {\n+  auto type = scanOp.getOperand(0).getType().cast<RankedTensorType>();\n+  unsigned elementSizeInBytes = type.getElementTypeBitWidth() / 8;\n+  auto mod = scanOp->getParentOfType<ModuleOp>();\n+  unsigned numWarps = triton::gpu::TritonGPUDialect::getNumWarps(mod);\n+  unsigned numNonAxisElementsPerWapr =\n+      getNonAxisNumThreadsPerWarp() * getNonAxisNumElementsPerThread();\n+  unsigned numElements = numWarps * numNonAxisElementsPerWapr *\n+                         getAxisNumBlocks() * getNonAxisNumBlocks();\n+  return elementSizeInBytes * numElements;\n+}\n+\n+triton::gpu::BlockedEncodingAttr ScanLoweringHelper::getEncoding() {\n+  return srcEncoding.cast<triton::gpu::BlockedEncodingAttr>();\n+}\n+\n+unsigned ScanLoweringHelper::getAxisElementStride() {\n+  auto order = triton::gpu::getOrder(srcEncoding);\n+  unsigned stride = 1;\n+  for (unsigned dim : order) {\n+    if (dim == getAxis())\n+      return stride;\n+    stride *= getContigPerThread(getEncoding())[dim];\n+  }\n+  llvm_unreachable(\"Axis not found in order\");\n+}\n+\n+unsigned ScanLoweringHelper::getAxisThreadStride() {\n+  auto order = triton::gpu::getOrder(srcEncoding);\n+  unsigned stride = 1;\n+  for (unsigned dim : order) {\n+    if (dim == getAxis())\n+      return stride;\n+    stride *= getEncoding().getThreadsPerWarp()[dim];\n+  }\n+  llvm_unreachable(\"Axis not found in order\");\n+}\n+\n+unsigned ScanLoweringHelper::getAxisBlockStride() {\n+  auto order = triton::gpu::getOrder(srcEncoding);\n+  unsigned stride = 1;\n+  auto type = scanOp.getOperand(0).getType().cast<RankedTensorType>();\n+  auto sizePerThreads = triton::gpu::getSizePerThread(srcEncoding);\n+  auto threadsPerWarp = triton::gpu::getThreadsPerWarp(srcEncoding);\n+  auto warpsPerCTA = triton::gpu::getWarpsPerCTA(srcEncoding);\n+  for (unsigned dim : order) {\n+    if (dim == getAxis())\n+      return stride;\n+    stride *= type.getShape()[dim] /\n+              (sizePerThreads[dim] * threadsPerWarp[dim] * warpsPerCTA[dim]);\n+  }\n+  llvm_unreachable(\"Axis not found in order\");\n+}\n+\n bool maybeSharedAllocationOp(Operation *op) {\n   // TODO(Keren): This function can be replaced by adding\n   // MemoryEffectOpInterface. We can then use the MemoryEffectOpInterface to"}, {"filename": "lib/Conversion/TritonGPUToLLVM/CMakeLists.txt", "status": "modified", "additions": 1, "deletions": 0, "changes": 1, "file_content_changes": "@@ -17,6 +17,7 @@ add_mlir_conversion_library(TritonGPUToLLVM\n     TritonGPUToLLVMPass.cpp\n     PTXAsmFormat.cpp\n     ReduceOpToLLVM.cpp\n+    ScanOpToLLVM.cpp\n     Utility.cpp\n     TypeConverter.cpp\n     ViewOpToLLVM.cpp"}, {"filename": "lib/Conversion/TritonGPUToLLVM/ConvertLayoutOpToLLVM/SharedToDotOperandMMAv2.cpp", "status": "modified", "additions": 0, "deletions": 3, "changes": 3, "file_content_changes": "@@ -559,9 +559,6 @@ Value loadArg(ConversionPatternRewriter &rewriter, Location loc, Value tensor,\n \n   SmallVector<Value> multiDimWarpId =\n       delinearize(rewriter, loc, warp, warpsPerCTA, order);\n-  unsigned lastAxis = order[order.size() - 1];\n-  multiDimWarpId[lastAxis] =\n-      urem(multiDimWarpId[lastAxis], i32_val(warpsPerCTA[lastAxis]));\n   Value warpM = urem(multiDimWarpId[0], i32_val(shape[0] / 16));\n   Value warpN = urem(multiDimWarpId[1], i32_val(shape[1] / 8));\n "}, {"filename": "lib/Conversion/TritonGPUToLLVM/ElementwiseOpToLLVM.cpp", "status": "modified", "additions": 451, "deletions": 301, "changes": 752, "file_content_changes": "@@ -4,227 +4,6 @@ using namespace mlir;\n using namespace mlir::triton;\n using ::mlir::triton::gpu::getTotalElemsPerThread;\n \n-/* ----- FP8E5M2 ------ */\n-// This data-type is the standard FP8E5M2 format\n-\n-const std::string Fp16_to_Fp8E5M2 =\n-    \"{                            \\n\"\n-    \".reg .b32 a<2>;              \\n\"\n-    \"and.b32 a0, $1, 0x7fff7fff;  \\n\"           // a0 &= 0x7fff7fff\n-    \"and.b32 a1, $2, 0x7fff7fff;  \\n\"           // (strip sign)\n-    \"add.u32 a0, a0, 0x00800080;  \\n\"           // a0 += 0x00800080\n-    \"add.u32 a1, a1, 0x00800080;  \\n\"           // (round to nearest)\n-    \"lop3.b32 a0, $1, 0x80008000, a0, 0xea; \\n\" // a0 = a0|(0x80008000&in0)\n-    \"lop3.b32 a1, $2, 0x80008000, a1, 0xea; \\n\" // (restore sign)\n-    \"prmt.b32 $0, a0, a1, 0x7531; \\n\\t\"         // output = a1a0\n-    \"}\";\n-\n-const std::string Fp8E5M2_to_Fp16 = \"{                           \\n\"\n-                                    \"prmt.b32 $0, 0, $2, 0x5140; \\n\\t\"\n-                                    \"prmt.b32 $1, 0, $2, 0x7362; \\n\\t\"\n-                                    \"}\";\n-\n-const std::string Fp8E5M2_to_Bf16 =\n-    \"{                                      \\n\"\n-    \".reg .b32 a<2>, b<2>;                  \\n\" // if input = 0xf1f2f3f4\n-    \"prmt.b32 a0, 0, $2, 0x5140;            \\n\" // a0 = 0xf300f400\n-    \"prmt.b32 a1, 0, $2, 0x7362;            \\n\" // a1 = 0xf100f200\n-    \"lop3.b32 b0, a0, 0x7fff7fff, 0, 0xc0;  \\n\" // b0 = a0 & 0x7fff7fff\n-    \"lop3.b32 b1, a1, 0x7fff7fff, 0, 0xc0;  \\n\" // (strip sign)\n-    \"shr.b32  b0, b0, 3;                    \\n\" // b0 >>= 3\n-    \"shr.b32  b1, b1, 3;                    \\n\" // shift into bf16 position\n-    \"add.u32  b0, b0, 0x38003800;           \\n\" // b0.exp += 2**7-2**4\n-                                                // exponent compensate = 112\n-    \"add.u32  b1, b1, 0x38003800;           \\n\" // b1 += 112<<7 | 112<<7<<16\n-    \"lop3.b32 $0, b0, 0x80008000, a0, 0xf8; \\n\" // out0 = b0|(0x80008000&a0)\n-    \"lop3.b32 $1, b1, 0x80008000, a1, 0xf8; \\n\" // (restore sign)\n-    \"}\";\n-\n-const std::string Bf16_to_Fp8E5M2 =\n-    \"{                                           \\n\" // bf16=fp8>>3 + 112<<7\n-    \".reg .u32 sign, sign<2>, nosign, nosign<2>; \\n\" // fp8_min = 0b00000000\n-    \".reg .u32 fp8_min, fp8_max, rn_;            \\n\" // fp8_max = 0b11111111\n-    \"mov.u32 fp8_min, 0x38003800;                \\n\" // so bf16_min = 0x3800\n-    \"mov.u32 fp8_max, 0x57e057e0;                \\n\" // so bf16_max = 0x57e0\n-    \"mov.u32 rn_, 0x00100010;                    \\n\" // round to nearest\n-    \"and.b32 sign0, $1, 0x80008000;              \\n\" // sign0=in0&0x80008000\n-    \"and.b32 sign1, $2, 0x80008000;              \\n\" // (store sign)\n-    \"prmt.b32 sign, sign0, sign1, 0x7531;        \\n\"\n-    \"and.b32 nosign0, $1, 0x7fff7fff;            \\n\" // nosign0=in0&0x7fff7fff\n-    \"and.b32 nosign1, $2, 0x7fff7fff;            \\n\" // (strip sign)\n-\n-    // nosign = clamp(nosign, min, max)\n-    \".reg .u32 nosign_0_<2>, nosign_1_<2>;       \\n\"\n-    \"and.b32 nosign_0_0, nosign0, 0xffff0000;    \\n\"\n-    \"max.u32 nosign_0_0, nosign_0_0, 0x38000000; \\n\"\n-    \"min.u32 nosign_0_0, nosign_0_0, 0x57e00000; \\n\"\n-    \"and.b32 nosign_0_1, nosign0, 0x0000ffff;    \\n\"\n-    \"max.u32 nosign_0_1, nosign_0_1, 0x3800;     \\n\"\n-    \"min.u32 nosign_0_1, nosign_0_1, 0x57e0;     \\n\"\n-    \"or.b32 nosign0, nosign_0_0, nosign_0_1;     \\n\"\n-    \"and.b32 nosign_1_0, nosign1, 0xffff0000;    \\n\"\n-    \"max.u32 nosign_1_0, nosign_1_0, 0x38000000; \\n\"\n-    \"min.u32 nosign_1_0, nosign_1_0, 0x57e00000; \\n\"\n-    \"and.b32 nosign_1_1, nosign1, 0x0000ffff;    \\n\"\n-    \"max.u32 nosign_1_1, nosign_1_1, 0x3800;     \\n\"\n-    \"min.u32 nosign_1_1, nosign_1_1, 0x57e0;     \\n\"\n-    \"or.b32 nosign1, nosign_1_0, nosign_1_1;     \\n\"\n-\n-    \"add.u32 nosign0, nosign0, rn_;              \\n\" // nosign0 += rn_\n-    \"add.u32 nosign1, nosign1, rn_;              \\n\" // (round to nearest)\n-    \"sub.u32 nosign0, nosign0, 0x38003800;       \\n\" // nosign0-=0x38003800\n-    \"sub.u32 nosign1, nosign1, 0x38003800;       \\n\" // (compensate offset)\n-    \"shl.b32 nosign0, nosign0, 3;                \\n\" // nosign0 <<= 3\n-    \"shl.b32 nosign1, nosign1, 3;                \\n\" // shift into to fp8e4\n-    \"prmt.b32 nosign, nosign0, nosign1, 0x7531;  \\n\" // nosign0 = 0xf100f200\n-                                                     // nosign1 = 0xf300f400\n-                                                     // nosign = 0xf3f4f1f2\n-    \"or.b32 $0, nosign, sign;                    \\n\" // restore sign\n-    \"}\";\n-\n-/* ----- FP8E4M3B15 ------ */\n-// This data-type is a variant of the standard FP8E4M3 format.\n-// It was designed for fast software conversion to FP16 on\n-// nvidia GPUs that do not support it natively.\n-// Specifically, this data-type:\n-//    - has infinities\n-//    - has multiple nans (when all exponent bits are 1)\n-//    - has an exponent bias of 15 (vs. 7 for fp8e4m3)\n-\n-// Fp8E4M3B15 -> Fp16 (packed)\n-// fast conversion code provided by Scott Gray @ OpenAI\n-// $0 = (($2 << 1) & 0x80008000u) | (($2 << 7) & 0x3f803f80u);\n-// $1 = (($2 << 0) & 0x80008000u) | (($2 << 0) & 0x3f803f80u);\n-// WARN: subnormal (0bs0000xxx) are not handled\n-const std::string Fp8E4M3B15_to_Fp16 =\n-    \"{                                      \\n\"\n-    \".reg .b32 a<2>;                        \\n\"\n-    \"shl.b32 a0, $2, 1;                     \\n\"\n-    \"shl.b32 a1, $2, 7;                     \\n\"\n-    \"and.b32  $0, a0, 0x80008000;           \\n\"\n-    \"lop3.b32 $0, $0, a1, 0x3f803f80, 0xf8; \\n\"\n-    \"and.b32  $1, $2, 0x80008000;           \\n\"\n-    \"lop3.b32 $1, $1, $2, 0x3f803f80, 0xf8; \\n\"\n-    \"}\";\n-\n-// Fp16 -> Fp8E4M3B15 (packed)\n-// fast conversion code provided by Scott Gray @ OpenAI\n-// ret = ((e4.x >> 1) & (0x80008000u >> 1)) |\n-//       ((e4.x >> 7) & (0x3f803f80u >> 7)) |\n-//       ((e4.y >> 0) & (0x80008000u >> 0)) |\n-//       ((e4.y >> 0) & (0x3f803f80u >> 0)) ;\n-// WARN: subnormal (0bs0000xxx) are not handled\n-const std::string Fp16_to_Fp8E4M3B15 =\n-    \"{                                       \\n\"\n-    \".reg .b32 a<2>;                         \\n\"\n-    \"shr.b32  a0, $1, 1;                     \\n\"\n-    \"shr.b32  a1, $1, 7;                     \\n\"\n-    \"and.b32  $0,     a0, 0x40004000;        \\n\"\n-    \"lop3.b32 $0, $0, a1, 0x007f007f, 0xf8;  \\n\"\n-    \"lop3.b32 $0, $0, $2, 0x80008000, 0xf8;  \\n\"\n-    \"lop3.b32 $0, $0, $2, 0x3f803f80, 0xf8;  \\n\"\n-    \"}\";\n-\n-/* ----- FP8E4M3 ------ */\n-// Note: when handled by software, this format\n-// does not handle denormals and has\n-// more than a single NaN values.\n-\n-// Fp8E4M3 -> Fp16 (packed)\n-const std::string Fp8E4M3_to_Fp16 =\n-    \"{                                      \\n\"\n-    \".reg .b32 a<2>, b<2>;                  \\n\" // if input = 0xf1f2f3f4\n-    \"prmt.b32 a0, 0, $2, 0x5040;            \\n\" // a0 = 0xf300f400\n-    \"prmt.b32 a1, 0, $2, 0x7060;            \\n\" // a1 = 0xf100f200\n-    \"lop3.b32 b0, a0, 0x7fff7fff, 0, 0xc0;  \\n\" // b0 = a0 & 0x7fff7fff\n-    \"lop3.b32 b1, a1, 0x7fff7fff, 0, 0xc0;  \\n\" // (strip sign)\n-    \"shr.b32  b0, b0, 1;                    \\n\" // b0 >>= 1\n-    \"shr.b32  b1, b1, 1;                    \\n\" // shift into fp16 position\n-    \"add.u32  b0, b0, 0x20002000;           \\n\" // b0.exp += 2**4-2**3\n-                                                // exponent compensate = 8\n-    \"add.u32  b1, b1, 0x20002000;           \\n\" // b1 += 8<<10 | 8<<10<<16\n-    \"lop3.b32 $0, b0, 0x80008000, a0, 0xf8; \\n\" // out0 = b0|(0x80008000&a0)\n-    \"lop3.b32 $1, b1, 0x80008000, a1, 0xf8; \\n\" // (restore sign)\n-    \"}\";\n-\n-// Fp16 -> Fp8E4M3 (packed)\n-const std::string Fp16_to_Fp8E4M3 =\n-    \"{                                      \\n\"\n-    \".reg .b32 a<2>, b<2>;                  \\n\" // see Fp8E4M3x4ToFp16x4\n-    \"sub.u32 a0, $1, 0x20002000;            \\n\" // a0 = input0 - 0x20002000\n-                                                // (compensate offset)\n-    \"sub.u32 a1, $2, 0x20002000;            \\n\" // a1 = input1 - 0x20002000\n-                                                // (8 << 10 | 8 << 10 << 16)\n-    \"shl.b32 a0, a0, 1;                     \\n\" // a0 <<= 1\n-    \"shl.b32 a1, a1, 1;                     \\n\" // shift into fp8e4 position\n-    \"lop3.b32 a0, a0, 0x7fff7fff, 0, 0xc0;  \\n\" // a0 &= 0x7fff7fff\n-    \"lop3.b32 a1, a1, 0x7fff7fff, 0, 0xc0;  \\n\" // (strip sign)\n-    \"add.u32 a0, a0, 0x00800080;            \\n\" // a0 += 0x00800080\n-    \"add.u32 a1, a1, 0x00800080;            \\n\" // (round to nearest)\n-    \"lop3.b32 b0, $1, 0x80008000, a0, 0xea; \\n\" // b0 = a0|(0x80008000&in0)\n-    \"lop3.b32 b1, $2, 0x80008000, a1, 0xea; \\n\" // (restore sign)\n-    \"prmt.b32 $0, b0, b1, 0x7531;           \\n\" // output = b1b0\n-    \"}\";\n-\n-// WARN: subnormal (0bs0000xxx) are not handled\n-const std::string Fp8E4M3_to_Bf16 =\n-    \"{                                      \\n\"\n-    \".reg .b32 a<2>, b<2>;                  \\n\" // if input = 0xf1f2f3f4\n-    \"prmt.b32 a0, 0, $2, 0x5040;            \\n\" // a0 = 0xf300f400\n-    \"prmt.b32 a1, 0, $2, 0x7060;            \\n\" // a1 = 0xf100f200\n-    \"and.b32 b0, a0, 0x7fff7fff;            \\n\" // b0 = a0 & 0x7fff7fff\n-    \"and.b32 b1, a1, 0x7fff7fff;            \\n\" // (strip sign)\n-    \"shr.b32 b0, b0, 4;                     \\n\" // b0 >>= 4\n-    \"shr.b32 b1, b1, 4;                     \\n\" // shift into fp16 position\n-    \"add.u32 b0, b0, 0x3c003c00;            \\n\" // b0.exp += 2**7-2**3\n-                                                // exponent compensate = 120\n-    \"add.u32 b1, b1, 0x3c003c00;            \\n\" // b1 += 120<<7 | 120<<7<<16\n-    \"lop3.b32 $0, b0, 0x80008000, a0, 0xf8; \\n\" // out0 = b0|(0x80008000&a0)\n-    \"lop3.b32 $1, b1, 0x80008000, a1, 0xf8; \\n\" // (restore sign)\n-    \"}\";\n-\n-const std::string Bf16_to_Fp8E4M3 =\n-    \"{                                           \\n\" // bf16=fp8>>4 + 120<<7\n-    \".reg .u32 sign, sign<2>, nosign, nosign<2>; \\n\" // fp8_min = 0b00000000\n-    \".reg .u32 fp8_min, fp8_max, rn_;            \\n\" // fp8_max = 0b11111111\n-    \"mov.u32 fp8_min, 0x3c003c00;                \\n\" // so bf16_min = 0x3c00\n-    \"mov.u32 fp8_max, 0x43f043f0;                \\n\" // so bf16_max = 0x43f0\n-    \"mov.u32 rn_, 0x80008;                       \\n\" // round to nearest\n-    \"and.b32 sign0, $1, 0x80008000;              \\n\" // sign0=in0&0x80008000\n-    \"and.b32 sign1, $2, 0x80008000;              \\n\" // (store sign)\n-    \"prmt.b32 sign, sign0, sign1, 0x7531;        \\n\"\n-    \"and.b32 nosign0, $1, 0x7fff7fff;            \\n\" // nosign0=in0&0x7fff7fff\n-    \"and.b32 nosign1, $2, 0x7fff7fff;            \\n\" // (strip sign)\n-\n-    // nosign = clamp(nosign, min, max)\n-    \".reg .u32 nosign_0_<2>, nosign_1_<2>;       \\n\"\n-    \"and.b32 nosign_0_0, nosign0, 0xffff0000;    \\n\"\n-    \"max.u32 nosign_0_0, nosign_0_0, 0x3c000000; \\n\"\n-    \"min.u32 nosign_0_0, nosign_0_0, 0x43f00000; \\n\"\n-    \"and.b32 nosign_0_1, nosign0, 0x0000ffff;    \\n\"\n-    \"max.u32 nosign_0_1, nosign_0_1, 0x3c00;     \\n\"\n-    \"min.u32 nosign_0_1, nosign_0_1, 0x43f0;     \\n\"\n-    \"or.b32 nosign0, nosign_0_0, nosign_0_1;     \\n\"\n-    \"and.b32 nosign_1_0, nosign1, 0xffff0000;    \\n\"\n-    \"max.u32 nosign_1_0, nosign_1_0, 0x3c000000; \\n\"\n-    \"min.u32 nosign_1_0, nosign_1_0, 0x43f00000; \\n\"\n-    \"and.b32 nosign_1_1, nosign1, 0x0000ffff;    \\n\"\n-    \"max.u32 nosign_1_1, nosign_1_1, 0x3c00;     \\n\"\n-    \"min.u32 nosign_1_1, nosign_1_1, 0x43f0;     \\n\"\n-    \"or.b32 nosign1, nosign_1_0, nosign_1_1;     \\n\"\n-\n-    \"add.u32 nosign0, nosign0, rn_;              \\n\" // nosign0 += rn_\n-    \"add.u32 nosign1, nosign1, rn_;              \\n\" // (round to nearest)\n-    \"sub.u32 nosign0, nosign0, 0x3c003c00;       \\n\" // nosign0-=0x3c003c00\n-    \"sub.u32 nosign1, nosign1, 0x3c003c00;       \\n\" // (compensate offset)\n-    \"shr.u32 nosign0, nosign0, 4;                \\n\" // nosign0 >>= 4\n-    \"shr.u32 nosign1, nosign1, 4;                \\n\" // shift into to fp8e4\n-    \"prmt.b32 nosign, nosign0, nosign1, 0x6420;  \\n\" // nosign0 = 0x00f100f2\n-                                                     // nosign1 = 0x00f300f4\n-                                                     // nosign = 0xf3f4f1f2\n-    \"or.b32 $0, nosign, sign;                    \\n\" // restore sign\n-    \"}\";\n-\n static SmallVector<Value> reorderValues(const SmallVector<Value> &values,\n                                         Type inType, Type ouType) {\n   auto inTensorTy = inType.dyn_cast<RankedTensorType>();\n@@ -363,57 +142,435 @@ struct FpToFpOpConversion\n   // FP8 -> FP16\n   /* ------------------ */\n \n-  static ConvertorT makeConverterFromPtx(const std::string &ptxAsm, Type inType,\n-                                         Type outType) {\n-\n-    ConvertorT converter =\n-        [ptxAsm, inType,\n-         outType](Location loc, ConversionPatternRewriter &rewriter,\n-                  const Value &v0, const Value &v1, const Value &v2,\n-                  const Value &v3) -> SmallVector<Value> {\n-      SmallVector<Value> v = {v0, v1, v2, v3};\n-      auto ctx = rewriter.getContext();\n-      int inBitwidth = inType.getIntOrFloatBitWidth();\n-      int outBitwidth = outType.getIntOrFloatBitWidth();\n-      // first, we pack `v` into 32-bit ints\n-      int inVecWidth = 32 / inBitwidth;\n-      auto inVecTy = vec_ty(inType, inVecWidth);\n-      SmallVector<Value> inPacked(4 / inVecWidth, undef(inVecTy));\n-      for (size_t i = 0; i < 4; i++)\n-        inPacked[i / inVecWidth] = insert_element(\n-            inVecTy, inPacked[i / inVecWidth], v[i], i32_val(i % inVecWidth));\n-      for (size_t i = 0; i < inPacked.size(); i++)\n-        inPacked[i] = bitcast(inPacked[i], i32_ty);\n-\n-      // then, we run the provided inline PTX\n-      int outVecWidth = 32 / outBitwidth;\n-      int outNums = 4 / outVecWidth;\n-      PTXBuilder builder;\n-      SmallVector<PTXBuilder::Operand *> operands;\n-      for (int i = 0; i < outNums; i++)\n-        operands.push_back(builder.newOperand(\"=r\"));\n-      for (Value inVal : inPacked)\n-        operands.push_back(builder.newOperand(inVal, \"r\"));\n-      auto &ptxOp = *builder.create(ptxAsm);\n-      ptxOp(operands, /*onlyAttachMLIRArgs=*/true);\n-      auto outVecTy = vec_ty(outType, outVecWidth);\n-      SmallVector<Value> outPacked;\n-      if (outNums == 1)\n-        outPacked.push_back(builder.launch(rewriter, loc, outVecTy, false));\n-      else {\n-        auto outStructTy = struct_ty(SmallVector<Type>(outNums, outVecTy));\n-        auto outStruct = builder.launch(rewriter, loc, outStructTy, false);\n-        for (int i = 0; i < outNums; i++)\n-          outPacked.push_back(extract_val(outVecTy, outStruct, i));\n-      }\n-      // unpack the output\n-      SmallVector<Value> ret;\n-      for (size_t i = 0; i < 4; i++)\n-        ret.push_back(extract_element(outType, outPacked[i / outVecWidth],\n-                                      i32_val(i % outVecWidth)));\n-      return ret;\n-    };\n-    return converter;\n+  static SmallVector<Value>\n+  convertFp8x4ToFp16x4(Location loc, ConversionPatternRewriter &rewriter,\n+                       const char *ptxAsm, const Value &v0, const Value &v1,\n+                       const Value &v2, const Value &v3) {\n+    auto ctx = rewriter.getContext();\n+    auto fp8x4VecTy = vec_ty(i8_ty, 4);\n+    Value fp8x4Vec = undef(fp8x4VecTy);\n+    fp8x4Vec = insert_element(fp8x4VecTy, fp8x4Vec, v0, i32_val(0));\n+    fp8x4Vec = insert_element(fp8x4VecTy, fp8x4Vec, v1, i32_val(1));\n+    fp8x4Vec = insert_element(fp8x4VecTy, fp8x4Vec, v2, i32_val(2));\n+    fp8x4Vec = insert_element(fp8x4VecTy, fp8x4Vec, v3, i32_val(3));\n+    fp8x4Vec = bitcast(fp8x4Vec, i32_ty);\n+\n+    PTXBuilder builder;\n+    auto &ptxOp = *builder.create(ptxAsm);\n+\n+    auto *o0 = builder.newOperand(\"=r\");\n+    auto *o1 = builder.newOperand(\"=r\");\n+    auto *i = builder.newOperand(fp8x4Vec, \"r\");\n+    ptxOp({o0, o1, i}, /*onlyAttachMLIRArgs=*/true);\n+\n+    auto fp16x2VecTy = vec_ty(f16_ty, 2);\n+    auto fp16x2x2StructTy =\n+        struct_ty(SmallVector<Type>{fp16x2VecTy, fp16x2VecTy});\n+    auto fp16x2x2Struct =\n+        builder.launch(rewriter, loc, fp16x2x2StructTy, false);\n+    auto fp16x2Vec0 = extract_val(fp16x2VecTy, fp16x2x2Struct, 0);\n+    auto fp16x2Vec1 = extract_val(fp16x2VecTy, fp16x2x2Struct, 1);\n+    return {extract_element(f16_ty, fp16x2Vec0, i32_val(0)),\n+            extract_element(f16_ty, fp16x2Vec0, i32_val(1)),\n+            extract_element(f16_ty, fp16x2Vec1, i32_val(0)),\n+            extract_element(f16_ty, fp16x2Vec1, i32_val(1))};\n+  }\n+\n+  static SmallVector<Value>\n+  convertFp8E4M3x4ToFp16x4(Location loc, ConversionPatternRewriter &rewriter,\n+                           const Value &v0, const Value &v1, const Value &v2,\n+                           const Value &v3) {\n+    auto *ptxAsm = // WARN: subnormal (0bs0000xxx) are not handled\n+        \"{                                      \\n\"\n+        \".reg .b32 a<2>, b<2>;                  \\n\" // if input = 0xf1f2f3f4\n+        \"prmt.b32 a0, 0, $2, 0x5040;            \\n\" // a0 = 0xf300f400\n+        \"prmt.b32 a1, 0, $2, 0x7060;            \\n\" // a1 = 0xf100f200\n+        \"lop3.b32 b0, a0, 0x7fff7fff, 0, 0xc0;  \\n\" // b0 = a0 & 0x7fff7fff\n+        \"lop3.b32 b1, a1, 0x7fff7fff, 0, 0xc0;  \\n\" // (strip sign)\n+        \"shr.b32  b0, b0, 1;                    \\n\" // b0 >>= 1\n+        \"shr.b32  b1, b1, 1;                    \\n\" // shift into fp16 position\n+        \"add.u32  b0, b0, 0x20002000;           \\n\" // b0.exp += 2**4-2**3\n+                                                    // exponent compensate = 8\n+        \"add.u32  b1, b1, 0x20002000;           \\n\" // b1 += 8<<10 | 8<<10<<16\n+        \"lop3.b32 $0, b0, 0x80008000, a0, 0xf8; \\n\" // out0 = b0|(0x80008000&a0)\n+        \"lop3.b32 $1, b1, 0x80008000, a1, 0xf8; \\n\" // (restore sign)\n+        \"}\";\n+    return convertFp8x4ToFp16x4(loc, rewriter, ptxAsm, v0, v1, v2, v3);\n+  }\n+\n+  static SmallVector<Value>\n+  convertFp8E5M2x4ToFp16x4(Location loc, ConversionPatternRewriter &rewriter,\n+                           const Value &v0, const Value &v1, const Value &v2,\n+                           const Value &v3) {\n+    // exponent bias of Fp8E5M2 and Fp16 are the same\n+    auto *ptxAsm = \"{                           \\n\"\n+                   \"prmt.b32 $0, 0, $2, 0x5140; \\n\\t\"\n+                   \"prmt.b32 $1, 0, $2, 0x7362; \\n\\t\"\n+                   \"}\";\n+    return convertFp8x4ToFp16x4(loc, rewriter, ptxAsm, v0, v1, v2, v3);\n+  }\n+\n+  /* ------------------ */\n+  // FP8 -> BF16\n+  /* ------------------ */\n+  static SmallVector<Value>\n+  convertFp8x4ToBf16x4(Location loc, ConversionPatternRewriter &rewriter,\n+                       const char *ptxAsm, const Value &v0, const Value &v1,\n+                       const Value &v2, const Value &v3) {\n+    auto ctx = rewriter.getContext();\n+    auto fp8x4VecTy = vec_ty(i8_ty, 4);\n+    Value fp8x4Vec = undef(fp8x4VecTy);\n+    fp8x4Vec = insert_element(fp8x4VecTy, fp8x4Vec, v0, i32_val(0));\n+    fp8x4Vec = insert_element(fp8x4VecTy, fp8x4Vec, v1, i32_val(1));\n+    fp8x4Vec = insert_element(fp8x4VecTy, fp8x4Vec, v2, i32_val(2));\n+    fp8x4Vec = insert_element(fp8x4VecTy, fp8x4Vec, v3, i32_val(3));\n+    fp8x4Vec = bitcast(fp8x4Vec, i32_ty);\n+\n+    PTXBuilder builder;\n+    auto &ptxOp = *builder.create(ptxAsm);\n+\n+    auto *o0 = builder.newOperand(\"=r\");\n+    auto *o1 = builder.newOperand(\"=r\");\n+    auto *i = builder.newOperand(fp8x4Vec, \"r\");\n+    ptxOp({o0, o1, i}, /* onlyAttachMLIRArgs */ true);\n+\n+    auto bf16x2VecTy = vec_ty(i16_ty, 2);\n+    auto bf16x2x2StructTy =\n+        struct_ty(SmallVector<Type>{bf16x2VecTy, bf16x2VecTy});\n+    auto bf16x2x2Struct =\n+        builder.launch(rewriter, loc, bf16x2x2StructTy, false);\n+    auto bf16x2Vec0 = extract_val(bf16x2VecTy, bf16x2x2Struct, 0);\n+    auto bf16x2Vec1 = extract_val(bf16x2VecTy, bf16x2x2Struct, 1);\n+    return {extract_element(i16_ty, bf16x2Vec0, i32_val(0)),\n+            extract_element(i16_ty, bf16x2Vec0, i32_val(1)),\n+            extract_element(i16_ty, bf16x2Vec1, i32_val(0)),\n+            extract_element(i16_ty, bf16x2Vec1, i32_val(1))};\n+  }\n+\n+  static SmallVector<Value>\n+  convertFp8E4M3x4ToBf16x4(Location loc, ConversionPatternRewriter &rewriter,\n+                           const Value &v0, const Value &v1, const Value &v2,\n+                           const Value &v3) {\n+    auto *ptxAsm = // WARN: subnormal (0bs0000xxx) are not handled\n+        \"{                                      \\n\"\n+        \".reg .b32 a<2>, b<2>;                  \\n\" // if input = 0xf1f2f3f4\n+        \"prmt.b32 a0, 0, $2, 0x5040;            \\n\" // a0 = 0xf300f400\n+        \"prmt.b32 a1, 0, $2, 0x7060;            \\n\" // a1 = 0xf100f200\n+        \"and.b32 b0, a0, 0x7fff7fff;            \\n\" // b0 = a0 & 0x7fff7fff\n+        \"and.b32 b1, a1, 0x7fff7fff;            \\n\" // (strip sign)\n+        \"shr.b32 b0, b0, 4;                     \\n\" // b0 >>= 4\n+        \"shr.b32 b1, b1, 4;                     \\n\" // shift into fp16 position\n+        \"add.u32 b0, b0, 0x3c003c00;            \\n\" // b0.exp += 2**7-2**3\n+                                                    // exponent compensate = 120\n+        \"add.u32 b1, b1, 0x3c003c00;            \\n\" // b1 += 120<<7 | 120<<7<<16\n+        \"lop3.b32 $0, b0, 0x80008000, a0, 0xf8; \\n\" // out0 = b0|(0x80008000&a0)\n+        \"lop3.b32 $1, b1, 0x80008000, a1, 0xf8; \\n\" // (restore sign)\n+        \"}\";\n+    return convertFp8x4ToBf16x4(loc, rewriter, ptxAsm, v0, v1, v2, v3);\n+  };\n+\n+  static SmallVector<Value>\n+  convertFp8E5M2x4ToBf16x4(Location loc, ConversionPatternRewriter &rewriter,\n+                           const Value &v0, const Value &v1, const Value &v2,\n+                           const Value &v3) {\n+    auto *ptxAsm = // WARN: subnormal (0bs00000xx) are not handled\n+        \"{                                      \\n\"\n+        \".reg .b32 a<2>, b<2>;                  \\n\" // if input = 0xf1f2f3f4\n+        \"prmt.b32 a0, 0, $2, 0x5140;            \\n\" // a0 = 0xf300f400\n+        \"prmt.b32 a1, 0, $2, 0x7362;            \\n\" // a1 = 0xf100f200\n+        \"lop3.b32 b0, a0, 0x7fff7fff, 0, 0xc0;  \\n\" // b0 = a0 & 0x7fff7fff\n+        \"lop3.b32 b1, a1, 0x7fff7fff, 0, 0xc0;  \\n\" // (strip sign)\n+        \"shr.b32  b0, b0, 3;                    \\n\" // b0 >>= 3\n+        \"shr.b32  b1, b1, 3;                    \\n\" // shift into bf16 position\n+        \"add.u32  b0, b0, 0x38003800;           \\n\" // b0.exp += 2**7-2**4\n+                                                    // exponent compensate = 112\n+        \"add.u32  b1, b1, 0x38003800;           \\n\" // b1 += 112<<7 | 112<<7<<16\n+        \"lop3.b32 $0, b0, 0x80008000, a0, 0xf8; \\n\" // out0 = b0|(0x80008000&a0)\n+        \"lop3.b32 $1, b1, 0x80008000, a1, 0xf8; \\n\" // (restore sign)\n+        \"}\";\n+    return convertFp8x4ToBf16x4(loc, rewriter, ptxAsm, v0, v1, v2, v3);\n+  };\n+\n+  /* ------------------ */\n+  // FP16 -> FP8\n+  /* ------------------ */\n+\n+  static SmallVector<Value>\n+  convertFp16x4ToFp8x4(Location loc, ConversionPatternRewriter &rewriter,\n+                       const char *ptxAsm, const Value &v0, const Value &v1,\n+                       const Value &v2, const Value &v3) {\n+    auto fp16x2VecTy = vec_ty(f16_ty, 2);\n+    Value fp16x2Vec0 = undef(fp16x2VecTy);\n+    Value fp16x2Vec1 = undef(fp16x2VecTy);\n+    fp16x2Vec0 = insert_element(fp16x2VecTy, fp16x2Vec0, v0, i32_val(0));\n+    fp16x2Vec0 = insert_element(fp16x2VecTy, fp16x2Vec0, v1, i32_val(1));\n+    fp16x2Vec1 = insert_element(fp16x2VecTy, fp16x2Vec1, v2, i32_val(0));\n+    fp16x2Vec1 = insert_element(fp16x2VecTy, fp16x2Vec1, v3, i32_val(1));\n+    fp16x2Vec0 = bitcast(fp16x2Vec0, i32_ty);\n+    fp16x2Vec1 = bitcast(fp16x2Vec1, i32_ty);\n+\n+    PTXBuilder builder;\n+    auto &ptxOp = *builder.create(ptxAsm);\n+\n+    auto *o = builder.newOperand(\"=r\");\n+    auto *i0 = builder.newOperand(fp16x2Vec0, \"r\");\n+    auto *i1 = builder.newOperand(fp16x2Vec1, \"r\");\n+    ptxOp({o, i0, i1}, /*onlyAttachMLIRArgs=*/true);\n+\n+    auto fp8x4VecTy = vec_ty(i8_ty, 4);\n+    auto fp8x4Vec = builder.launch(rewriter, loc, fp8x4VecTy, false);\n+    return {extract_element(i8_ty, fp8x4Vec, i32_val(0)),\n+            extract_element(i8_ty, fp8x4Vec, i32_val(1)),\n+            extract_element(i8_ty, fp8x4Vec, i32_val(2)),\n+            extract_element(i8_ty, fp8x4Vec, i32_val(3))};\n+  }\n+\n+  static SmallVector<Value>\n+  convertFp16x4ToFp8E4M3x4(Location loc, ConversionPatternRewriter &rewriter,\n+                           const Value &v0, const Value &v1, const Value &v2,\n+                           const Value &v3) {\n+    auto *ptxAsm = // WARN: subnormal Fp8s are not handled\n+        \"{                                      \\n\"\n+        \".reg .b32 a<2>, b<2>;                  \\n\" // see Fp8E4M3x4ToFp16x4\n+        \"sub.u32 a0, $1, 0x20002000;            \\n\" // a0 = input0 - 0x20002000\n+                                                    // (compensate offset)\n+        \"sub.u32 a1, $2, 0x20002000;            \\n\" // a1 = input1 - 0x20002000\n+                                                    // (8 << 10 | 8 << 10 << 16)\n+        \"shl.b32 a0, a0, 1;                     \\n\" // a0 <<= 1\n+        \"shl.b32 a1, a1, 1;                     \\n\" // shift into fp8e4 position\n+        \"lop3.b32 a0, a0, 0x7fff7fff, 0, 0xc0;  \\n\" // a0 &= 0x7fff7fff\n+        \"lop3.b32 a1, a1, 0x7fff7fff, 0, 0xc0;  \\n\" // (strip sign)\n+        \"add.u32 a0, a0, 0x00800080;            \\n\" // a0 += 0x00800080\n+        \"add.u32 a1, a1, 0x00800080;            \\n\" // (round to nearest)\n+        \"lop3.b32 b0, $1, 0x80008000, a0, 0xea; \\n\" // b0 = a0|(0x80008000&in0)\n+        \"lop3.b32 b1, $2, 0x80008000, a1, 0xea; \\n\" // (restore sign)\n+        \"prmt.b32 $0, b0, b1, 0x7531;           \\n\" // output = b1b0\n+        \"}\";\n+    return convertFp16x4ToFp8x4(loc, rewriter, ptxAsm, v0, v1, v2, v3);\n+  }\n+\n+  static SmallVector<Value>\n+  convertFp16x4ToFp8E5M2x4(Location loc, ConversionPatternRewriter &rewriter,\n+                           const Value &v0, const Value &v1, const Value &v2,\n+                           const Value &v3) {\n+    auto *ptxAsm =\n+        \"{                            \\n\"\n+        \".reg .b32 a<2>;              \\n\"\n+        \"and.b32 a0, $1, 0x7fff7fff;  \\n\"           // a0 &= 0x7fff7fff\n+        \"and.b32 a1, $2, 0x7fff7fff;  \\n\"           // (strip sign)\n+        \"add.u32 a0, a0, 0x00800080;  \\n\"           // a0 += 0x00800080\n+        \"add.u32 a1, a1, 0x00800080;  \\n\"           // (round to nearest)\n+        \"lop3.b32 a0, $1, 0x80008000, a0, 0xea; \\n\" // a0 = a0|(0x80008000&in0)\n+        \"lop3.b32 a1, $2, 0x80008000, a1, 0xea; \\n\" // (restore sign)\n+        \"prmt.b32 $0, a0, a1, 0x7531; \\n\\t\"         // output = a1a0\n+        \"}\";\n+    return convertFp16x4ToFp8x4(loc, rewriter, ptxAsm, v0, v1, v2, v3);\n+  }\n+\n+  /* ------------------ */\n+  // FP32 -> FP8\n+  /* ------------------ */\n+\n+  static SmallVector<Value>\n+  convertFp32x4ToFp8E4M3x4(Location loc, ConversionPatternRewriter &rewriter,\n+                           const Value &v0, const Value &v1, const Value &v2,\n+                           const Value &v3) {\n+    auto c0 = rewriter.create<LLVM::FPTruncOp>(loc, f16_ty, v0);\n+    auto c1 = rewriter.create<LLVM::FPTruncOp>(loc, f16_ty, v1);\n+    auto c2 = rewriter.create<LLVM::FPTruncOp>(loc, f16_ty, v2);\n+    auto c3 = rewriter.create<LLVM::FPTruncOp>(loc, f16_ty, v3);\n+    return convertFp16x4ToFp8E4M3x4(loc, rewriter, c0, c1, c2, c3);\n+  }\n+\n+  static SmallVector<Value>\n+  convertFp32x4ToFp8E5M2x4(Location loc, ConversionPatternRewriter &rewriter,\n+                           const Value &v0, const Value &v1, const Value &v2,\n+                           const Value &v3) {\n+    auto c0 = rewriter.create<LLVM::FPTruncOp>(loc, f16_ty, v0);\n+    auto c1 = rewriter.create<LLVM::FPTruncOp>(loc, f16_ty, v1);\n+    auto c2 = rewriter.create<LLVM::FPTruncOp>(loc, f16_ty, v2);\n+    auto c3 = rewriter.create<LLVM::FPTruncOp>(loc, f16_ty, v3);\n+    return convertFp16x4ToFp8E5M2x4(loc, rewriter, c0, c1, c2, c3);\n+  }\n+\n+  /* ------------------ */\n+  // BF16 -> FP8\n+  /* ------------------ */\n+\n+  static SmallVector<Value>\n+  convertBf16x4ToFp8x4(Location loc, ConversionPatternRewriter &rewriter,\n+                       const char *ptxAsm, const Value &v0, const Value &v1,\n+                       const Value &v2, const Value &v3) {\n+    auto bf16x2VecTy = vec_ty(i16_ty, 2);\n+    Value bf16x2Vec0 = undef(bf16x2VecTy);\n+    Value bf16x2Vec1 = undef(bf16x2VecTy);\n+    bf16x2Vec0 = insert_element(bf16x2VecTy, bf16x2Vec0, v0, i32_val(0));\n+    bf16x2Vec0 = insert_element(bf16x2VecTy, bf16x2Vec0, v1, i32_val(1));\n+    bf16x2Vec1 = insert_element(bf16x2VecTy, bf16x2Vec1, v2, i32_val(0));\n+    bf16x2Vec1 = insert_element(bf16x2VecTy, bf16x2Vec1, v3, i32_val(1));\n+    bf16x2Vec0 = bitcast(bf16x2Vec0, i32_ty);\n+    bf16x2Vec1 = bitcast(bf16x2Vec1, i32_ty);\n+\n+    PTXBuilder builder;\n+    auto &ptxOp = *builder.create(ptxAsm);\n+\n+    auto *o = builder.newOperand(\"=r\");\n+    auto *i0 = builder.newOperand(bf16x2Vec0, \"r\");\n+    auto *i1 = builder.newOperand(bf16x2Vec1, \"r\");\n+    ptxOp({o, i0, i1}, /*onlyAttachMLIRArgs=*/true);\n+\n+    auto fp8x4VecTy = vec_ty(i8_ty, 4);\n+    auto fp8x4Vec = builder.launch(rewriter, loc, fp8x4VecTy, false);\n+    return {extract_element(i8_ty, fp8x4Vec, i32_val(0)),\n+            extract_element(i8_ty, fp8x4Vec, i32_val(1)),\n+            extract_element(i8_ty, fp8x4Vec, i32_val(2)),\n+            extract_element(i8_ty, fp8x4Vec, i32_val(3))};\n+  }\n+\n+  static SmallVector<Value>\n+  convertBf16x4ToFp8E4M3x4(Location loc, ConversionPatternRewriter &rewriter,\n+                           const Value &v0, const Value &v1, const Value &v2,\n+                           const Value &v3) {\n+    auto *ptxAsm = // bf16 is clamped firstly to fp8 min/max\n+        \"{                                           \\n\" // bf16=fp8>>4 + 120<<7\n+        \".reg .u32 sign, sign<2>, nosign, nosign<2>; \\n\" // fp8_min = 0b00000000\n+        \".reg .u32 fp8_min, fp8_max, rn_;            \\n\" // fp8_max = 0b11111111\n+        \"mov.u32 fp8_min, 0x3c003c00;                \\n\" // so bf16_min = 0x3c00\n+        \"mov.u32 fp8_max, 0x43f043f0;                \\n\" // so bf16_max = 0x43f0\n+        \"mov.u32 rn_, 0x80008;                       \\n\" // round to nearest\n+        \"and.b32 sign0, $1, 0x80008000;              \\n\" // sign0=in0&0x80008000\n+        \"and.b32 sign1, $2, 0x80008000;              \\n\" // (store sign)\n+        \"prmt.b32 sign, sign0, sign1, 0x7531;        \\n\"\n+        \"and.b32 nosign0, $1, 0x7fff7fff;            \\n\" // nosign0=in0&0x7fff7fff\n+        \"and.b32 nosign1, $2, 0x7fff7fff;            \\n\" // (strip sign)\n+\n+        // nosign = clamp(nosign, min, max)\n+        \".reg .u32 nosign_0_<2>, nosign_1_<2>;       \\n\"\n+        \"and.b32 nosign_0_0, nosign0, 0xffff0000;    \\n\"\n+        \"max.u32 nosign_0_0, nosign_0_0, 0x3c000000; \\n\"\n+        \"min.u32 nosign_0_0, nosign_0_0, 0x43f00000; \\n\"\n+        \"and.b32 nosign_0_1, nosign0, 0x0000ffff;    \\n\"\n+        \"max.u32 nosign_0_1, nosign_0_1, 0x3c00;     \\n\"\n+        \"min.u32 nosign_0_1, nosign_0_1, 0x43f0;     \\n\"\n+        \"or.b32 nosign0, nosign_0_0, nosign_0_1;     \\n\"\n+        \"and.b32 nosign_1_0, nosign1, 0xffff0000;    \\n\"\n+        \"max.u32 nosign_1_0, nosign_1_0, 0x3c000000; \\n\"\n+        \"min.u32 nosign_1_0, nosign_1_0, 0x43f00000; \\n\"\n+        \"and.b32 nosign_1_1, nosign1, 0x0000ffff;    \\n\"\n+        \"max.u32 nosign_1_1, nosign_1_1, 0x3c00;     \\n\"\n+        \"min.u32 nosign_1_1, nosign_1_1, 0x43f0;     \\n\"\n+        \"or.b32 nosign1, nosign_1_0, nosign_1_1;     \\n\"\n+\n+        \"add.u32 nosign0, nosign0, rn_;              \\n\" // nosign0 += rn_\n+        \"add.u32 nosign1, nosign1, rn_;              \\n\" // (round to nearest)\n+        \"sub.u32 nosign0, nosign0, 0x3c003c00;       \\n\" // nosign0-=0x3c003c00\n+        \"sub.u32 nosign1, nosign1, 0x3c003c00;       \\n\" // (compensate offset)\n+        \"shr.u32 nosign0, nosign0, 4;                \\n\" // nosign0 >>= 4\n+        \"shr.u32 nosign1, nosign1, 4;                \\n\" // shift into to fp8e4\n+        \"prmt.b32 nosign, nosign0, nosign1, 0x6420;  \\n\" // nosign0 = 0x00f100f2\n+                                                         // nosign1 = 0x00f300f4\n+                                                         // nosign = 0xf3f4f1f2\n+        \"or.b32 $0, nosign, sign;                    \\n\" // restore sign\n+        \"}\";\n+    return convertBf16x4ToFp8x4(loc, rewriter, ptxAsm, v0, v1, v2, v3);\n+  };\n+\n+  static SmallVector<Value>\n+  convertBf16x4ToFp8E5M2x4(Location loc, ConversionPatternRewriter &rewriter,\n+                           const Value &v0, const Value &v1, const Value &v2,\n+                           const Value &v3) {\n+    auto *ptxAsm = // bf16 is clamped firstly to fp8 min/max\n+        \"{                                           \\n\" // bf16=fp8>>3 + 112<<7\n+        \".reg .u32 sign, sign<2>, nosign, nosign<2>; \\n\" // fp8_min = 0b00000000\n+        \".reg .u32 fp8_min, fp8_max, rn_;            \\n\" // fp8_max = 0b11111111\n+        \"mov.u32 fp8_min, 0x38003800;                \\n\" // so bf16_min = 0x3800\n+        \"mov.u32 fp8_max, 0x57e057e0;                \\n\" // so bf16_max = 0x57e0\n+        \"mov.u32 rn_, 0x00100010;                    \\n\" // round to nearest\n+        \"and.b32 sign0, $1, 0x80008000;              \\n\" // sign0=in0&0x80008000\n+        \"and.b32 sign1, $2, 0x80008000;              \\n\" // (store sign)\n+        \"prmt.b32 sign, sign0, sign1, 0x7531;        \\n\"\n+        \"and.b32 nosign0, $1, 0x7fff7fff;            \\n\" // nosign0=in0&0x7fff7fff\n+        \"and.b32 nosign1, $2, 0x7fff7fff;            \\n\" // (strip sign)\n+\n+        // nosign = clamp(nosign, min, max)\n+        \".reg .u32 nosign_0_<2>, nosign_1_<2>;       \\n\"\n+        \"and.b32 nosign_0_0, nosign0, 0xffff0000;    \\n\"\n+        \"max.u32 nosign_0_0, nosign_0_0, 0x38000000; \\n\"\n+        \"min.u32 nosign_0_0, nosign_0_0, 0x57e00000; \\n\"\n+        \"and.b32 nosign_0_1, nosign0, 0x0000ffff;    \\n\"\n+        \"max.u32 nosign_0_1, nosign_0_1, 0x3800;     \\n\"\n+        \"min.u32 nosign_0_1, nosign_0_1, 0x57e0;     \\n\"\n+        \"or.b32 nosign0, nosign_0_0, nosign_0_1;     \\n\"\n+        \"and.b32 nosign_1_0, nosign1, 0xffff0000;    \\n\"\n+        \"max.u32 nosign_1_0, nosign_1_0, 0x38000000; \\n\"\n+        \"min.u32 nosign_1_0, nosign_1_0, 0x57e00000; \\n\"\n+        \"and.b32 nosign_1_1, nosign1, 0x0000ffff;    \\n\"\n+        \"max.u32 nosign_1_1, nosign_1_1, 0x3800;     \\n\"\n+        \"min.u32 nosign_1_1, nosign_1_1, 0x57e0;     \\n\"\n+        \"or.b32 nosign1, nosign_1_0, nosign_1_1;     \\n\"\n+\n+        \"add.u32 nosign0, nosign0, rn_;              \\n\" // nosign0 += rn_\n+        \"add.u32 nosign1, nosign1, rn_;              \\n\" // (round to nearest)\n+        \"sub.u32 nosign0, nosign0, 0x38003800;       \\n\" // nosign0-=0x38003800\n+        \"sub.u32 nosign1, nosign1, 0x38003800;       \\n\" // (compensate offset)\n+        \"shl.b32 nosign0, nosign0, 3;                \\n\" // nosign0 <<= 3\n+        \"shl.b32 nosign1, nosign1, 3;                \\n\" // shift into to fp8e4\n+        \"prmt.b32 nosign, nosign0, nosign1, 0x7531;  \\n\" // nosign0 = 0xf100f200\n+                                                         // nosign1 = 0xf300f400\n+                                                         // nosign = 0xf3f4f1f2\n+        \"or.b32 $0, nosign, sign;                    \\n\" // restore sign\n+        \"}\";\n+    return convertBf16x4ToFp8x4(loc, rewriter, ptxAsm, v0, v1, v2, v3);\n+  }\n+\n+  /* ------------------ */\n+  // FP8 -> FP32\n+  /* ------------------ */\n+\n+  static SmallVector<Value>\n+  convertFp8E4M3x4ToFp32x4(Location loc, ConversionPatternRewriter &rewriter,\n+                           const Value &v0, const Value &v1, const Value &v2,\n+                           const Value &v3) {\n+    auto fp16Values = convertFp8E4M3x4ToFp16x4(loc, rewriter, v0, v1, v2, v3);\n+    return {convertFp16ToFp32(loc, rewriter, fp16Values[0]),\n+            convertFp16ToFp32(loc, rewriter, fp16Values[1]),\n+            convertFp16ToFp32(loc, rewriter, fp16Values[2]),\n+            convertFp16ToFp32(loc, rewriter, fp16Values[3])};\n+  }\n+\n+  static SmallVector<Value>\n+  convertFp8E5M2x4ToFp32x4(Location loc, ConversionPatternRewriter &rewriter,\n+                           const Value &v0, const Value &v1, const Value &v2,\n+                           const Value &v3) {\n+    auto fp16Values = convertFp8E5M2x4ToFp16x4(loc, rewriter, v0, v1, v2, v3);\n+    return {rewriter.create<LLVM::FPExtOp>(loc, f32_ty, fp16Values[0]),\n+            rewriter.create<LLVM::FPExtOp>(loc, f32_ty, fp16Values[1]),\n+            rewriter.create<LLVM::FPExtOp>(loc, f32_ty, fp16Values[2]),\n+            rewriter.create<LLVM::FPExtOp>(loc, f32_ty, fp16Values[3])};\n+  }\n+\n+  //\n+\n+  static SmallVector<Value>\n+  convertFp8E4M3x4ToFp64x4(Location loc, ConversionPatternRewriter &rewriter,\n+                           const Value &v0, const Value &v1, const Value &v2,\n+                           const Value &v3) {\n+    auto fp16Values = convertFp8E4M3x4ToFp16x4(loc, rewriter, v0, v1, v2, v3);\n+    return {rewriter.create<LLVM::FPExtOp>(loc, f64_ty, fp16Values[0]),\n+            rewriter.create<LLVM::FPExtOp>(loc, f64_ty, fp16Values[1]),\n+            rewriter.create<LLVM::FPExtOp>(loc, f64_ty, fp16Values[2]),\n+            rewriter.create<LLVM::FPExtOp>(loc, f64_ty, fp16Values[3])};\n+  }\n+\n+  static SmallVector<Value>\n+  convertFp64x4ToFp8E4M3x4(Location loc, ConversionPatternRewriter &rewriter,\n+                           const Value &v0, const Value &v1, const Value &v2,\n+                           const Value &v3) {\n+    auto c0 = rewriter.create<LLVM::FPTruncOp>(loc, f16_ty, v0);\n+    auto c1 = rewriter.create<LLVM::FPTruncOp>(loc, f16_ty, v1);\n+    auto c2 = rewriter.create<LLVM::FPTruncOp>(loc, f16_ty, v2);\n+    auto c3 = rewriter.create<LLVM::FPTruncOp>(loc, f16_ty, v3);\n+    return convertFp16x4ToFp8E4M3x4(loc, rewriter, c0, c1, c2, c3);\n   }\n \n   static Value convertBf16ToFp32(Location loc,\n@@ -463,51 +620,54 @@ struct FpToFpOpConversion\n   }\n \n   ConvertorT getConversionFunc(Type srcTy, Type dstTy) const {\n-    auto F8E4M3B15TyID = TypeID::get<mlir::Float8E4M3B11FNUZType>();\n-    auto F8E4M3TyID = TypeID::get<mlir::Float8E4M3FNUZType>();\n+    auto F8E4M3TyID = TypeID::get<mlir::Float8E4M3FNType>();\n     auto F8E5M2TyID = TypeID::get<mlir::Float8E5M2Type>();\n     auto F16TyID = TypeID::get<mlir::Float16Type>();\n     auto BF16TyID = TypeID::get<mlir::BFloat16Type>();\n     auto F32TyID = TypeID::get<mlir::Float32Type>();\n     auto F64TyID = TypeID::get<mlir::Float64Type>();\n-    static DenseMap<std::pair<TypeID, TypeID>, std::string> srcMap = {\n+    static DenseMap<std::pair<TypeID, TypeID>, ConvertorT> convertorMap = {\n         // F8 -> F16\n-        {{F8E4M3B15TyID, F16TyID}, Fp8E4M3B15_to_Fp16},\n-        {{F8E4M3TyID, F16TyID}, Fp8E4M3_to_Fp16},\n-        {{F8E5M2TyID, F16TyID}, Fp8E5M2_to_Fp16},\n+        {{F8E4M3TyID, F16TyID}, convertFp8E4M3x4ToFp16x4},\n+        {{F8E5M2TyID, F16TyID}, convertFp8E5M2x4ToFp16x4},\n         // F16 -> F8\n-        {{F16TyID, F8E4M3B15TyID}, Fp16_to_Fp8E4M3B15},\n-        {{F16TyID, F8E4M3TyID}, Fp16_to_Fp8E4M3},\n-        {{F16TyID, F8E5M2TyID}, Fp16_to_Fp8E5M2},\n+        {{F16TyID, F8E4M3TyID}, convertFp16x4ToFp8E4M3x4},\n+        {{F16TyID, F8E5M2TyID}, convertFp16x4ToFp8E5M2x4},\n         // F8 -> BF16\n-        {{F8E4M3TyID, BF16TyID}, Fp8E4M3_to_Bf16},\n-        {{F8E5M2TyID, BF16TyID}, Fp8E5M2_to_Bf16},\n+        {{F8E4M3TyID, BF16TyID}, convertFp8E4M3x4ToBf16x4},\n+        {{F8E5M2TyID, BF16TyID}, convertFp8E5M2x4ToBf16x4},\n         // BF16 -> F8\n-        {{BF16TyID, F8E4M3TyID}, Bf16_to_Fp8E4M3},\n-        {{BF16TyID, F8E5M2TyID}, Bf16_to_Fp8E5M2},\n+        {{BF16TyID, F8E4M3TyID}, convertBf16x4ToFp8E4M3x4},\n+        {{BF16TyID, F8E5M2TyID}, convertBf16x4ToFp8E5M2x4},\n+        // F8 -> F32\n+        {{F8E4M3TyID, F32TyID}, convertFp8E4M3x4ToFp32x4},\n+        {{F8E5M2TyID, F32TyID}, convertFp8E5M2x4ToFp32x4},\n+        // F32 -> F8\n+        {{F32TyID, F8E4M3TyID}, convertFp32x4ToFp8E4M3x4},\n+        {{F32TyID, F8E5M2TyID}, convertFp32x4ToFp8E5M2x4},\n     };\n \n     std::pair<TypeID, TypeID> key = {srcTy.getTypeID(), dstTy.getTypeID()};\n-    if (srcMap.count(key) == 0) {\n+    if (convertorMap.count(key) == 0) {\n       llvm::errs() << \"Unsupported conversion from \" << srcTy << \" to \" << dstTy\n                    << \"\\n\";\n       llvm_unreachable(\"\");\n     }\n-    return makeConverterFromPtx(srcMap.lookup(key),\n-                                getTypeConverter()->convertType(srcTy),\n-                                getTypeConverter()->convertType(dstTy));\n+    return convertorMap.lookup(key);\n   }\n \n   LogicalResult\n   matchAndRewrite(triton::FpToFpOp op, OpAdaptor adaptor,\n                   ConversionPatternRewriter &rewriter) const override {\n+    // llvm::outs() << 0 << \"\\n\";\n     auto srcTensorType = op.getFrom().getType().cast<mlir::RankedTensorType>();\n     auto dstTensorType =\n         op.getResult().getType().cast<mlir::RankedTensorType>();\n-    auto srcElementType = srcTensorType.getElementType();\n-    auto dstElementType = dstTensorType.getElementType();\n     auto loc = op->getLoc();\n     // check that the number of elements is divisible by 4\n+    // Get convertor\n+    auto cvtFunc = getConversionFunc(srcTensorType.getElementType(),\n+                                     dstTensorType.getElementType());\n     // Unpack value\n     auto inVals = getTypeConverter()->unpackLLElements(loc, adaptor.getFrom(),\n                                                        rewriter, srcTensorType);\n@@ -518,19 +678,9 @@ struct FpToFpOpConversion\n     auto elems = inVals.size();\n     assert(elems % 4 == 0 &&\n            \"FP8 casting only support tensors with 4-aligned sizes\");\n-    bool isFP32src = srcElementType.isF32();\n-    bool isFP32dst = dstElementType.isF32();\n-    auto cvtFunc = getConversionFunc(isFP32src ? f16_ty : srcElementType,\n-                                     isFP32dst ? f16_ty : dstElementType);\n-    if (isFP32src)\n-      for (Value &v : inVals)\n-        v = convertFp32ToFp16(loc, rewriter, v);\n     for (size_t i = 0; i < elems; i += 4)\n       outVals.append(cvtFunc(loc, rewriter, inVals[i], inVals[i + 1],\n                              inVals[i + 2], inVals[i + 3]));\n-    if (isFP32dst)\n-      for (Value &v : outVals)\n-        v = convertFp16ToFp32(loc, rewriter, v);\n     // Pack values\n     assert(outVals.size() == elems);\n     outVals = reorderValues(outVals, srcTensorType, dstTensorType);"}, {"filename": "lib/Conversion/TritonGPUToLLVM/ElementwiseOpToLLVM/Fp8E4M3B15.cpp", "status": "removed", "additions": 0, "deletions": 0, "changes": 0, "file_content_changes": "N/A"}, {"filename": "lib/Conversion/TritonGPUToLLVM/ElementwiseOpToLLVM/Fp8E5M2.cpp", "status": "removed", "additions": 0, "deletions": 0, "changes": 0, "file_content_changes": "N/A"}, {"filename": "lib/Conversion/TritonGPUToLLVM/LoadStoreOpToLLVM.cpp", "status": "modified", "additions": 1, "deletions": 0, "changes": 1, "file_content_changes": "@@ -357,6 +357,7 @@ struct StoreOpConversion\n               .o(\"wb\", op.getCache() == triton::CacheModifier::WB)\n               .o(\"cg\", op.getCache() == triton::CacheModifier::CG)\n               .o(\"cs\", op.getCache() == triton::CacheModifier::CS)\n+              .o(\"wt\", op.getCache() == triton::CacheModifier::WT)\n               .o(\"L1::evict_first\",\n                  op.getEvict() == triton::EvictionPolicy::EVICT_FIRST)\n               .o(\"L1::evict_last\","}, {"filename": "lib/Conversion/TritonGPUToLLVM/ReduceOpToLLVM.cpp", "status": "modified", "additions": 20, "deletions": 14, "changes": 34, "file_content_changes": "@@ -89,13 +89,14 @@ struct ReduceOpConversion\n   void getWriteIndexBasic(ConversionPatternRewriter &rewriter, Location loc,\n                           Attribute layout, SmallVector<Value> &index,\n                           SmallVector<Value> &writeIdx,\n-                          std::map<int, Value> &ints, unsigned axis) const {\n+                          std::map<int, Value> &ints, unsigned originalAxis,\n+                          unsigned axis) const {\n     if (auto sliceLayout = layout.dyn_cast<SliceEncodingAttr>()) {\n-      auto dim = sliceLayout.getDim();\n-      assert(dim != axis && \"Reduction axis cannot be sliced\");\n+      // Recover the axis in the parent layout\n+      auto parentAxis = axis < sliceLayout.getDim() ? axis : axis + 1;\n       auto parentLayout = sliceLayout.getParent();\n       getWriteIndexBasic(rewriter, loc, parentLayout, index, writeIdx, ints,\n-                         axis);\n+                         originalAxis, parentAxis);\n       return;\n     }\n \n@@ -110,21 +111,21 @@ struct ReduceOpConversion\n       // we would have a single accumulation every `axisSizePerThread`\n       // contiguous values in the original tensor, so we would need\n       // to map every `axisSizePerThread` to 1 value in smem as:\n-      // writeIdx[axis] = index[axis] / axisSizePerThread\n-      writeIdx[axis] = udiv(index[axis], axisSizePerThread);\n+      // writeIdx[originalAxis] = index[originalAxis] / axisSizePerThread\n+      writeIdx[originalAxis] = udiv(index[originalAxis], axisSizePerThread);\n     } else if (auto mmaLayout = layout.dyn_cast<MmaEncodingAttr>()) {\n       if (!mmaLayout.isAmpere()) {\n         llvm::report_fatal_error(\"Unsupported layout\");\n       }\n-      if (axis == 0) {\n+      if (originalAxis == 0) {\n         // Because warpTileSize = [16, 8] and threadsPerWarp = [8, 4], each 8\n         // rows in smem would correspond to a warp. The mapping\n         // is: (warp_index) x 8 + (row index within warp)\n-        writeIdx[axis] =\n-            add(mul(udiv(index[axis], _16), _8), urem(index[axis], _8));\n+        writeIdx[originalAxis] = add(mul(udiv(index[originalAxis], _16), _8),\n+                                     urem(index[originalAxis], _8));\n       } else {\n         // Same as BlockedEncodingAttr case\n-        writeIdx[axis] = udiv(index[axis], axisSizePerThread);\n+        writeIdx[originalAxis] = udiv(index[originalAxis], axisSizePerThread);\n       }\n     } else {\n       llvm::report_fatal_error(\"Unsupported layout\");\n@@ -214,7 +215,7 @@ struct ReduceOpConversion\n       // get the writeIdx at which to write in smem\n       SmallVector<Value> writeIdx;\n       getWriteIndexBasic(rewriter, loc, srcLayout, indices[key], writeIdx, ints,\n-                         axis);\n+                         axis, axis);\n \n       // calculate the offset in smem for that writeIdx\n       Value writeOffset = linearize(rewriter, loc, writeIdx, smemShape, srcOrd);\n@@ -370,8 +371,10 @@ struct ReduceOpConversion\n     Value warpId = udiv(threadId, warpSize);\n     Value laneId = urem(threadId, warpSize);\n \n-    auto threadsPerWarp = triton::gpu::getThreadsPerWarp(srcLayout);\n-    auto warpsPerCTA = triton::gpu::getWarpsPerCTA(srcLayout);\n+    auto threadsPerWarp =\n+        triton::gpu::getThreadsPerWarpWithUniqueData(srcLayout, srcShape);\n+    auto warpsPerCTA =\n+        triton::gpu::getWarpsPerCTAWithUniqueData(srcLayout, srcShape);\n     auto order = getOrder(srcLayout);\n     SmallVector<Value> multiDimLaneId =\n         delinearize(rewriter, loc, laneId, threadsPerWarp, order);\n@@ -415,8 +418,11 @@ struct ReduceOpConversion\n     //\n     // Each thread needs to process:\n     //   elemsPerThread = sizeInterWarps * s1 * s2 .. Sn / numThreads\n+\n+    auto mod = op.getOperation()->getParentOfType<ModuleOp>();\n     unsigned numThreads =\n-        product<unsigned>(triton::gpu::getWarpsPerCTA(srcLayout)) * 32;\n+        product<unsigned>(triton::gpu::getWarpsPerCTA(srcLayout)) *\n+        triton::gpu::TritonGPUDialect::getThreadsPerWarp(mod);\n     unsigned elemsPerThread = std::max<unsigned>(elems / numThreads, 1);\n     Value readOffset = threadId;\n     for (unsigned round = 0; round < elemsPerThread; ++round) {"}, {"filename": "lib/Conversion/TritonGPUToLLVM/ScanOpToLLVM.cpp", "status": "added", "additions": 324, "deletions": 0, "changes": 324, "file_content_changes": "@@ -0,0 +1,324 @@\n+#include \"ScanOpToLLVM.h\"\n+#include \"TritonGPUToLLVMBase.h\"\n+#include \"triton/Analysis/Utility.h\"\n+\n+using namespace mlir;\n+using namespace mlir::triton;\n+\n+using ::mlir::LLVM::delinearize;\n+using ::mlir::LLVM::linearize;\n+using ::mlir::LLVM::shflUpSync;\n+using ::mlir::LLVM::storeShared;\n+\n+// Apply the region of the scan op to the acc and cur values and update acc\n+// inplace with the result.\n+static void accumulate(ConversionPatternRewriter &rewriter, Region &combineOp,\n+                       Value &acc, Value cur) {\n+  if (!acc) {\n+    acc = cur;\n+    return;\n+  }\n+  // Create a new copy of the reduce block, and inline it\n+  Block *currentBlock = rewriter.getBlock();\n+  Region &parent = *currentBlock->getParent();\n+  rewriter.cloneRegionBefore(combineOp, &parent.front());\n+  auto &newScan = parent.front();\n+  auto returnOp = dyn_cast<triton::ScanReturnOp>(newScan.getTerminator());\n+  llvm::SmallVector<Value> combineArgs = {acc, cur};\n+  rewriter.inlineBlockBefore(&newScan, &*rewriter.getInsertionPoint(),\n+                             combineArgs);\n+  auto results = returnOp.getResult();\n+  acc = results[0];\n+  // Delete the terminator, which is no longer used\n+  rewriter.eraseOp(returnOp);\n+}\n+\n+// Scan a contiguous elements within a thread and update `srcValues` in place.\n+static void scanThreadContiguousElements(SmallVector<Value> &srcValues,\n+                                         ConversionPatternRewriter &rewriter,\n+                                         ScanLoweringHelper &helper) {\n+  // Depending on layout contiguous elements along axis dim may not be\n+  // contiguous in srcValues. Keep track of what elements belong to the same\n+  // chunk of contiguous elements.\n+  unsigned scanElementsPerThreads = helper.getAxisNumElementsPerThread();\n+  unsigned parallelElementsPerThread = helper.getAxisNumElementsPerThread();\n+  unsigned numChunks = srcValues.size() / scanElementsPerThreads;\n+  unsigned stride = helper.getAxisElementStride();\n+  SmallVector<Value> accs(numChunks);\n+  for (unsigned srcIndex = 0; srcIndex < srcValues.size(); srcIndex++) {\n+    unsigned accIndex = (srcIndex % stride) +\n+                        ((srcIndex / stride) / scanElementsPerThreads) * stride;\n+\n+    accumulate(rewriter, helper.getCombineOp(), accs[accIndex],\n+               srcValues[srcIndex]);\n+    srcValues[srcIndex] = accs[accIndex];\n+  }\n+}\n+\n+// Apply a scan across threads of the warp for the last element of each\n+// contiguous group of elements.\n+static void warpScan(SmallVector<Value> &srcValues,\n+                     ConversionPatternRewriter &rewriter,\n+                     ScanLoweringHelper &helper, Value laneId) {\n+  Location loc = helper.getLoc();\n+  unsigned scanElementsPerThreads = helper.getAxisNumElementsPerThread();\n+  unsigned elementStride = helper.getAxisElementStride();\n+  unsigned threadStride = helper.getAxisThreadStride();\n+  unsigned scanDim = helper.getAxisNumThreadsPerWarp();\n+  for (unsigned srcIndex = 0; srcIndex < srcValues.size(); srcIndex++) {\n+    unsigned elementIdx = (srcIndex / elementStride) % scanElementsPerThreads;\n+    // Only consider the last element of each contiguous chunk of elements.\n+    if (elementIdx != scanElementsPerThreads - 1)\n+      continue;\n+    // Reduce within warps.\n+    Value acc = srcValues[srcIndex];\n+    for (unsigned i = 1; i <= (scanDim) / 2; i = i << 1) {\n+      Value shfl = shflUpSync(loc, rewriter, acc, i * threadStride);\n+      Value tempAcc = acc;\n+      accumulate(rewriter, helper.getCombineOp(), tempAcc, shfl);\n+      Value mask = icmp_slt(laneId, i32_val(i));\n+      acc = select(mask, acc, tempAcc);\n+    }\n+    srcValues[srcIndex] = acc;\n+  }\n+}\n+\n+// For each set of contiguous elements within a thread we store the partial\n+// reduction into shared memory. Each parallel scan and each warp will store its\n+// own partial reductions. The shared memory is organized as follow:\n+//          -----------------------------------------------------------------\n+// chunk 0: | acc[0] warp 0 | acc[1] warp 0 | acc[0] warp 1 | acc[1] warp 1 |\n+// chunk 1: | acc[0] warp 0 | acc[1] warp 0 | acc[0] warp 1 | acc[1] warp 1 |\n+static void storeWarpAccumulator(SmallVector<Value> &srcValues,\n+                                 ConversionPatternRewriter &rewriter,\n+                                 ScanLoweringHelper &helper, Value laneId,\n+                                 Value warpId, Value baseSharedMemPtr,\n+                                 Value parallelLaneId) {\n+  Location loc = helper.getLoc();\n+  unsigned scanElementsPerThreads = helper.getAxisNumElementsPerThread();\n+  unsigned scanDim = helper.getAxisNumThreadsPerWarp();\n+  unsigned numParallelLane = helper.getNonAxisNumThreadsPerCTA();\n+  unsigned numWarps = helper.getAxisNumWarps();\n+  unsigned chunkId = 0;\n+  unsigned elementStride = helper.getAxisElementStride();\n+  for (unsigned srcIndex = 0; srcIndex < srcValues.size(); srcIndex++) {\n+    unsigned elementIdx = (srcIndex / elementStride) % scanElementsPerThreads;\n+    // Only consider the last element of each contiguous chunk of elements.\n+    if (elementIdx != scanElementsPerThreads - 1)\n+      continue;\n+    Value lastElement = srcValues[srcIndex];\n+    Value mask = icmp_eq(laneId, i32_val(scanDim - 1));\n+    Value index = add(parallelLaneId, mul(warpId, i32_val(numParallelLane)));\n+    index = add(index, i32_val(chunkId * numParallelLane * numWarps));\n+    Value writePtr = gep(baseSharedMemPtr.getType(), baseSharedMemPtr, index);\n+    storeShared(rewriter, loc, writePtr, lastElement, mask);\n+    chunkId++;\n+  }\n+}\n+\n+// Read the partial reductions from shared memory from each chunk of contiguous\n+// elements for each warp and parallel scan. Then combine the partial reduction\n+// with the right elements. Within a given contiguous element chunk we update\n+// all the elements by accumulating the value from the last element of the\n+// reduced value from the previous lane.\n+static void AddPartialReduce(SmallVector<Value> &srcValues,\n+                             ConversionPatternRewriter &rewriter,\n+                             ScanLoweringHelper &helper, Value sharedMemoryPtr,\n+                             Value warpId, Value laneId, Value parallelLaneId) {\n+  Location loc = helper.getLoc();\n+  unsigned numParallelLane = helper.getNonAxisNumThreadsPerCTA();\n+  unsigned numWarps = helper.getAxisNumWarps();\n+  unsigned scanElementsPerThreads = helper.getAxisNumElementsPerThread();\n+  unsigned parallelElementsPerThread = helper.getNonAxisNumElementsPerThread();\n+  unsigned elementStride = helper.getAxisElementStride();\n+  unsigned threadStride = helper.getAxisThreadStride();\n+  Value maskFirstWarp = icmp_eq(warpId, i32_val(0));\n+  Value maskFirstLane = icmp_eq(laneId, i32_val(0));\n+  Value maskFirstThread = and_(maskFirstWarp, maskFirstLane);\n+  struct Accumulator {\n+    Value acc;\n+    Value maskedAcc;\n+  };\n+  unsigned numScanBlocks = helper.getAxisNumBlocks();\n+  unsigned numParallelBlocks = helper.getNonAxisNumBlocks();\n+  assert(numScanBlocks * numParallelBlocks * parallelElementsPerThread *\n+             scanElementsPerThreads ==\n+         srcValues.size());\n+  SmallVector<Accumulator> accumulators(numParallelBlocks *\n+                                        parallelElementsPerThread);\n+  unsigned chunkId = 0;\n+  unsigned blockStride = helper.getAxisBlockStride();\n+  for (unsigned srcIndex = 0; srcIndex < srcValues.size(); srcIndex++) {\n+    unsigned elementIdx = (srcIndex / elementStride) % scanElementsPerThreads;\n+    // Only consider the last element of each contiguous chunk of elements.\n+    if (elementIdx != scanElementsPerThreads - 1)\n+      continue;\n+    // Accumulate the partial reduction from shared memory. Decide which\n+    // accumulator to combine based on whether the elements belong to the same\n+    // dimension along axis.\n+    unsigned blockId = chunkId / parallelElementsPerThread;\n+    unsigned parallelBlockId =\n+        blockId % blockStride +\n+        ((blockId / blockStride) / numScanBlocks) * blockStride;\n+    unsigned accumulatorIndex = chunkId % parallelElementsPerThread +\n+                                parallelBlockId * parallelElementsPerThread;\n+    Accumulator &accumulator = accumulators[accumulatorIndex];\n+    for (unsigned i = 0; i < numWarps; ++i) {\n+      Value index = add(parallelLaneId,\n+                        i32_val(numParallelLane * (i + chunkId * numWarps)));\n+      Value ptr = gep(sharedMemoryPtr.getType(), sharedMemoryPtr, index);\n+      Value partialReduce = load(ptr);\n+      if (!accumulator.acc) {\n+        accumulator.acc = partialReduce;\n+        accumulator.maskedAcc = partialReduce;\n+        continue;\n+      }\n+      accumulate(rewriter, helper.getCombineOp(), accumulator.acc,\n+                 partialReduce);\n+      Value mask = icmp_slt(warpId, i32_val(i + 1));\n+      accumulator.maskedAcc =\n+          select(mask, accumulator.maskedAcc, accumulator.acc);\n+    }\n+    Value temp = srcValues[srcIndex];\n+    accumulate(rewriter, helper.getCombineOp(), temp, accumulator.maskedAcc);\n+    unsigned axisBlockId = (blockId / blockStride) % numScanBlocks;\n+    if (axisBlockId == 0) {\n+      // For the first warp and first chunk we don't have anything to\n+      // accumulate.\n+      temp = select(maskFirstWarp, srcValues[srcIndex], temp);\n+    }\n+    srcValues[srcIndex] = temp;\n+    // Update the rest of the contiguous elements.\n+    Value lastElement =\n+        shflUpSync(loc, rewriter, srcValues[srcIndex], threadStride);\n+    lastElement = select(maskFirstLane, accumulator.maskedAcc, lastElement);\n+    for (unsigned i = 1; i < scanElementsPerThreads; ++i) {\n+      Value laneValue = srcValues[srcIndex - i * elementStride];\n+      accumulate(rewriter, helper.getCombineOp(), laneValue, lastElement);\n+      if (axisBlockId == 0) {\n+        // For the first warp and first chunk we don't have anything to\n+        // accumulate.\n+        laneValue = select(maskFirstThread,\n+                           srcValues[srcIndex - i * elementStride], laneValue);\n+      }\n+      srcValues[srcIndex - i * elementStride] = laneValue;\n+    }\n+    // For the next chunk start back from the value containing the\n+    // accumulated value of all the warps.\n+    accumulator.maskedAcc = accumulator.acc;\n+    chunkId++;\n+  }\n+}\n+\n+namespace {\n+struct ScanOpConversion\n+    : public ConvertTritonGPUOpToLLVMPattern<triton::ScanOp> {\n+public:\n+  using ConvertTritonGPUOpToLLVMPattern<\n+      triton::ScanOp>::ConvertTritonGPUOpToLLVMPattern;\n+\n+  LogicalResult\n+  matchAndRewrite(triton::ScanOp op, OpAdaptor adaptor,\n+                  ConversionPatternRewriter &rewriter) const override {\n+    if (succeeded(emitFastScan(op, adaptor, rewriter)))\n+      return success();\n+    return failure();\n+  }\n+\n+private:\n+  std::tuple<Value, Value, Value>\n+  getDelinearizedIds(ConversionPatternRewriter &rewriter,\n+                     ScanLoweringHelper &helper) const;\n+  LogicalResult emitFastScan(triton::ScanOp op, triton::ScanOpAdaptor adaptor,\n+                             ConversionPatternRewriter &rewriter) const;\n+};\n+\n+// Break up the threadId into lane and warp id along the scan dimension and\n+// compute a flat id for the parallel dimensions.\n+std::tuple<Value, Value, Value>\n+ScanOpConversion::getDelinearizedIds(ConversionPatternRewriter &rewriter,\n+                                     ScanLoweringHelper &helper) const {\n+  auto loc = helper.getLoc();\n+  unsigned axis = helper.getAxis();\n+  auto srcEncoding = helper.getEncoding();\n+\n+  Value threadId = getThreadId(rewriter, loc);\n+  Value warpSize = i32_val(32);\n+  Value warpId = udiv(threadId, warpSize);\n+  Value laneId = urem(threadId, warpSize);\n+\n+  auto threadsPerWarp = triton::gpu::getThreadsPerWarp(srcEncoding);\n+  auto warpsPerCTA = triton::gpu::getWarpsPerCTA(srcEncoding);\n+  auto order = triton::gpu::getOrder(srcEncoding);\n+  SmallVector<Value> multiDimLaneId =\n+      delinearize(rewriter, loc, laneId, threadsPerWarp, order);\n+  SmallVector<Value> multiDimWarpId =\n+      delinearize(rewriter, loc, warpId, warpsPerCTA, order);\n+\n+  Value laneIdAxis = multiDimLaneId[axis];\n+  Value warpIdAxis = multiDimWarpId[axis];\n+\n+  multiDimLaneId[axis] = i32_val(0);\n+  threadsPerWarp[axis] = 1;\n+  Value laneIdParallel =\n+      linearize(rewriter, loc, multiDimLaneId, threadsPerWarp, order);\n+  multiDimWarpId[axis] = i32_val(0);\n+  warpsPerCTA[axis] = 1;\n+  Value warpIdParallel =\n+      linearize(rewriter, loc, multiDimWarpId, warpsPerCTA, order);\n+  Value flatIdParallel =\n+      add(laneIdParallel,\n+          mul(warpIdParallel, i32_val(helper.getNonAxisNumThreadsPerWarp())));\n+  return std::make_tuple(laneIdAxis, warpIdAxis, flatIdParallel);\n+}\n+\n+// Lowering using warp shuffle operations to do warp level scan.\n+LogicalResult\n+ScanOpConversion::emitFastScan(triton::ScanOp op, triton::ScanOpAdaptor adaptor,\n+                               ConversionPatternRewriter &rewriter) const {\n+  ScanLoweringHelper helper(op);\n+  auto loc = helper.getLoc();\n+  if (!helper.isSupported())\n+    return failure();\n+\n+  auto [laneIdAxis, warpIdAxis, flatIdParallel] =\n+      getDelinearizedIds(rewriter, helper);\n+  auto input = adaptor.getOperands()[0];\n+  auto type = op.getOperand(0).getType().cast<RankedTensorType>();\n+  SmallVector<Value> srcValues =\n+      getTypeConverter()->unpackLLElements(loc, input, rewriter, type);\n+\n+  // Scan contigous elements in a thread and update `srcValues`.\n+  scanThreadContiguousElements(srcValues, rewriter, helper);\n+  // Apply warp level scan to the last element of each chunk of contiguous\n+  // elements.\n+  warpScan(srcValues, rewriter, helper, laneIdAxis);\n+\n+  // Store the partial reducing for each warp into shared memory.\n+  Type elemPtrTys = LLVM::LLVMPointerType::get(srcValues[0].getType(), 3);\n+  Value baseSharedMemPtr = bitcast(\n+      getSharedMemoryBase(loc, rewriter, op.getOperation()), elemPtrTys);\n+  storeWarpAccumulator(srcValues, rewriter, helper, laneIdAxis, warpIdAxis,\n+                       baseSharedMemPtr, flatIdParallel);\n+  barrier();\n+  // Read back the partial reduction of each warp and accumulate them based on\n+  // warpId. Then update each chunk of contiguous elements by adding the\n+  // accumulated value from the previous lane.\n+  AddPartialReduce(srcValues, rewriter, helper, baseSharedMemPtr, warpIdAxis,\n+                   laneIdAxis, flatIdParallel);\n+\n+  Value results = getTypeConverter()->packLLElements(loc, srcValues, rewriter,\n+                                                     input.getType());\n+  rewriter.replaceOp(op, results);\n+  return success();\n+}\n+} // namespace\n+\n+void populateScanOpToLLVMPatterns(\n+    TritonGPUToLLVMTypeConverter &typeConverter, RewritePatternSet &patterns,\n+    ModuleAllocation &allocation,\n+    ConvertTritonGPUOpToLLVMPatternBase::IndexCacheInfo &indexCacheInfo,\n+    PatternBenefit benefit) {\n+  patterns.add<ScanOpConversion>(typeConverter, allocation, indexCacheInfo,\n+                                 benefit);\n+}"}, {"filename": "lib/Conversion/TritonGPUToLLVM/ScanOpToLLVM.h", "status": "added", "additions": 15, "deletions": 0, "changes": 15, "file_content_changes": "@@ -0,0 +1,15 @@\n+#ifndef TRITON_CONVERSION_TRITONGPU_TO_LLVM_SCAN_OP_H\n+#define TRITON_CONVERSION_TRITONGPU_TO_LLVM_SCAN_OP_H\n+\n+#include \"TritonGPUToLLVMBase.h\"\n+\n+using namespace mlir;\n+using namespace mlir::triton;\n+\n+void populateScanOpToLLVMPatterns(\n+    TritonGPUToLLVMTypeConverter &typeConverter, RewritePatternSet &patterns,\n+    ModuleAllocation &allocation,\n+    ConvertTritonGPUOpToLLVMPatternBase::IndexCacheInfo &indexCacheInfo,\n+    PatternBenefit benefit);\n+\n+#endif"}, {"filename": "lib/Conversion/TritonGPUToLLVM/TritonGPUToLLVM.cpp", "status": "modified", "additions": 8, "deletions": 2, "changes": 10, "file_content_changes": "@@ -129,9 +129,15 @@ struct PrintOpConversion\n     } else if (type.isBF16() || type.isF16() || type.isF32() || type.isF64()) {\n       return \"%f\";\n     } else if (type.isSignedInteger()) {\n-      return \"%i\";\n+      if (type.getIntOrFloatBitWidth() == 64)\n+        return \"%lli\";\n+      else\n+        return \"%i\";\n     } else if (type.isUnsignedInteger() || type.isSignlessInteger()) {\n-      return \"%u\";\n+      if (type.getIntOrFloatBitWidth() == 64)\n+        return \"%llu\";\n+      else\n+        return \"%u\";\n     }\n     assert(false && \"not supported type\");\n     return \"\";"}, {"filename": "lib/Conversion/TritonGPUToLLVM/TritonGPUToLLVMPass.cpp", "status": "modified", "additions": 3, "deletions": 0, "changes": 3, "file_content_changes": "@@ -26,6 +26,7 @@\n #include \"ElementwiseOpToLLVM.h\"\n #include \"LoadStoreOpToLLVM.h\"\n #include \"ReduceOpToLLVM.h\"\n+#include \"ScanOpToLLVM.h\"\n #include \"TritonGPUToLLVM.h\"\n #include \"TypeConverter.h\"\n #include \"ViewOpToLLVM.h\"\n@@ -372,6 +373,8 @@ class ConvertTritonGPUToLLVM\n                                       /*benefit=*/1);\n     populateReduceOpToLLVMPatterns(typeConverter, patterns, allocation,\n                                    indexCacheInfo, /*benefit=*/1);\n+    populateScanOpToLLVMPatterns(typeConverter, patterns, allocation,\n+                                 indexCacheInfo, /*benefit=*/1);\n     populateViewOpToLLVMPatterns(typeConverter, patterns, /*benefit=*/1);\n \n     // Native lowering patterns"}, {"filename": "lib/Conversion/TritonGPUToLLVM/TypeConverter.cpp", "status": "modified", "additions": 1, "deletions": 4, "changes": 5, "file_content_changes": "@@ -24,10 +24,7 @@ TritonGPUToLLVMTypeConverter::TritonGPUToLLVMTypeConverter(\n     return convertTritonTensorType(type);\n   });\n   // Internally store float8 as int8\n-  addConversion([&](mlir::Float8E4M3B11FNUZType type) -> std::optional<Type> {\n-    return IntegerType::get(type.getContext(), 8);\n-  });\n-  addConversion([&](mlir::Float8E4M3FNUZType type) -> std::optional<Type> {\n+  addConversion([&](mlir::Float8E4M3FNType type) -> std::optional<Type> {\n     return IntegerType::get(type.getContext(), 8);\n   });\n   addConversion([&](mlir::Float8E5M2Type type) -> std::optional<Type> {"}, {"filename": "lib/Conversion/TritonGPUToLLVM/Utility.cpp", "status": "modified", "additions": 45, "deletions": 17, "changes": 62, "file_content_changes": "@@ -79,30 +79,47 @@ SmallVector<Value> delinearize(ConversionPatternRewriter &rewriter,\n   unsigned rank = shape.size();\n   assert(rank == order.size());\n   auto reordered = reorder(shape, order);\n-  auto reorderedMultiDim = delinearize(rewriter, loc, linear, reordered);\n+  SmallVector<Value> reorderedMultiDim(rank);\n+  if (auto constantOp = linear.getDefiningOp<arith::ConstantOp>()) {\n+    unsigned intVal =\n+        constantOp.getValue().cast<IntegerAttr>().getValue().getSExtValue();\n+    reorderedMultiDim = delinearize(rewriter, loc, intVal, reordered);\n+  } else {\n+    reorderedMultiDim = delinearize(rewriter, loc, linear, reordered);\n+  }\n   SmallVector<Value> multiDim(rank);\n   for (unsigned i = 0; i < rank; ++i) {\n     multiDim[order[i]] = reorderedMultiDim[i];\n   }\n   return multiDim;\n }\n \n+SmallVector<Value> delinearize(ConversionPatternRewriter &rewriter,\n+                               Location loc, unsigned linear,\n+                               ArrayRef<unsigned> shape) {\n+  unsigned rank = shape.size();\n+  assert(rank > 0);\n+  SmallVector<Value> multiDim(rank);\n+  unsigned remained = linear;\n+  for (auto &&en : llvm::enumerate(shape)) {\n+    unsigned dimSize = en.value();\n+    multiDim[en.index()] = i32_val(remained % dimSize);\n+    remained = remained / dimSize;\n+  }\n+  return multiDim;\n+}\n+\n SmallVector<Value> delinearize(ConversionPatternRewriter &rewriter,\n                                Location loc, Value linear,\n                                ArrayRef<unsigned> shape) {\n   unsigned rank = shape.size();\n   assert(rank > 0);\n   SmallVector<Value> multiDim(rank);\n-  if (rank == 1) {\n-    multiDim[0] = linear;\n-  } else {\n-    Value remained = linear;\n-    for (auto &&en : llvm::enumerate(shape.drop_back())) {\n-      Value dimSize = i32_val(en.value());\n-      multiDim[en.index()] = urem(remained, dimSize);\n-      remained = udiv(remained, dimSize);\n-    }\n-    multiDim[rank - 1] = remained;\n+  Value remained = linear;\n+  for (auto &&en : llvm::enumerate(shape)) {\n+    Value dimSize = i32_val(en.value());\n+    multiDim[en.index()] = urem(remained, dimSize);\n+    remained = udiv(remained, dimSize);\n   }\n   return multiDim;\n }\n@@ -143,34 +160,45 @@ Value storeShared(ConversionPatternRewriter &rewriter, Location loc, Value ptr,\n   return builder.launch(rewriter, loc, void_ty(ctx));\n }\n \n-Value shflSync(Location loc, ConversionPatternRewriter &rewriter, Value val,\n-               int i) {\n+static Value commonShflSync(Location loc, ConversionPatternRewriter &rewriter,\n+                            Value val, int i, const std::string &shuffleType,\n+                            const std::string &clamp) {\n   unsigned bits = val.getType().getIntOrFloatBitWidth();\n \n   if (bits == 64) {\n     Type vecTy = vec_ty(f32_ty, 2);\n     Value vec = bitcast(val, vecTy);\n     Value val0 = extract_element(f32_ty, vec, i32_val(0));\n     Value val1 = extract_element(f32_ty, vec, i32_val(1));\n-    val0 = shflSync(loc, rewriter, val0, i);\n-    val1 = shflSync(loc, rewriter, val1, i);\n+    val0 = commonShflSync(loc, rewriter, val0, i, shuffleType, clamp);\n+    val1 = commonShflSync(loc, rewriter, val1, i, shuffleType, clamp);\n     vec = undef(vecTy);\n     vec = insert_element(vecTy, vec, val0, i32_val(0));\n     vec = insert_element(vecTy, vec, val1, i32_val(1));\n     return bitcast(vec, val.getType());\n   }\n \n   PTXBuilder builder;\n-  auto &shfl = builder.create(\"shfl.sync\")->o(\"bfly\").o(\"b32\");\n+  auto &shfl = builder.create(\"shfl.sync\")->o(shuffleType).o(\"b32\");\n   auto *dOpr = builder.newOperand(\"=r\");\n   auto *aOpr = builder.newOperand(val, \"r\");\n   auto *bOpr = builder.newConstantOperand(i);\n-  auto *cOpr = builder.newConstantOperand(\"0x1f\");\n+  auto *cOpr = builder.newConstantOperand(clamp);\n   auto *maskOpr = builder.newConstantOperand(\"0xffffffff\");\n   shfl(dOpr, aOpr, bOpr, cOpr, maskOpr);\n   return builder.launch(rewriter, loc, val.getType(), false);\n }\n \n+Value shflSync(Location loc, ConversionPatternRewriter &rewriter, Value val,\n+               int i) {\n+  return commonShflSync(loc, rewriter, val, i, \"bfly\", \"0x1f\");\n+}\n+\n+Value shflUpSync(Location loc, ConversionPatternRewriter &rewriter, Value val,\n+                 int i) {\n+  return commonShflSync(loc, rewriter, val, i, \"up\", \"0x0\");\n+}\n+\n Value addStringToModule(Location loc, ConversionPatternRewriter &rewriter,\n                         StringRef key, StringRef content) {\n   auto moduleOp = rewriter.getBlock()->getParent()->getParentOfType<ModuleOp>();"}, {"filename": "lib/Conversion/TritonGPUToLLVM/Utility.h", "status": "modified", "additions": 6, "deletions": 0, "changes": 6, "file_content_changes": "@@ -265,6 +265,10 @@ SmallVector<Value> delinearize(ConversionPatternRewriter &rewriter,\n                                ArrayRef<unsigned> shape,\n                                ArrayRef<unsigned> order);\n \n+SmallVector<Value> delinearize(ConversionPatternRewriter &rewriter,\n+                               Location loc, unsigned linear,\n+                               ArrayRef<unsigned> shape);\n+\n SmallVector<Value> delinearize(ConversionPatternRewriter &rewriter,\n                                Location loc, Value linear,\n                                ArrayRef<unsigned> shape);\n@@ -281,6 +285,8 @@ Value storeShared(ConversionPatternRewriter &rewriter, Location loc, Value ptr,\n \n Value shflSync(Location loc, ConversionPatternRewriter &rewriter, Value val,\n                int i);\n+Value shflUpSync(Location loc, ConversionPatternRewriter &rewriter, Value val,\n+                 int i);\n \n Value addStringToModule(Location loc, ConversionPatternRewriter &rewriter,\n                         StringRef key, StringRef content);"}, {"filename": "lib/Conversion/TritonGPUToLLVM/ViewOpToLLVM.cpp", "status": "modified", "additions": 20, "deletions": 1, "changes": 21, "file_content_changes": "@@ -22,7 +22,26 @@ struct SplatOpConversion\n                                   ConversionPatternRewriter &rewriter,\n                                   Location loc) {\n     auto tensorTy = resType.cast<RankedTensorType>();\n-    auto srcType = typeConverter->convertType(elemType);\n+    // Check the converted type for the tensor as depending on the encoding the\n+    // converter may pick different element types.\n+    auto srcType = typeConverter->convertType(tensorTy);\n+    if (auto structTy = dyn_cast<LLVM::LLVMStructType>(srcType))\n+      srcType = structTy.getBody()[0];\n+    // If the type sizes don't match we need to pack constants.\n+    if (srcType.isIntOrFloat() && constVal.getType().getIntOrFloatBitWidth() !=\n+                                      srcType.getIntOrFloatBitWidth()) {\n+      unsigned cstBitWidth = constVal.getType().getIntOrFloatBitWidth();\n+      unsigned srcBitWidth = srcType.getIntOrFloatBitWidth();\n+      assert(cstBitWidth <= srcBitWidth && srcBitWidth % cstBitWidth == 0);\n+      unsigned ratio = srcBitWidth / cstBitWidth;\n+      Type intTy = IntegerType::get(elemType.getContext(), cstBitWidth);\n+      VectorType vecType = VectorType::get(ratio, intTy);\n+      Value intCst = bitcast(constVal, intTy);\n+      Value vec = undef(vecType);\n+      for (unsigned i = 0; i < ratio; ++i)\n+        vec = insert_element(vecType, vec, intCst, int_val(32, i));\n+      constVal = vec;\n+    }\n     auto llSrc = bitcast(constVal, srcType);\n     size_t elemsPerThread = getTotalElemsPerThread(tensorTy);\n     llvm::SmallVector<Value> elems(elemsPerThread, llSrc);"}, {"filename": "lib/Conversion/TritonToTritonGPU/TritonToTritonGPUPass.cpp", "status": "modified", "additions": 36, "deletions": 3, "changes": 39, "file_content_changes": "@@ -537,6 +537,38 @@ struct TritonReduceReturnPattern\n   }\n };\n \n+struct TritonScanPattern : public OpConversionPattern<triton::ScanOp> {\n+  using OpConversionPattern<triton::ScanOp>::OpConversionPattern;\n+\n+  LogicalResult\n+  matchAndRewrite(triton::ScanOp op, OpAdaptor adaptor,\n+                  ConversionPatternRewriter &rewriter) const override {\n+    auto newScan = rewriter.create<triton::ScanOp>(\n+        op.getLoc(), adaptor.getOperands(), adaptor.getAxis());\n+    addNamedAttrs(newScan, adaptor.getAttributes());\n+\n+    auto &newCombineOp = newScan.getCombineOp();\n+    rewriter.cloneRegionBefore(op.getCombineOp(), newCombineOp,\n+                               newCombineOp.end());\n+    rewriter.replaceOp(op, newScan.getResult());\n+    return success();\n+  }\n+};\n+\n+struct TritonScanReturnPattern\n+    : public OpConversionPattern<triton::ScanReturnOp> {\n+  using OpConversionPattern<triton::ScanReturnOp>::OpConversionPattern;\n+\n+  LogicalResult\n+  matchAndRewrite(triton::ScanReturnOp op, OpAdaptor adaptor,\n+                  ConversionPatternRewriter &rewriter) const override {\n+    addNamedAttrs(rewriter.replaceOpWithNewOp<triton::ScanReturnOp>(\n+                      op, adaptor.getResult()),\n+                  adaptor.getAttributes());\n+    return success();\n+  }\n+};\n+\n struct TritonPrintPattern : public OpConversionPattern<triton::PrintOp> {\n   using OpConversionPattern<triton::PrintOp>::OpConversionPattern;\n \n@@ -623,9 +655,10 @@ void populateTritonPatterns(TritonGPUTypeConverter &typeConverter,\n           TritonGenericPattern<triton::PtrToIntOp>,\n           TritonGenericPattern<triton::SplatOp>, TritonBroadcastPattern,\n           TritonGenericPattern<triton::AddPtrOp>, TritonCatPattern,\n-          TritonReducePattern, TritonReduceReturnPattern, TritonTransPattern,\n-          TritonExpandDimsPattern, TritonMakeRangePattern, TritonDotPattern,\n-          TritonLoadPattern, TritonStorePattern,\n+          TritonReducePattern, TritonReduceReturnPattern, TritonScanPattern,\n+          TritonScanReturnPattern, TritonTransPattern, TritonExpandDimsPattern,\n+          TritonMakeRangePattern, TritonDotPattern, TritonLoadPattern,\n+          TritonStorePattern,\n           TritonExternElementwisePattern<triton::PureExternElementwiseOp>,\n           TritonExternElementwisePattern<triton::ImpureExternElementwiseOp>,\n           TritonPrintPattern, TritonAssertPattern, TritonAtomicRMWPattern,"}, {"filename": "lib/Dialect/Triton/IR/Ops.cpp", "status": "modified", "additions": 30, "deletions": 0, "changes": 30, "file_content_changes": "@@ -559,6 +559,36 @@ llvm::SmallVector<Type> ReduceOp::getElementTypes() {\n \n unsigned ReduceOp::getNumOperands() { return this->getOperands().size(); }\n \n+//-- ScanOp --\n+void ScanOp::build(mlir::OpBuilder &builder, mlir::OperationState &state,\n+                   mlir::ValueRange operands, int axis) {\n+  SmallVector<Type> inferredReturnTypes;\n+  for (auto arg : operands)\n+    inferredReturnTypes.push_back(arg.getType());\n+  ReduceOp::build(builder, state, inferredReturnTypes, operands, axis);\n+}\n+\n+mlir::LogicalResult mlir::triton::ScanOp::inferReturnTypes(\n+    MLIRContext *context, std::optional<Location> location, ValueRange operands,\n+    DictionaryAttr attributes, OpaqueProperties properties, RegionRange regions,\n+    SmallVectorImpl<Type> &inferredReturnTypes) {\n+  for (auto arg : operands)\n+    inferredReturnTypes.push_back(arg.getType());\n+  return success();\n+}\n+\n+mlir::LogicalResult mlir::triton::ScanOp::verify() {\n+  if (this->getOperands().size() < 1) {\n+    return this->emitOpError() << \"must have at least 1 operand\";\n+  }\n+  for (const auto &operand : this->getOperands()) {\n+    if (!dyn_cast<RankedTensorType>(operand.getType())) {\n+      return this->emitOpError() << \"operands must be RankedTensorType\";\n+    }\n+  }\n+  return success();\n+}\n+\n //-- SplatOp --\n OpFoldResult SplatOp::fold(FoldAdaptor adaptor) {\n   auto value = adaptor.getSrc();"}, {"filename": "lib/Dialect/Triton/Transforms/Combine.cpp", "status": "modified", "additions": 88, "deletions": 0, "changes": 88, "file_content_changes": "@@ -101,6 +101,93 @@ class CombineSelectMaskedLoadPattern : public mlir::RewritePattern {\n   }\n };\n \n+// sum(x[:, :, None] * y[None, :, :], 1)\n+// -> dot(x, y)\n+class CombineBroadcastMulReducePattern : public mlir::RewritePattern {\n+private:\n+  static bool isAddF32(const Operation *op) {\n+    if (auto addf = dyn_cast_or_null<arith::AddFOp>(op))\n+      return addf.getType().getIntOrFloatBitWidth() <= 32;\n+    return false;\n+  }\n+\n+  static SmallVector<int> getEqualIndices(ArrayRef<int64_t> x,\n+                                          ArrayRef<int64_t> y) {\n+    SmallVector<int> res;\n+    for (int i = 0; i < x.size(); ++i)\n+      if (x[i] == y[i])\n+        res.push_back(i);\n+    return res;\n+  }\n+\n+public:\n+  CombineBroadcastMulReducePattern(mlir::MLIRContext *context)\n+      : mlir::RewritePattern(triton::ReduceOp::getOperationName(), 1, context) {\n+  }\n+\n+  mlir::LogicalResult matchAndRewrite(mlir::Operation *op,\n+                                      mlir::PatternRewriter &rewriter) const {\n+    auto reduceOp = llvm::dyn_cast<triton::ReduceOp>(op);\n+    if (!reduceOp)\n+      return mlir::failure();\n+    // only support reduce with simple addition\n+    Region &combineOp = reduceOp.getCombineOp();\n+    bool isReduceAdd = combineOp.hasOneBlock() &&\n+                       combineOp.front().getOperations().size() == 2 &&\n+                       isAddF32(&*combineOp.front().getOperations().begin());\n+    if (!isReduceAdd)\n+      return mlir::failure();\n+    // operand of reduce has to be mul\n+    auto mulOp = llvm::dyn_cast_or_null<arith::MulFOp>(\n+        reduceOp.getOperand(0).getDefiningOp());\n+    if (!mulOp)\n+      return mlir::failure();\n+    // mul operand has to be broadcast\n+    auto broadcastLhsOp = llvm::dyn_cast_or_null<triton::BroadcastOp>(\n+        mulOp.getOperand(0).getDefiningOp());\n+    if (!broadcastLhsOp)\n+      return mlir::failure();\n+    auto broadcastRhsOp = llvm::dyn_cast_or_null<triton::BroadcastOp>(\n+        mulOp.getOperand(1).getDefiningOp());\n+    if (!broadcastRhsOp)\n+      return mlir::failure();\n+    // broadcast operand is expand dims\n+    auto expandLhsOp = llvm::dyn_cast_or_null<triton::ExpandDimsOp>(\n+        broadcastLhsOp.getOperand().getDefiningOp());\n+    if (!expandLhsOp)\n+      return mlir::failure();\n+    auto expandRhsOp = llvm::dyn_cast_or_null<triton::ExpandDimsOp>(\n+        broadcastRhsOp.getOperand().getDefiningOp());\n+    if (!expandRhsOp)\n+      return mlir::failure();\n+    // get not-broadcast dimensions\n+    int expandLhsAxis = expandLhsOp.getAxis();\n+    int expandRhsAxis = expandRhsOp.getAxis();\n+    if (expandLhsAxis != 2 || expandRhsAxis != 0)\n+      return mlir::failure();\n+    auto broadcastLhsShape =\n+        broadcastLhsOp.getType().cast<ShapedType>().getShape();\n+    auto broadcastRhsShape =\n+        broadcastLhsOp.getType().cast<ShapedType>().getShape();\n+    if (broadcastLhsShape[2] < 16 || broadcastRhsShape[0] < 16)\n+      return mlir::failure();\n+    Type newAccType =\n+        RankedTensorType::get({broadcastLhsShape[0], broadcastRhsShape[2]},\n+                              broadcastLhsOp.getOperand()\n+                                  .getType()\n+                                  .cast<ShapedType>()\n+                                  .getElementType());\n+    rewriter.setInsertionPoint(op);\n+    auto newAcc = rewriter.create<triton::SplatOp>(\n+        op->getLoc(), newAccType,\n+        rewriter.create<arith::ConstantOp>(op->getLoc(),\n+                                           rewriter.getF32FloatAttr(0)));\n+    rewriter.replaceOpWithNewOp<triton::DotOp>(\n+        op, expandLhsOp.getOperand(), expandRhsOp.getOperand(), newAcc, true);\n+    return mlir::success();\n+  }\n+};\n+\n #define GEN_PASS_CLASSES\n #include \"triton/Dialect/Triton/Transforms/Passes.h.inc\"\n \n@@ -120,6 +207,7 @@ class CombineOpsPass : public TritonCombineOpsBase<CombineOpsPass> {\n     patterns.add<CombineSelectMaskedLoadPattern>(context);\n     // patterns.add<CombineAddPtrPattern>(context);\n     patterns.add<CombineBroadcastConstantPattern>(context);\n+    patterns.add<CombineBroadcastMulReducePattern>(context);\n \n     if (applyPatternsAndFoldGreedily(m, std::move(patterns)).failed())\n       signalPassFailure();"}, {"filename": "lib/Dialect/TritonGPU/IR/Dialect.cpp", "status": "modified", "additions": 4, "deletions": 0, "changes": 4, "file_content_changes": "@@ -85,6 +85,8 @@ SmallVector<unsigned> getThreadsPerWarp(Attribute layout) {\n   if (auto sliceLayout = layout.dyn_cast<SliceEncodingAttr>()) {\n     auto parent = sliceLayout.getParent();\n     auto parentThreadsPerWarp = getThreadsPerWarp(parent);\n+    assert(parentThreadsPerWarp.size() == 2 &&\n+           \"getThreadsPerWarp only implemented for 2D slice layout\");\n     SmallVector<unsigned> threadsPerWarp = parentThreadsPerWarp;\n     threadsPerWarp.erase(threadsPerWarp.begin() + sliceLayout.getDim());\n     for (unsigned i = 0; i < threadsPerWarp.size(); i++)\n@@ -129,6 +131,8 @@ SmallVector<unsigned> getWarpsPerCTA(Attribute layout) {\n   if (auto sliceLayout = layout.dyn_cast<SliceEncodingAttr>()) {\n     auto parent = sliceLayout.getParent();\n     auto parentWarpsPerCTA = getWarpsPerCTA(parent);\n+    assert(parentWarpsPerCTA.size() == 2 &&\n+           \"getWarpsPerCTA only implemented for 2D slice layout\");\n     SmallVector<unsigned> warpsPerCTA = parentWarpsPerCTA;\n     warpsPerCTA.erase(warpsPerCTA.begin() + sliceLayout.getDim());\n     for (unsigned i = 0; i < warpsPerCTA.size(); i++)"}, {"filename": "lib/Dialect/TritonGPU/Transforms/OptimizeDotOperands.cpp", "status": "modified", "additions": 15, "deletions": 2, "changes": 17, "file_content_changes": "@@ -238,7 +238,9 @@ updateDotEncodingLayout(SmallVector<ConvertLayoutOp> &convertsToDotEncoding,\n                                 convertsToDotEncoding.end());\n   // Collect all the operations where the type needs to be propagated.\n   for (auto cvt : convertsToDotEncoding) {\n-    auto filter = [&](Operation *op) {\n+    auto forwardFilter = [&](Operation *op) {\n+      if (op == cvt.getOperation())\n+        return true;\n       for (Value operand : op->getOperands()) {\n         auto tensorType = operand.getType().dyn_cast<RankedTensorType>();\n         if (tensorType &&\n@@ -247,7 +249,18 @@ updateDotEncodingLayout(SmallVector<ConvertLayoutOp> &convertsToDotEncoding,\n       }\n       return false;\n     };\n-    mlir::getForwardSlice(cvt.getResult(), &slices, {filter});\n+    auto backwardFilter = [&](Operation *op) {\n+      for (Value results : op->getResults()) {\n+        auto tensorType = results.getType().dyn_cast<RankedTensorType>();\n+        if (tensorType &&\n+            tensorType.getEncoding().isa<DotOperandEncodingAttr>())\n+          return true;\n+      }\n+      return false;\n+    };\n+    SetVector<Operation *> opSlice =\n+        getSlice(cvt.getOperation(), {backwardFilter}, {forwardFilter});\n+    slices.insert(opSlice.begin(), opSlice.end());\n   }\n   // Apply the type change by walking ops in topological order.\n   slices = mlir::topologicalSort(slices);"}, {"filename": "lib/Dialect/TritonGPU/Transforms/Pipeline.cpp", "status": "modified", "additions": 28, "deletions": 7, "changes": 35, "file_content_changes": "@@ -816,28 +816,49 @@ void LoopPipeliner::prefetchNextIteration(scf::ForOp newForOp,\n       builder.create<arith::ConstantIntOp>(nextIV.getLoc(), numStages, 32));\n \n   // Prefetch load deps\n+  // If a load-dependent instruction that uses a block argument, we\n+  // shouldn't update the new mapping of the block argument in the current\n+  // iteration.\n+  // For example.\n+  // %a = add %arg0, %c\n+  // %b = add %arg0, %d\n+  //\n+  // Update %arg0 will cause the value of %b to be incorrect.\n+  // We do need to use the next iteration value of %arg0 because it could be a\n+  // immediate arg of a load op.\n+  // load %arg0\n+  // %a = add %arg0, %c\n+  // yield %a\n+  //\n+  // We reroder instructions so %a and yield are actually before load. load\n+  // %arg0 should use the updated %arg0.\n+  IRMapping curMapping = nextMapping;\n   for (Operation *op : orderedDeps)\n     if (!validLoads.contains(op->getResult(0))) {\n       if (immediateOpStages[op].contains(numStages - 2))\n         // A post load op that provides values for numStage - 2\n-        nextMapping.map(forOp.getInductionVar(), curIV);\n+        curMapping.map(forOp.getInductionVar(), curIV);\n       else\n-        nextMapping.map(forOp.getInductionVar(), nextIV);\n+        curMapping.map(forOp.getInductionVar(), nextIV);\n       Operation *nextOp;\n       if (auto loadOp = dyn_cast<triton::LoadOp>(op)) {\n         auto newMask =\n-            getLoadMask(loadOp, nextMapping.lookupOrDefault(loadOp.getMask()),\n+            getLoadMask(loadOp, curMapping.lookupOrDefault(loadOp.getMask()),\n                         nextLoopCond, builder);\n         nextOp = builder.create<triton::LoadOp>(\n             loadOp.getLoc(), loadOp.getResult().getType(),\n-            nextMapping.lookupOrDefault(loadOp.getPtr()), newMask,\n-            nextMapping.lookupOrDefault(loadOp.getOther()),\n+            curMapping.lookupOrDefault(loadOp.getPtr()), newMask,\n+            curMapping.lookupOrDefault(loadOp.getOther()),\n             loadOp.getBoundaryCheckAttr(), loadOp.getPaddingAttr(),\n             loadOp.getCache(), loadOp.getEvict(), loadOp.getIsVolatile());\n         addNamedAttrs(nextOp, op->getDiscardableAttrDictionary());\n+        curMapping.map(loadOp.getResult(), nextOp->getResult(0));\n         nextMapping.map(loadOp.getResult(), nextOp->getResult(0));\n-      } else\n-        nextOp = builder.clone(*op, nextMapping);\n+      } else {\n+        nextOp = builder.clone(*op, curMapping);\n+        for (unsigned dstIdx : llvm::seq(unsigned(0), op->getNumResults()))\n+          nextMapping.map(op->getResult(dstIdx), nextOp->getResult(dstIdx));\n+      }\n \n       for (unsigned dstIdx : llvm::seq(unsigned(0), op->getNumResults()))\n         setValueMappingYield(newForOp, op->getResult(dstIdx),"}, {"filename": "lib/Dialect/TritonGPU/Transforms/RemoveLayoutConversions.cpp", "status": "modified", "additions": 18, "deletions": 15, "changes": 33, "file_content_changes": "@@ -345,6 +345,14 @@ class RematerializeForward : public mlir::RewritePattern {\n     // heuristics for flash attention\n     if (srcEncoding.isa<triton::gpu::SliceEncodingAttr>())\n       return failure();\n+    // For cases like:\n+    // %0 = convert_layout %arg0\n+    // We should try to move %0 out of scf.for first, if it couldn't be moved\n+    // out additional conversions will be added to the loop body.\n+    if (!cvt.getOperand().getDefiningOp() &&\n+        isa<scf::ForOp>(cvt->getParentOp()))\n+      return failure();\n+\n     SetVector<Operation *> cvtSlices;\n     auto filter = [&](Operation *op) {\n       return op->getBlock() == cvt->getBlock() &&\n@@ -363,7 +371,8 @@ class RematerializeForward : public mlir::RewritePattern {\n       // don't rematerialize non-element-wise\n       if (!op->hasTrait<mlir::OpTrait::SameOperandsAndResultEncoding>() &&\n           !op->hasTrait<mlir::OpTrait::Elementwise>() &&\n-          !isa<triton::StoreOp, triton::ReduceOp>(op))\n+          !isa<triton::StoreOp, triton::AssertOp, triton::PrintOp,\n+               triton::ReduceOp>(op))\n         return failure();\n       // don't rematerialize if it adds an extra conversion that can't\n       // be removed\n@@ -380,6 +389,10 @@ class RematerializeForward : public mlir::RewritePattern {\n       }\n     }\n \n+    // Call SimplifyReduceCvt instead of the general push conversion forward\n+    if (isa<triton::ReduceOp>(cvtSlices.front()))\n+      return failure();\n+\n     pushConversionForward(cvt, cvtSlices, rewriter);\n     return success();\n   }\n@@ -425,8 +438,8 @@ class RematerializeBackward : public mlir::RewritePattern {\n \n     IRMapping mapping;\n     rematerializeConversionChain(toConvert, rewriter, processed, mapping);\n-\n     rewriter.replaceOp(cvt, mapping.lookup(cvt->getOperand(0)));\n+\n     return mlir::success();\n   }\n };\n@@ -459,31 +472,21 @@ class MoveConvertOutOfLoop : public mlir::RewritePattern {\n     for (const auto &arg : llvm::enumerate(forOp.getRegionIterArgs()))\n       mapping.map(arg.value(), newForOp.getRegionIterArgs()[arg.index()]);\n     mapping.map(origConversion.getResult(), newForOp.getRegionIterArgs()[i]);\n-    // the iter arg of interest may have other uses than the conversion\n-    // we're hoisting out of the loop. If that's the case we will\n-    // need to add extra conversions for all uses... which is only useful\n-    // if these extra conversions can be removed by another pattern\n-    auto oldArg = forOp.getRegionIterArgs()[i];\n-    auto newArg = newForOp.getRegionIterArgs()[i];\n-    auto newArgFallback = rewriter.create<triton::gpu::ConvertLayoutOp>(\n-        newForOp.getLoc(), origType, newArg);\n \n     mapping.map(forOp.getInductionVar(), newForOp.getInductionVar());\n     for (Operation &op : forOp.getBody()->without_terminator()) {\n       if (&op == (Operation *)(&origConversion))\n         continue;\n       Operation *newOp = rewriter.clone(op, mapping);\n-      if (find(oldArg.getUsers(), &op) != oldArg.getUsers().end())\n-        newOp->replaceUsesOfWith(newArg, newArgFallback);\n     }\n-\n     // create yield, inserting conversions if necessary\n     auto yieldOp = forOp.getBody()->getTerminator();\n     SmallVector<Value, 4> newYieldArgs;\n     for (Value arg : yieldOp->getOperands())\n       newYieldArgs.push_back(mapping.lookup(arg));\n-    newYieldArgs[i] = rewriter.create<triton::gpu::ConvertLayoutOp>(\n-        yieldOp->getLoc(), newType, newYieldArgs[i]);\n+    if (newYieldArgs[i].getType() != newType)\n+      newYieldArgs[i] = rewriter.create<triton::gpu::ConvertLayoutOp>(\n+          yieldOp->getLoc(), newType, newYieldArgs[i]);\n     rewriter.create<scf::YieldOp>(forOp.getLoc(), newYieldArgs);\n \n     // replace"}, {"filename": "lib/Dialect/TritonGPU/Transforms/ReorderInstructions.cpp", "status": "modified", "additions": 6, "deletions": 0, "changes": 6, "file_content_changes": "@@ -1,6 +1,7 @@\n #include \"mlir/Analysis/SliceAnalysis.h\"\n #include \"mlir/Dialect/SCF/IR/SCF.h\"\n #include \"mlir/IR/BuiltinAttributes.h\"\n+#include \"mlir/IR/Dominance.h\"\n #include \"mlir/IR/IRMapping.h\"\n #include \"mlir/IR/Matchers.h\"\n #include \"mlir/IR/PatternMatch.h\"\n@@ -42,6 +43,7 @@ class TritonGPUReorderInstructionsPass\n \n   void runOnOperation() override {\n     ModuleOp m = getOperation();\n+    mlir::DominanceInfo dom(m);\n     // Sink conversions into loops when they will increase\n     // register pressure\n     DenseMap<Operation *, Operation *> opToMove;\n@@ -97,6 +99,10 @@ class TritonGPUReorderInstructionsPass\n       auto BOp = dotUser.getOperand(1).getDefiningOp();\n       if (!BOp)\n         return;\n+      // TODO: An alternative would be to move cvt of OpIdx=0 down instead of\n+      // movig cvt of OpIdx=1 up. This would allow re-ordering more cases.\n+      if (!dom.dominates(op.getOperand(), BOp))\n+        return;\n       op->moveBefore(BOp);\n     });\n     return;"}, {"filename": "lib/Dialect/TritonGPU/Transforms/Utility.cpp", "status": "modified", "additions": 20, "deletions": 2, "changes": 22, "file_content_changes": "@@ -297,7 +297,7 @@ LogicalResult canMoveOutOfLoop(BlockArgument arg,\n   // 2. There is only a single conversion\n   // 3. Moving this conversion out of the loop will not generate any extra\n   // non-removable conversion\n-  DenseSet<Type> cvtTypes;\n+  SetVector<RankedTensorType> cvtTypes;\n   SetVector<Operation *> others;\n   auto oldType = arg.getType().cast<RankedTensorType>();\n   for (auto user : arg.getUsers()) {\n@@ -326,16 +326,34 @@ LogicalResult canMoveOutOfLoop(BlockArgument arg,\n     // Second condition\n     if (others.empty())\n       return success();\n-    // Third condition: not complete\n+    // Third condition - part 1:\n     // If the other or the cvt is in the different block, we cannot push the\n     // conversion forward or backward\n     for (auto *cvt : cvts) {\n       if (cvt->getBlock() != forOp.getBody())\n         return failure();\n     }\n+    auto targetEncoding = cvtTypes.front().getEncoding();\n     for (auto *other : others) {\n+      // Third condition - part 2:\n+      // If the other non-cvt op is in the different block, we cannot push the\n+      // conversion forward or backward\n       if (other->getBlock() != forOp.getBody())\n         return failure();\n+      // Third condition - part 3:\n+      // %0 (enc1) = cvt %arg (enc0)\n+      // other %0 (enc1), %1 (enc0) => other %0 (enc1), %1 (enc1)\n+      // Check if %2 (enc1) = cvt %1 (enc0) can be eliminated\n+      SetVector<Operation *> processed;\n+      SetVector<Attribute> layout;\n+      llvm::MapVector<Value, Attribute> toConvert;\n+      for (auto operand : other->getOperands()) {\n+        auto argOp = operand.getDefiningOp();\n+        if (argOp && !isa<triton::gpu::ConvertLayoutOp>(argOp) &&\n+            simulateBackwardRematerialization(argOp, processed, layout,\n+                                              toConvert, targetEncoding) > 0)\n+          return failure();\n+      }\n     }\n     return success();\n   }"}, {"filename": "lib/Target/LLVMIR/CMakeLists.txt", "status": "modified", "additions": 3, "deletions": 1, "changes": 4, "file_content_changes": "@@ -4,7 +4,9 @@ add_mlir_translation_library(TritonLLVMIR\n         LINK_COMPONENTS\n         Core\n \n-        LINK_LIBS PUBLIC\n+        LINK_LIBS\n+        ${CMAKE_DL_LIBS}\n+        PUBLIC\n         MLIRArithToLLVM\n         MLIRBuiltinToLLVMIRTranslation\n         MLIRExecutionEngineUtils"}, {"filename": "python/setup.py", "status": "modified", "additions": 1, "deletions": 0, "changes": 1, "file_content_changes": "@@ -211,6 +211,7 @@ def build_extension(self, ext):\n         # python directories\n         python_include_dir = sysconfig.get_path(\"platinclude\")\n         cmake_args = [\n+            \"-DCMAKE_EXPORT_COMPILE_COMMANDS=ON\",\n             \"-DLLVM_ENABLE_WERROR=ON\",\n             \"-DCMAKE_LIBRARY_OUTPUT_DIRECTORY=\" + extdir,\n             \"-DTRITON_BUILD_TUTORIALS=OFF\","}, {"filename": "python/src/triton.cc", "status": "modified", "additions": 17, "deletions": 7, "changes": 24, "file_content_changes": "@@ -91,6 +91,7 @@ void init_triton_ir(py::module &&m) {\n       .value(\"CG\", mlir::triton::CacheModifier::CG)\n       .value(\"WB\", mlir::triton::CacheModifier::WB)\n       .value(\"CS\", mlir::triton::CacheModifier::CS)\n+      .value(\"WT\", mlir::triton::CacheModifier::WT)\n       .export_values();\n \n   py::enum_<mlir::triton::MemSemantic>(m, \"MEM_SEMANTIC\")\n@@ -643,13 +644,7 @@ void init_triton_ir(py::module &&m) {\n           [](mlir::OpBuilder &self) -> mlir::Type { return self.getI64Type(); })\n       .def(\"get_fp8e4_ty\",\n            [](mlir::OpBuilder &self) -> mlir::Type {\n-             return self.getType<mlir::Float8E4M3FNUZType>();\n-           })\n-      .def(\"get_fp8e4b15_ty\",\n-           [](mlir::OpBuilder &self) -> mlir::Type {\n-             // TODO: upstream FP8E4B15 into MLIR, or find a way to externally\n-             // have a float-like type compatible with float only native ops\n-             return self.getType<mlir::Float8E4M3B11FNUZType>();\n+             return self.getType<mlir::Float8E4M3FNType>();\n            })\n       .def(\"get_fp8e5_ty\",\n            [](mlir::OpBuilder &self) -> mlir::Type {\n@@ -1411,6 +1406,21 @@ void init_triton_ir(py::module &&m) {\n              return self.create<mlir::triton::ReduceReturnOp>(loc,\n                                                               return_values);\n            })\n+      .def(\"create_scan\",\n+           [](mlir::OpBuilder &self, std::vector<mlir::Value> operands,\n+              int axis) -> mlir::OpState {\n+             auto loc = self.getUnknownLoc();\n+             return self.create<mlir::triton::ScanOp>(loc, operands, axis);\n+           })\n+      .def(\"create_scan_ret\",\n+           [](mlir::OpBuilder &self, py::args args) -> mlir::OpState {\n+             auto loc = self.getUnknownLoc();\n+             llvm::SmallVector<mlir::Value> return_values;\n+             for (const auto &arg : args) {\n+               return_values.push_back(py::cast<mlir::Value>(arg));\n+             }\n+             return self.create<mlir::triton::ScanReturnOp>(loc, return_values);\n+           })\n       .def(\"create_ptr_to_int\",\n            [](mlir::OpBuilder &self, mlir::Value &val,\n               mlir::Type &type) -> mlir::Value {"}, {"filename": "python/test/unit/language/test_core.py", "status": "modified", "additions": 307, "deletions": 93, "changes": 400, "file_content_changes": "@@ -706,11 +706,11 @@ def test_abs(dtype_x, device):\n     _test_unary(dtype_x, 'tl.abs(x)', 'np.abs(x) ', device=device)\n \n \n-@pytest.mark.parametrize(\"in_dtype\", [tl.float8e4b15, tl.float8e4, tl.float8e5])\n-def test_abs_fp8(in_dtype, device):\n+@pytest.mark.parametrize(\"in_dtype\", [tl.float8e4, tl.float8e5])\n+def test_abs_f8(in_dtype, device):\n \n     @triton.jit\n-    def abs_kernel(Z, X, SIZE: tl.constexpr):\n+    def abs_kernel(X, Z, SIZE: tl.constexpr):\n         off = tl.arange(0, SIZE)\n         x = tl.load(X + off)\n         z = tl.abs(x)\n@@ -723,12 +723,13 @@ def abs_kernel(Z, X, SIZE: tl.constexpr):\n     f8 = triton.reinterpret(f8_tensor, in_dtype)\n     n_elements = f8_tensor.numel()\n     out_f8 = torch.empty_like(f8_tensor)\n+    grid = lambda meta: (triton.cdiv(n_elements, meta['BLOCK_SIZE']),)\n     abs_kernel[(1,)](f8, triton.reinterpret(out_f8, in_dtype), n_elements)\n \n     f32_tensor = convert_float_to_float32(f8_tensor, in_dtype)\n     expect = f32_tensor.abs()\n     actual_f8 = convert_float_to_float32(out_f8, in_dtype)\n-    torch.testing.assert_allclose(expect, actual_f8)\n+    torch.testing.assert_allclose(actual_f8, expect)\n \n \n # ----------------\n@@ -1214,7 +1215,7 @@ def convert_float_to_float32(fp: torch.tensor, dtype=None):\n \n     fp = fp.view(getattr(torch, f\"int{dtype.primitive_bitwidth}\"))\n     exp_width = dtype.primitive_bitwidth - dtype.fp_mantissa_width - 1\n-    exp_bias = dtype.exponent_bias\n+    exp_bias = 2 ** (exp_width - 1) - 1\n     sign = ((fp >> (dtype.primitive_bitwidth - 1)) & 0x01).int()\n     exp = ((fp >> dtype.fp_mantissa_width) & ((1 << exp_width) - 1)).int()\n     frac = (fp & ((1 << dtype.fp_mantissa_width) - 1)).int()\n@@ -1227,7 +1228,7 @@ def convert_float_to_float32(fp: torch.tensor, dtype=None):\n \n     extended_exp = ((1 << (tl.float32.primitive_bitwidth - tl.float32.fp_mantissa_width - 1)) - 1) << tl.float32.fp_mantissa_width\n     # special cases, exp is 0b11..1\n-    if dtype in [tl.float8e4, tl.float8e4b15]:\n+    if dtype == tl.float8e4:\n         # float8e4m3 does not have infinities\n         output[fp == 0b01111111] = torch.nan\n         output[fp == 0b11111111] = torch.nan\n@@ -1254,42 +1255,11 @@ def test_convert_float16_to_float32(in_dtype, device):\n     assert torch.all(f16_input[other] == f32_output[other])\n \n \n-def serialize_fp8(np_data, in_dtype):\n-    if in_dtype == tl.float8e4b15:\n-        # triton's f8e4b15 format is optimized for software emulation\n-        # as a result, each pack of 4xfp8 values:\n-        # s0b0s1b1s2b2s3b3 (for s, b sign and bits respectively)\n-        # is actually internally stored as\n-        # s0s2b0b2s1s3b1b3\n-        # we apply the conversion here\n-        f8x4 = np_data.view(np.uint32)\n-        s = [(f8x4 & (0x80000000 >> i)) << i for i in range(0, 32, 8)]\n-        b = [(f8x4 & (0x7f000000 >> i)) << i for i in range(0, 32, 8)]\n-        signs = (s[0] >> 0) | (s[1] >> 16) | (s[2] >> 1) | (s[3] >> 17)\n-        bits = (b[0] >> 1) | (b[1] >> 17) | (b[2] >> 8) | (b[3] >> 24)\n-        # tensor of triton fp8 data\n-        return (signs | bits).view(np.int8)\n-    else:\n-        return np_data\n-\n-\n-@pytest.mark.parametrize(\"in_dtype\", [tl.float8e4b15, tl.float8e4, tl.float8e5])\n+@pytest.mark.parametrize(\"in_dtype\", [tl.float8e4, tl.float8e5])\n @pytest.mark.parametrize(\"out_dtype\", [torch.float16, torch.bfloat16, torch.float32])\n-def test_fp8_fpN_roundtrip(in_dtype, out_dtype, device):\n-    \"\"\"\n-    For all possible float8 values (ref_fp8 = range(0, 256)), test that:\n-        - conversion tri_fp16 = convert(input=ref_fp8, out=out_dtype) matches the reference\n-        - conversion tri_fp8 = convert(input=tri_fp16, out=out_dtype) matches the original\n-    this is only possible if both conversions are correct\n-    \"\"\"\n+def test_f8_xf16_roundtrip(in_dtype, out_dtype, device):\n+    \"\"\"Tests that converting an f8 to f16 and back to f8 doesn't change its value\"\"\"\n     check_type_supported(out_dtype, device)\n-    from contextlib import nullcontext as does_not_raise\n-    expectation = does_not_raise()\n-    err_msg = None\n-    if (in_dtype == tl.float8e4b15 and out_dtype != torch.float16) or\\\n-       (in_dtype != torch.float16 and out_dtype == tl.float8e4b15):\n-        expectation = pytest.raises(triton.CompilationError)\n-        err_msg = \"fp8e4b15 can only be converted to/from fp16\"\n \n     @triton.jit\n     def copy_kernel(input_ptr, output_ptr, n_elements, BLOCK_SIZE: tl.constexpr):\n@@ -1299,28 +1269,90 @@ def copy_kernel(input_ptr, output_ptr, n_elements, BLOCK_SIZE: tl.constexpr):\n         output = input\n         tl.store(output_ptr + offsets, output, mask=mask)\n \n-    # initialize array containing all possible f8 values except NaN\n-    ref_fp8 = np.array(range(-128, 128), dtype=np.int8)\n-    is_nan = (ref_fp8 & 0b01111100) == 128 - 2**in_dtype.fp_mantissa_width\n-    exp_mask = 0b01111111 ^ ((1 << in_dtype.fp_mantissa_width) - 1)\n-    is_subnormal = np.logical_or((ref_fp8 & exp_mask) == 0, (ref_fp8 & exp_mask) == exp_mask)\n-    ref_fp8[is_nan] = 0\n-    ref_fp8[is_subnormal] = 0\n-    tri_fp8 = torch.from_numpy(serialize_fp8(ref_fp8, in_dtype)).cuda()\n-    tri_fp16 = torch.empty(256, dtype=out_dtype, device=\"cuda\")\n-    with expectation as e:\n-        copy_kernel[(1,)](triton.reinterpret(tri_fp8, in_dtype), tri_fp16, tri_fp16.shape[0], BLOCK_SIZE=1024)\n-\n-        ref_fp8 = torch.from_numpy(ref_fp8).cuda()\n-        ref_fp16 = convert_float_to_float32(ref_fp8, in_dtype)\n-        assert torch.all(tri_fp16[~is_subnormal] == ref_fp16[~is_subnormal])\n-\n-        ref_fp8 = torch.empty_like(tri_fp16, dtype=torch.int8)\n-        copy_kernel[(1,)](tri_fp16, triton.reinterpret(ref_fp8, in_dtype), tri_fp16.shape[0], BLOCK_SIZE=1024)\n-        assert torch.all(tri_fp8 == ref_fp8)\n-\n-    if err_msg is not None:\n-        assert err_msg in str(e)\n+    f8_tensor = torch.tensor(range(-128, 128), dtype=torch.int8, device=device)\n+    # f32_to_f8 doesn't handle nan, so we make sure f8_tensor doesn't contain any nan\n+    all_exp_ones = (f8_tensor & 0b01111100) == 128 - 2**in_dtype.fp_mantissa_width\n+    f8_tensor[all_exp_ones] = 0\n+    f8 = triton.reinterpret(f8_tensor, in_dtype)\n+    n_elements = f8_tensor.numel()\n+    xf16 = torch.empty_like(f8_tensor, dtype=out_dtype)\n+    grid = lambda meta: (triton.cdiv(n_elements, meta['BLOCK_SIZE']),)\n+    copy_kernel[grid](f8, xf16, n_elements, BLOCK_SIZE=1024)\n+\n+    # exponent_mask = 0b01111100 for float8e5\n+    # exponent_mask = 0b01111000 for float8e4\n+    exponent_mask = 0b01111111 ^ ((1 << in_dtype.fp_mantissa_width) - 1)\n+    normal = torch.logical_and((f8_tensor & exponent_mask) != 0, (f8_tensor & exponent_mask) != exponent_mask)\n+    ref16 = convert_float_to_float32(f8_tensor, in_dtype)\n+    # WARN: currently only normal float8s are handled\n+    assert torch.all(xf16[normal] == ref16[normal])\n+\n+    f8_output_tensor = torch.empty_like(xf16, dtype=torch.int8)\n+    f8_output = triton.reinterpret(f8_output_tensor, in_dtype)\n+    copy_kernel[grid](xf16, f8_output, n_elements, BLOCK_SIZE=1024)\n+\n+    assert torch.all(f8_tensor == f8_output_tensor)\n+\n+\n+@pytest.mark.parametrize(\"in_dtype\", [tl.float8e4, tl.float8e5])\n+@pytest.mark.parametrize(\"out_dtype\", [torch.float16, torch.bfloat16])\n+def test_f16_to_f8_rounding(in_dtype, out_dtype, device):\n+    \"\"\"Takes all float16s, converts them to float8 and back to float16. Checks that the absolute\n+    error is the minimum over all float8.\n+    Or the same explanation a bit mathier:\n+    for all f16 |f16 - fromf8(tof8(f16))| == min over all f8 |f16 - fromf8(f8)|\"\"\"\n+    @triton.jit\n+    def copy_kernel(input_ptr, output_ptr, n_elements, BLOCK_SIZE: tl.constexpr):\n+        offsets = tl.program_id(axis=0) * BLOCK_SIZE + tl.arange(0, BLOCK_SIZE)\n+        mask = offsets < n_elements\n+        input = tl.load(input_ptr + offsets, mask=mask)\n+        output = input\n+        tl.store(output_ptr + offsets, output, mask=mask)\n+\n+    i16_input = torch.tensor(range(-int(2 ** (16 - 1)), int(2 ** (16 - 1))), dtype=torch.int16, device=device)\n+    f16_input = i16_input.view(out_dtype)\n+    n_elements = f16_input.numel()\n+    f8_output_tensor = torch.empty_like(f16_input, dtype=torch.int8)\n+    f8_output = triton.reinterpret(f8_output_tensor, in_dtype)\n+    grid = lambda meta: (triton.cdiv(n_elements, meta['BLOCK_SIZE']),)\n+    copy_kernel[grid](f16_input, f8_output, n_elements, BLOCK_SIZE=1024)\n+\n+    f16_output = torch.empty_like(f16_input, dtype=out_dtype)\n+    copy_kernel[grid](f8_output, f16_output, n_elements, BLOCK_SIZE=1024)\n+\n+    abs_error = torch.abs(f16_input - f16_output)\n+\n+    all_f8_vals_tensor = torch.tensor(range(2 ** 8), dtype=torch.uint8, device=device)\n+    all_f8_vals = triton.reinterpret(all_f8_vals_tensor, in_dtype)\n+    all_f8_vals_in_f16 = torch.empty_like(all_f8_vals_tensor, dtype=out_dtype)\n+    copy_kernel[grid](all_f8_vals, all_f8_vals_in_f16, n_elements=256, BLOCK_SIZE=1024)\n+\n+    all_finite_f8_vals_in_f16 = all_f8_vals_in_f16[\n+        torch.isfinite(all_f8_vals_in_f16)\n+    ]\n+\n+    min_error = torch.min(\n+        torch.abs(\n+            f16_input.reshape((-1, 1))\n+            - all_finite_f8_vals_in_f16.reshape((1, -1))\n+        ),\n+        dim=1,\n+    )[0]\n+\n+    # WARN: only normalized numbers are handled\n+    f8_normal_min = 1 << in_dtype.fp_mantissa_width  # 0b00001000 for float8e4\n+    f8_normal_max = 0b01111110 if in_dtype == tl.float8e4 else 0b01111011\n+    f16_min, f16_max, f16_max_minus_1 = convert_float_to_float32(torch.tensor([f8_normal_min, f8_normal_max, f8_normal_max - 1], dtype=torch.int8), in_dtype)\n+    assert torch.all(torch.isfinite(f16_min))\n+    assert torch.all(torch.isfinite(f16_max))\n+    thres_error = f16_max - f16_max_minus_1\n+    mismatch = torch.logical_and(\n+        torch.logical_or(abs_error != min_error, abs_error > thres_error), torch.logical_and(torch.isfinite(f16_input), torch.logical_and(torch.abs(f16_input) <= f16_max, torch.abs(f16_input) >= f16_min))\n+    )\n+    assert torch.all(\n+        torch.logical_not(mismatch)\n+    ), f\"f16_input[mismatch]={f16_input[mismatch]} f16_output[mismatch]={f16_output[mismatch]} abs_error[mismatch]={abs_error[mismatch]} min_error[mismatch]={min_error[mismatch]}\"\n+\n \n # ---------------\n # test reduce\n@@ -1494,6 +1526,123 @@ def kernel(X, Z, BLOCK_M: tl.constexpr, BLOCK_N: tl.constexpr, AXIS: tl.constexp\n             np.testing.assert_equal(z_ref, z_tri)\n \n \n+scan2d_shapes = [(8, 32), (16, 32), (32, 16), (2, 1024), (1024, 2), (32, 32), (1, 1024)]\n+\n+scan_configs = [\n+    (op, type, shape, axis, num_warps)\n+    for num_warps in [4, 16]\n+    for type in ['int32', 'float32']\n+    for axis in [1, 0]\n+    for shape in scan2d_shapes\n+    for op in ['cumsum', 'cumprod']\n+]\n+\n+\n+@pytest.mark.parametrize(\"op, dtype_str, shape, axis, num_warps\", scan_configs)\n+def test_scan2d(op, dtype_str, shape, axis, num_warps, device):\n+    check_type_supported(dtype_str, device)\n+\n+    # triton kernel\n+    @triton.jit\n+    def kernel(X, Z, BLOCK_M: tl.constexpr, BLOCK_N: tl.constexpr, AXIS: tl.constexpr):\n+        range_m = tl.arange(0, BLOCK_M)\n+        range_n = tl.arange(0, BLOCK_N)\n+        x = tl.load(X + range_m[:, None] * BLOCK_N + range_n[None, :])\n+        z = GENERATE_TEST_HERE\n+        tl.store(Z + range_m[:, None] * BLOCK_N + range_n[None, :], z)\n+\n+    kernel = patch_kernel(kernel, {'GENERATE_TEST_HERE': f'tl.{op}(x, axis={axis})'})\n+    # input\n+    rs = RandomState(17)\n+    x = numpy_random(shape, dtype_str=dtype_str, rs=rs)\n+    z = np.empty_like(x)\n+    x_tri = to_triton(x, device=device)\n+    numpy_op = {'cumsum': np.cumsum, 'cumprod': np.cumprod}[op]\n+    z_dtype_str = dtype_str\n+    z_ref = numpy_op(x, axis=axis).astype(getattr(np, z_dtype_str))\n+    # triton result\n+    z_tri = to_triton(z, device=device)\n+    kernel[(1,)](x_tri, z_tri, BLOCK_M=shape[0], BLOCK_N=shape[1], AXIS=axis, num_warps=num_warps)\n+    z_tri = to_numpy(z_tri)\n+    # compare\n+    if dtype_str == 'float32':\n+        if op == 'cumprod':\n+            np.testing.assert_allclose(z_ref, z_tri, rtol=0.01, atol=1e-3)\n+        else:\n+            np.testing.assert_allclose(z_ref, z_tri, rtol=0.01)\n+    else:\n+        np.testing.assert_equal(z_ref, z_tri)\n+\n+\n+scan_layouts = [\n+    BlockedLayout([1, 4], [4, 8], [4, 1], [0, 1]),\n+    BlockedLayout([1, 4], [8, 4], [4, 1], [0, 1]),\n+    BlockedLayout([4, 1], [4, 8], [1, 4], [0, 1]),\n+    BlockedLayout([2, 2], [4, 8], [2, 2], [0, 1]),\n+    BlockedLayout([2, 2], [8, 4], [2, 2], [0, 1]),\n+\n+    BlockedLayout([1, 4], [4, 8], [4, 1], [1, 0]),\n+    BlockedLayout([1, 4], [8, 4], [4, 1], [1, 0]),\n+    BlockedLayout([4, 1], [4, 8], [1, 4], [1, 0]),\n+    BlockedLayout([2, 2], [4, 8], [2, 2], [1, 0]),\n+    BlockedLayout([2, 2], [8, 4], [2, 2], [1, 0]),\n+]\n+\n+\n+@pytest.mark.parametrize(\"M, N\", [[32, 32], [32, 64], [64, 32]])\n+@pytest.mark.parametrize(\"src_layout\", scan_layouts)\n+@pytest.mark.parametrize(\"axis\", [0, 1])\n+def test_scan_layouts(M, N, src_layout, axis, device):\n+    ir = f\"\"\"\n+    #blocked = {src_layout}\n+    module attributes {{\"triton_gpu.num-warps\" = 4 : i32, \"triton_gpu.threads-per-warp\" = 32 : i32}} {{\n+    tt.func public @kernel_0d1d(%arg0: !tt.ptr<i32> {{tt.divisibility = 16 : i32}}, %arg1: !tt.ptr<i32> {{tt.divisibility = 16 : i32}}) {{\n+      %cst = arith.constant dense<{N}> : tensor<{M}x1xi32, #blocked>\n+      %0 = tt.make_range {{end = {M} : i32, start = 0 : i32}} : tensor<{M}xi32, #triton_gpu.slice<{{dim = 1, parent = #blocked}}>>\n+      %1 = tt.expand_dims %0 {{axis = 1 : i32}} : (tensor<{M}xi32, #triton_gpu.slice<{{dim = 1, parent = #blocked}}>>) -> tensor<{M}x1xi32, #blocked>\n+      %2 = arith.muli %1, %cst : tensor<{M}x1xi32, #blocked>\n+      %3 = tt.splat %arg0 : (!tt.ptr<i32>) -> tensor<{M}x1x!tt.ptr<i32>, #blocked>\n+      %4 = tt.addptr %3, %2 : tensor<{M}x1x!tt.ptr<i32>, #blocked>, tensor<{M}x1xi32, #blocked>\n+      %5 = tt.make_range {{end = {N} : i32, start = 0 : i32}} : tensor<{N}xi32, #triton_gpu.slice<{{dim = 0, parent = #blocked}}>>\n+      %6 = tt.expand_dims %5 {{axis = 0 : i32}} : (tensor<{N}xi32, #triton_gpu.slice<{{dim = 0, parent = #blocked}}>>) -> tensor<1x{N}xi32, #blocked>\n+      %7 = tt.broadcast %4 : (tensor<{M}x1x!tt.ptr<i32>, #blocked>) -> tensor<{M}x{N}x!tt.ptr<i32>, #blocked>\n+      %8 = tt.broadcast %6 : (tensor<1x{N}xi32, #blocked>) -> tensor<{M}x{N}xi32, #blocked>\n+      %9 = tt.addptr %7, %8 : tensor<{M}x{N}x!tt.ptr<i32>, #blocked>, tensor<{M}x{N}xi32, #blocked>\n+      %10 = tt.load %9 {{cache = 1 : i32, evict = 1 : i32, isVolatile = false}} : tensor<{M}x{N}xi32, #blocked>\n+      %11 = \"tt.scan\"(%10) <{{axis = {axis} : i32}}> ({{\n+      ^bb0(%arg2: i32, %arg3: i32):\n+        %16 = arith.addi %arg2, %arg3 : i32\n+        tt.scan.return %16 : i32\n+      }}) : (tensor<{M}x{N}xi32, #blocked>) -> tensor<{M}x{N}xi32, #blocked>\n+      %12 = tt.splat %arg1 : (!tt.ptr<i32>) -> tensor<{M}x1x!tt.ptr<i32>, #blocked>\n+      %13 = tt.addptr %12, %2 : tensor<{M}x1x!tt.ptr<i32>, #blocked>, tensor<{M}x1xi32, #blocked>\n+      %14 = tt.broadcast %13 : (tensor<{M}x1x!tt.ptr<i32>, #blocked>) -> tensor<{M}x{N}x!tt.ptr<i32>, #blocked>\n+      %15 = tt.addptr %14, %8 : tensor<{M}x{N}x!tt.ptr<i32>, #blocked>, tensor<{M}x{N}xi32, #blocked>\n+      tt.store %15, %11 {{cache = 1 : i32, evict = 1 : i32}} : tensor<{M}x{N}xi32, #blocked>\n+      tt.return\n+    }}\n+    }}\n+    \"\"\"\n+\n+    import tempfile\n+    with tempfile.NamedTemporaryFile(mode='w', suffix='.ttgir') as f:\n+        f.write(ir)\n+        f.flush()\n+        kernel = triton.compile(f.name)\n+    rs = RandomState(17)\n+    x = rs.randint(-100, 100, (M, N)).astype('int32')\n+\n+    z = np.zeros((M, N)).astype('int32')\n+    x_tri = torch.tensor(x, device=device)\n+    z_tri = torch.tensor(z, device=device)\n+\n+    kernel[(1, 1, 1)](x_tri, z_tri)\n+\n+    z_ref = np.cumsum(x, axis=axis)\n+\n+    np.testing.assert_equal(z_ref, z_tri.cpu().numpy())\n+\n+\n layouts = [\n     BlockedLayout([1, 4], [8, 4], [4, 1], [1, 0]),\n     BlockedLayout([1, 4], [8, 4], [4, 1], [0, 1]),\n@@ -1683,7 +1832,19 @@ def _welford_combine(mean_1, m2_1, weight_1, mean_2, m2_2, weight_2):\n \n @pytest.mark.parametrize(\"M, N\", [[128, 128], [256, 128], [256, 256], [128, 256]])\n @pytest.mark.parametrize(\"src_layout\", layouts)\n-def test_chain_reduce(M, N, src_layout, device):\n+@pytest.mark.parametrize(\"op\", [\"sum\", \"max\"])\n+@pytest.mark.parametrize(\"first_axis\", [0, 1])\n+def test_chain_reduce(M, N, src_layout, op, device, first_axis):\n+    op_str = \"\"\n+    if op == \"sum\":\n+        op_str = f\"\"\"\n+        %13 = arith.addi %arg2, %arg3 : i32\n+        tt.reduce.return %13 : i32\"\"\"\n+    elif op == \"max\":\n+        op_str = f\"\"\"\n+        %13 = \"triton_gpu.cmpi\"(%arg2, %arg3) <{{predicate = 4 : i64}}> : (i32, i32) -> i1\n+        %14 = arith.select %13, %arg2, %arg3 : i32\n+        tt.reduce.return %14 : i32\"\"\"\n     ir = f\"\"\"\n     #src = {src_layout}\n     module attributes {{\"triton_gpu.num-warps\" = 4 : i32}} {{\n@@ -1702,14 +1863,12 @@ def test_chain_reduce(M, N, src_layout, device):\n         %10 = tt.load %9 {{cache = 1 : i32, evict = 1 : i32, isVolatile = false}} : tensor<{M}x{N}xi32, #src>\n         %11 = \"tt.reduce\"(%10) ({{\n         ^bb0(%arg2: i32, %arg3: i32):\n-        %13 = arith.addi %arg2, %arg3 : i32\n-        tt.reduce.return %13 : i32\n-        }}) {{axis = 1 : i32}} : (tensor<{M}x{N}xi32, #src>) -> tensor<{M}xi32, #triton_gpu.slice<{{dim = 1, parent = #src}}>>\n+        {op_str}\n+        }}) {{axis = {first_axis} : i32}} : (tensor<{M}x{N}xi32, #src>) -> tensor<{M if first_axis == 1 else N}xi32, #triton_gpu.slice<{{dim = {first_axis}, parent = #src}}>>\n         %12 = \"tt.reduce\"(%11) ({{\n         ^bb0(%arg2: i32, %arg3: i32):\n-        %13 = arith.addi %arg2, %arg3 : i32\n-        tt.reduce.return %13 : i32\n-        }}) {{axis = 0 : i32}} : (tensor<{M}xi32, #triton_gpu.slice<{{dim = 1, parent = #src}}>>) -> i32\n+        {op_str}\n+        }}) {{axis = 0 : i32}} : (tensor<{M if first_axis == 1 else N}xi32, #triton_gpu.slice<{{dim = {first_axis}, parent = #src}}>>) -> i32\n         tt.store %arg1, %12 {{cache = 1 : i32, evict = 1 : i32}} : i32\n         tt.return\n     }}\n@@ -1730,7 +1889,10 @@ def test_chain_reduce(M, N, src_layout, device):\n     z_tri = torch.tensor(z, device=device)\n \n     pgm = kernel[(1, 1, 1)](x_tri, z_tri)\n-    z_ref = np.sum(x)\n+    if op == \"sum\":\n+        z_ref = np.sum(x)\n+    elif op == \"max\":\n+        z_ref = np.max(x)\n \n     np.testing.assert_allclose(z_ref, z_tri.cpu().numpy(), rtol=0.01, atol=1e-3)\n \n@@ -2002,6 +2164,46 @@ def kernel(X, stride_xm, stride_xk,\n         assert 'mma.sync.aligned.m16n8k16.row.col.f16.f16.f16.f16' in ptx\n \n \n+@pytest.mark.parametrize('in_dtype', ['float32'])\n+def test_dot_mulbroadcastred(in_dtype, device):\n+    @triton.jit\n+    def kernel(Z, X, Y,\n+               M: tl.constexpr, N: tl.constexpr, K: tl.constexpr,\n+               BM: tl.constexpr, BN: tl.constexpr, BK: tl.constexpr):\n+        pidn = tl.program_id(1)\n+        pidm = tl.program_id(0)\n+        offm = tl.arange(0, BM)[:, None]\n+        offn = tl.arange(0, BN)[None, :]\n+        offak = tl.arange(0, BK)[None, :]\n+        offbk = tl.arange(0, BK)[:, None]\n+        acc = tl.full((BM, BN), 0.0, tl.float32)\n+        for ridx5 in range(0, K // BK):\n+            x = tl.load(X + ((pidm * K * BM) + (offm * K) + (ridx5 * BK) + offak))\n+            y = tl.load(Y + ((pidn * BN) + (offbk * N) + (ridx5 * N * BK) + offn))\n+            x = tl.expand_dims(x, axis=2)\n+            y = tl.expand_dims(y, axis=0)\n+            t = tl.sum(x * y, axis=1)\n+            acc = t + acc\n+        tl.store(Z + ((pidm * BM * N) + (pidn * BN) + (offm * N) + offn), acc)\n+    M, N, K = 256, 192, 160\n+    BM, BN, BK = 128, 32, 32\n+    rs = RandomState(17)\n+    x = numpy_random((M, K), dtype_str=in_dtype, rs=rs)\n+    y = numpy_random((K, N), dtype_str=in_dtype, rs=rs)\n+    x = x * 0.1\n+    y = y * 0.1\n+    z = numpy_random((M, N), dtype_str=in_dtype, rs=rs)\n+    x_tri = to_triton(x, device=device)\n+    y_tri = to_triton(y, device=device)\n+    z_tri = to_triton(z, device=device)\n+    grid = M // BM, N // BN\n+    h = kernel[grid](z_tri, x_tri, y_tri, M, N, K, BM, BN, BK)\n+    z_ref = np.matmul(x, y)\n+    np.testing.assert_allclose(z_ref, to_numpy(z_tri), atol=0.01)\n+    assert \"tt.dot\" in h.asm['ttir']\n+    assert \"triton_gpu.async_wait {num = 2 : i32}\" in h.asm['ttgir']\n+\n+\n @pytest.mark.parametrize(\"dtype_str\", int_dtypes + float_dtypes + ['bfloat16'])\n def test_full(dtype_str, device):\n     dtype = getattr(torch, dtype_str)\n@@ -2045,24 +2247,23 @@ def kernel(out_ptr):\n     h = kernel_patched[(1,)](out)\n     assert re.search(r\"arith.constant .* : \" + dtype_str, h.asm[\"ttir\"]) is not None\n \n-# TODO: uncomment once DotOperandEncoding::getElemsPerThread is implemented\n-# @pytest.mark.parametrize(\"dtype_str\", ['float32', 'float16'])\n-# def test_dot_without_load(dtype_str, device=device):\n-#     @triton.jit\n-#     def _kernel(out):\n-#         a = GENERATE_TEST_HERE\n-#         b = GENERATE_TEST_HERE\n-#         c = tl.dot(a, b)\n-#         out_ptr = out + tl.arange(0, 32)[:, None] * 32 + tl.arange(0, 32)[None, :]\n-#         tl.store(out_ptr, c)\n-\n-#     kernel = patch_kernel(_kernel, {'GENERATE_TEST_HERE': f\"tl.full((32, 32), 1.0, tl.{dtype_str})\"})\n-#     a = torch.ones((32, 32), dtype=getattr(torch, dtype_str), device=device)\n-#     b = torch.ones((32, 32), dtype=getattr(torch, dtype_str), device=device)\n-#     out_ref = torch.matmul(a, b)\n-#     out = torch.zeros((32, 32), dtype=getattr(torch, dtype_str), device=device)\n-#     kernel[(1,)](out)\n-#     assert torch.all(out == out_ref)\n+\n+@pytest.mark.parametrize(\"dtype_str\", ['float32', 'float16'])\n+def test_dot_without_load(dtype_str, device):\n+    @triton.jit\n+    def _kernel(out):\n+        a = GENERATE_TEST_HERE\n+        b = GENERATE_TEST_HERE\n+        c = tl.dot…
k=rk[None, :] < k_remaining, other=0.)\n             b = tl.load(B, mask=rk[:, None] < k_remaining, other=0.)\n+        a = a.to(C.dtype.element_ty)\n+        b = b.to(C.dtype.element_ty)\n         acc += tl.dot(a, b, out_dtype=dot_out_dtype)\n         A += BLOCK_K * SPLIT_K * stride_ak\n         B += BLOCK_K * SPLIT_K * stride_bk\n@@ -131,9 +149,10 @@ def _call(a, b, dot_out_dtype):\n         M, K = a.shape\n         _, N = b.shape\n         # allocates output\n-        c = torch.empty((M, N), device=device, dtype=a.dtype)\n+        c_dtype = get_higher_dtype(a.dtype, b.dtype)\n+        c = torch.empty((M, N), device=device, dtype=c_dtype)\n         if dot_out_dtype is None:\n-            if a.dtype in [torch.float16, torch.float32, torch.bfloat16]:\n+            if c_dtype in [torch.float16, torch.float32, torch.bfloat16]:\n                 dot_out_dtype = tl.float32\n             else:\n                 dot_out_dtype = tl.int32"}, {"filename": "python/triton/runtime/autotuner.py", "status": "modified", "additions": 10, "deletions": 4, "changes": 14, "file_content_changes": "@@ -25,7 +25,7 @@ def __reduce__(self):\n \n \n class Autotuner(KernelInterface):\n-    def __init__(self, fn, arg_names, configs, key, reset_to_zero, prune_configs_by: Dict = None):\n+    def __init__(self, fn, arg_names, configs, key, reset_to_zero, prune_configs_by: Dict = None, warmup=25, rep=100):\n         '''\n         :param prune_configs_by: a dict of functions that are used to prune configs, fields:\n             'perf_model': performance model used to predicate running time with different configs, returns running time\n@@ -58,6 +58,8 @@ def _hook(args):\n         self.perf_model, self.configs_top_k = perf_model, top_k\n         self.early_config_prune = early_config_prune\n         self.fn = fn\n+        self.warmup = warmup\n+        self.rep = rep\n \n     def _bench(self, *args, config, **meta):\n         # check for conflicts, i.e. meta-parameters both provided\n@@ -78,7 +80,7 @@ def kernel_call():\n             self.hook(args)\n             self.fn.run(*args, num_warps=config.num_warps, num_stages=config.num_stages, **current)\n         try:\n-            return do_bench(kernel_call, quantiles=(0.5, 0.2, 0.8))\n+            return do_bench(kernel_call, warmup=self.warmup, rep=self.rep, quantiles=(0.5, 0.2, 0.8))\n         except OutOfResources:\n             return [float('inf'), float('inf'), float('inf')]\n \n@@ -173,7 +175,7 @@ def __str__(self):\n         return ', '.join(res)\n \n \n-def autotune(configs, key, prune_configs_by=None, reset_to_zero=None):\n+def autotune(configs, key, prune_configs_by=None, reset_to_zero=None, warmup=25, rep=100):\n     \"\"\"\n     Decorator for auto-tuning a :code:`triton.jit`'d function.\n \n@@ -204,9 +206,13 @@ def kernel(x_ptr, x_size, **META):\n         'early_config_prune'(optional): a function used to do early prune (eg, num_stages). It takes configs:List[Config] as its input, and returns pruned configs.\n     :param reset_to_zero: a list of argument names whose value will be reset to zero before evaluating any configs.\n     :type reset_to_zero: list[str]\n+    :param warmup: Warmup time (in ms) to pass to benchmarking, defaults to 25.\n+    :type warmup: int\n+    :param rep: Repetition time (in ms) to pass to benchmarking, defaults to 100.\n+    :type rep: int\n     \"\"\"\n     def decorator(fn):\n-        return Autotuner(fn, fn.arg_names, configs, key, reset_to_zero, prune_configs_by)\n+        return Autotuner(fn, fn.arg_names, configs, key, reset_to_zero, prune_configs_by, warmup, rep)\n \n     return decorator\n "}, {"filename": "python/triton/runtime/jit.py", "status": "modified", "additions": 1, "deletions": 2, "changes": 3, "file_content_changes": "@@ -208,9 +208,8 @@ def _type_of(key):\n         dtype_str = str(key).split(\".\")[-1]\n         tys = {\n             \"bool\": \"i1\",\n-            \"float8e4\": \"fp8e4\",\n             \"float8e5\": \"fp8e5\",\n-            \"float8e4b15\": \"fp8e4b15\",\n+            \"float8e4\": \"fp8e4\",\n             \"float16\": \"fp16\",\n             \"bfloat16\": \"bf16\",\n             \"float32\": \"fp32\","}, {"filename": "test/Conversion/triton_ops.mlir", "status": "modified", "additions": 16, "deletions": 0, "changes": 16, "file_content_changes": "@@ -187,3 +187,19 @@ tt.func @print_no_arg(%arg0: !tt.ptr<f32>) {\n   tt.store %arg0, %0 {cache = 1 : i32, evict = 1 : i32} : f32\n   tt.return\n }\n+\n+// CHECK-LABEL: scan_op\n+tt.func @scan_op(%ptr: tensor<1x2x4x!tt.ptr<f32>>, %v : tensor<1x2x4xf32>) {\n+  // CHECK: tt.scan\n+  // CHECK-SAME: axis = 1\n+  // CHECK: tt.scan.return\n+  // CHECK-NEXT: (tensor<1x2x4xf32>) -> tensor<1x2x4xf32>\n+  %a = \"tt.scan\"(%v) <{axis = 1 : i32}>({\n+  ^bb0(%arg0: f32, %arg1: f32):\n+    %add = arith.addf %arg0, %arg1 : f32\n+    tt.scan.return %add : f32\n+  }) : (tensor<1x2x4xf32>) -> tensor<1x2x4xf32>\n+  tt.store %ptr, %a : tensor<1x2x4xf32>\n+  tt.return\n+\n+}"}, {"filename": "test/Conversion/tritongpu_to_llvm.mlir", "status": "modified", "additions": 64, "deletions": 0, "changes": 64, "file_content_changes": "@@ -1159,3 +1159,67 @@ module attributes {\"triton_gpu.num-warps\" = 1 : i32} {\n       tt.return\n   }\n }\n+\n+// -----\n+\n+#mma = #triton_gpu.mma<{versionMajor=2, warpsPerCTA=[2, 2]}>\n+#shared = #triton_gpu.shared<{vec = 1, perPhase = 1, maxPhase = 1, order = [1, 0]}>\n+#blocked = #triton_gpu.blocked<{sizePerThread = [1, 4], threadsPerWarp = [2, 16], warpsPerCTA = [1, 4], order = [1, 0]}>\n+#dot_operand_a = #triton_gpu.dot_op<{opIdx=0, parent=#mma, kWidth=1}>\n+#dot_operand_b = #triton_gpu.dot_op<{opIdx=1, parent=#mma, kWidth=1}>\n+module attributes {\"triton_gpu.num-warps\" = 4 : i32} {\n+  // CHECK-LABEL: matmul_tf32_cst_b\n+  tt.func @matmul_tf32_cst_b(%ptr:!tt.ptr<f32> {tt.divisibility = 16 : i32},\n+  %a: tensor<32x16xf32, #dot_operand_a>, %c: tensor<32x32xf32, #mma>) {\n+  // CHECK: %[[CST:.+]] = llvm.mlir.constant(1.000000e+00 : f32) : f32\n+  // CHECK: %[[BC:.+]] = llvm.bitcast %[[CST]] : f32 to i32\n+  // CHECK: %[[SI:.+]] = llvm.mlir.undef : !llvm.struct<(i32, i32, i32, i32, i32, i32, i32, i32)>\n+  // CHECK: llvm.insertvalue %[[BC]], %[[SI]][0] : !llvm.struct<(i32, i32, i32, i32, i32, i32, i32, i32)>\n+    %b_mat = arith.constant dense<1.000000e+00> : tensor<16x32xf32, #dot_operand_b>\n+    %28 = tt.dot %a, %b_mat, %c {allowTF32 = true, transA = false, transB = false} : tensor<32x16xf32, #dot_operand_a> * tensor<16x32xf32, #dot_operand_b> -> tensor<32x32xf32, #mma>\n+    %38 = triton_gpu.convert_layout %28 : (tensor<32x32xf32, #mma>) -> tensor<32x32xf32, #blocked>\n+    %30 = tt.splat %ptr : (!tt.ptr<f32>) -> tensor<32x1x!tt.ptr<f32>, #blocked>\n+    %36 = tt.broadcast %30 : (tensor<32x1x!tt.ptr<f32>, #blocked>) -> tensor<32x32x!tt.ptr<f32>, #blocked>\n+    tt.store %36, %38 : tensor<32x32xf32, #blocked>\n+    tt.return\n+  }\n+}\n+\n+// -----\n+\n+#blocked = #triton_gpu.blocked<{sizePerThread = [1, 8], threadsPerWarp = [8, 4], warpsPerCTA = [4, 1], order = [1, 0]}>\n+#mma = #triton_gpu.mma<{versionMajor = 2, versionMinor = 0, warpsPerCTA = [2, 2]}>\n+module attributes {\"triton_gpu.num-warps\" = 4 : i32, \"triton_gpu.threads-per-warp\" = 32 : i32} {\n+  // CHECK-LABEL: matmul_f16_cst_operands\n+  tt.func public @matmul_f16_cst_operands(%arg0: !tt.ptr<f16> {tt.divisibility = 16 : i32}) attributes {noinline = false} {\n+    %cst = arith.constant dense<0.000000e+00> : tensor<32x32xf32, #mma>\n+  // CHECK: %[[C1f:.+]] = llvm.mlir.constant(1.000000e+00 : f16) : f16\n+  // CHECK: %[[Ci16:.+]] = llvm.bitcast %[[C1f]] : f16 to i16\n+  // CHECK: %[[U:.+]] = llvm.mlir.undef : vector<2xi16>\n+  // CHECK: %[[C0:.+]] = llvm.mlir.constant(0 : i32) : i32\n+  // CHECK: %[[V0:.+]] = llvm.insertelement %[[Ci16]], %[[U]][%[[C0]] : i32] : vector<2xi16>\n+  // CHECK: %[[C1:.+]] = llvm.mlir.constant(1 : i32) : i32\n+  // CHECK: %[[V1:.+]] = llvm.insertelement %[[Ci16]], %[[V0]][%[[C1]] : i32] : vector<2xi16>\n+  // CHECK: %[[BC:.+]] = llvm.bitcast %[[V1]] : vector<2xi16> to i32\n+  // CHECK: %[[SU:.+]] = llvm.mlir.undef : !llvm.struct<(i32, i32, i32, i32, i32, i32, i32, i32)>\n+  // CHECK: llvm.insertvalue %[[BC]], %[[SU]][0] : !llvm.struct<(i32, i32, i32, i32, i32, i32, i32, i32)>\n+    %cst_0 = arith.constant dense<1.000000e+00> : tensor<32x32xf16, #triton_gpu.dot_op<{opIdx = 0, parent = #mma, kWidth = 2}>>\n+    %cst_1 = arith.constant dense<1.000000e+00> : tensor<32x32xf16, #triton_gpu.dot_op<{opIdx = 1, parent = #mma, kWidth = 2}>>\n+    %cst_2 = arith.constant dense<32> : tensor<32x1xi32, #blocked>\n+    %0 = tt.dot %cst_0, %cst_1, %cst {allowTF32 = true} : tensor<32x32xf16, #triton_gpu.dot_op<{opIdx = 0, parent = #mma, kWidth = 2}>> * tensor<32x32xf16, #triton_gpu.dot_op<{opIdx = 1, parent = #mma, kWidth = 2}>> -> tensor<32x32xf32, #mma>\n+    %1 = triton_gpu.convert_layout %0 : (tensor<32x32xf32, #mma>) -> tensor<32x32xf32, #blocked>\n+    %2 = tt.make_range {end = 32 : i32, start = 0 : i32} : tensor<32xi32, #triton_gpu.slice<{dim = 1, parent = #blocked}>>\n+    %3 = tt.expand_dims %2 {axis = 1 : i32} : (tensor<32xi32, #triton_gpu.slice<{dim = 1, parent = #blocked}>>) -> tensor<32x1xi32, #blocked>\n+    %4 = arith.muli %3, %cst_2 : tensor<32x1xi32, #blocked>\n+    %5 = tt.splat %arg0 : (!tt.ptr<f16>) -> tensor<32x1x!tt.ptr<f16>, #blocked>\n+    %6 = tt.addptr %5, %4 : tensor<32x1x!tt.ptr<f16>, #blocked>, tensor<32x1xi32, #blocked>\n+    %7 = tt.make_range {end = 32 : i32, start = 0 : i32} : tensor<32xi32, #triton_gpu.slice<{dim = 0, parent = #blocked}>>\n+    %8 = tt.expand_dims %7 {axis = 0 : i32} : (tensor<32xi32, #triton_gpu.slice<{dim = 0, parent = #blocked}>>) -> tensor<1x32xi32, #blocked>\n+    %9 = tt.broadcast %6 : (tensor<32x1x!tt.ptr<f16>, #blocked>) -> tensor<32x32x!tt.ptr<f16>, #blocked>\n+    %10 = tt.broadcast %8 : (tensor<1x32xi32, #blocked>) -> tensor<32x32xi32, #blocked>\n+    %11 = tt.addptr %9, %10 : tensor<32x32x!tt.ptr<f16>, #blocked>, tensor<32x32xi32, #blocked>\n+    %12 = arith.truncf %1 : tensor<32x32xf32, #blocked> to tensor<32x32xf16, #blocked>\n+    tt.store %11, %12 {cache = 1 : i32, evict = 1 : i32} : tensor<32x32xf16, #blocked>\n+    tt.return\n+  }\n+}"}, {"filename": "test/TritonGPU/combine.mlir", "status": "modified", "additions": 298, "deletions": 1, "changes": 299, "file_content_changes": "@@ -1122,7 +1122,7 @@ module attributes {\"triton_gpu.num-warps\" = 2 : i32} {\n \n // -----\n \n-// Check if the SimplifyReduceCvt handles convert_layout lifted from the for loop.\n+// Check if SimplifyReduceCvt handles convert_layout lifted from the for loop.\n // CHECK-LABEL: reduce_cvt2\n // Match the reduction\n // CHECK: tt.reduce\n@@ -1202,3 +1202,300 @@ module attributes {\"triton_gpu.num-warps\" = 4 : i32} {\n     tt.return\n   }\n }\n+\n+// -----\n+\n+// Ensure that RematerializeForward doesn't apply when a convert has multiple uses\n+// CHECK-LABEL: loop_convert_multi_uses\n+#blocked = #triton_gpu.blocked<{sizePerThread = [1], threadsPerWarp = [32], warpsPerCTA = [4], order = [0]}>\n+#blocked1 = #triton_gpu.blocked<{sizePerThread = [1, 1], threadsPerWarp = [16, 2], warpsPerCTA = [1, 4], order = [0, 1]}>\n+#blocked2 = #triton_gpu.blocked<{sizePerThread = [1, 1], threadsPerWarp = [32, 1], warpsPerCTA = [4, 1], order = [0, 1]}>\n+#blocked3 = #triton_gpu.blocked<{sizePerThread = [1, 1], threadsPerWarp = [1, 32], warpsPerCTA = [1, 4], order = [0, 1]}>\n+#blocked4 = #triton_gpu.blocked<{sizePerThread = [1, 2], threadsPerWarp = [4, 8], warpsPerCTA = [4, 1], order = [1, 0]}>\n+module attributes {\"triton_gpu.num-warps\" = 4 : i32, \"triton_gpu.threads-per-warp\" = 32 : i32} {\n+  tt.func public @loop_convert_multi_uses(%arg0: i32 {tt.divisibility = 16 : i32}, %arg1: i32, %arg2: !tt.ptr<f16> {tt.divisibility = 16 : i32}, %arg3: i32 {tt.divisibility = 16 : i32}, %arg4: i32 {tt.divisibility = 16 : i32}, %arg5: i32 {tt.divisibility = 16 : i32}, %arg6: i32 {tt.divisibility = 16 : i32}, %arg7: !tt.ptr<f32> {tt.divisibility = 16 : i32}, %arg8: i32 {tt.divisibility = 16 : i32}, %arg9: i32, %arg10: !tt.ptr<f32> {tt.divisibility = 16 : i32}, %arg11: i32 {tt.divisibility = 16 : i32}, %arg12: i32, %arg13: !tt.ptr<f16> {tt.divisibility = 16 : i32}, %arg14: i32 {tt.divisibility = 16 : i32}, %arg15: i32 {tt.divisibility = 16 : i32}, %arg16: i32 {tt.divisibility = 16 : i32}) attributes {noinline = false} {\n+    %cst = arith.constant dense<0xFF800000> : tensor<16xf32, #blocked>\n+    %c1_i32 = arith.constant 1 : i32\n+    %c0_i32 = arith.constant 0 : i32\n+    %cst_0 = arith.constant dense<0.000000e+00> : tensor<16xf32, #blocked>\n+    %cst_1 = arith.constant dense<1> : tensor<16xi32, #blocked>\n+    %cst_2 = arith.constant dense<0.000000e+00> : tensor<16x16xf32, #blocked1>\n+    %cst_3 = arith.constant dense<1> : tensor<16x1xi32, #blocked1>\n+    %c16_i32 = arith.constant 16 : i32\n+    %0 = tt.get_program_id x : i32\n+    %1 = tt.get_program_id y : i32\n+    %2 = arith.divsi %1, %arg0 : i32\n+    %3 = arith.remsi %1, %arg0 : i32\n+    %4 = tt.make_range {end = 16 : i32, start = 0 : i32} : tensor<16xi32, #blocked>\n+    %5 = arith.muli %0, %c16_i32 : i32\n+    %6 = tt.splat %5 : (i32) -> tensor<16xi32, #blocked>\n+    %7 = arith.addi %6, %4 : tensor<16xi32, #blocked>\n+    %8 = arith.muli %2, %arg3 : i32\n+    %9 = arith.muli %3, %arg4 : i32\n+    %10 = arith.addi %8, %9 : i32\n+    %11 = triton_gpu.convert_layout %7 : (tensor<16xi32, #blocked>) -> tensor<16xi32, #triton_gpu.slice<{dim = 1, parent = #blocked2}>>\n+    %12 = tt.expand_dims %11 {axis = 1 : i32} : (tensor<16xi32, #triton_gpu.slice<{dim = 1, parent = #blocked2}>>) -> tensor<16x1xi32, #blocked2>\n+    %13 = triton_gpu.convert_layout %12 : (tensor<16x1xi32, #blocked2>) -> tensor<16x1xi32, #blocked1>\n+    %14 = tt.splat %arg6 : (i32) -> tensor<16x1xi32, #blocked1>\n+    %15 = arith.muli %13, %14 : tensor<16x1xi32, #blocked1>\n+    %16 = triton_gpu.convert_layout %4 : (tensor<16xi32, #blocked>) -> tensor<16xi32, #triton_gpu.slice<{dim = 0, parent = #blocked3}>>\n+    %17 = tt.expand_dims %16 {axis = 0 : i32} : (tensor<16xi32, #triton_gpu.slice<{dim = 0, parent = #blocked3}>>) -> tensor<1x16xi32, #blocked3>\n+    %18 = tt.broadcast %15 : (tensor<16x1xi32, #blocked1>) -> tensor<16x16xi32, #blocked1>\n+    %19 = tt.broadcast %17 : (tensor<1x16xi32, #blocked3>) -> tensor<16x16xi32, #blocked3>\n+    %20 = triton_gpu.convert_layout %19 : (tensor<16x16xi32, #blocked3>) -> tensor<16x16xi32, #blocked1>\n+    %21 = arith.addi %18, %20 : tensor<16x16xi32, #blocked1>\n+    %22 = tt.splat %arg2 : (!tt.ptr<f16>) -> tensor<16x16x!tt.ptr<f16>, #blocked1>\n+    %23 = \"triton_gpu.cmpi\"(%13, %cst_3) <{predicate = 2 : i64}> : (tensor<16x1xi32, #blocked1>, tensor<16x1xi32, #blocked1>) -> tensor<16x1xi1, #blocked1>\n+    %24 = tt.broadcast %23 : (tensor<16x1xi1, #blocked1>) -> tensor<16x16xi1, #blocked1>\n+    %25 = arith.truncf %cst_2 : tensor<16x16xf32, #blocked1> to tensor<16x16xf16, #blocked1>\n+    %26 = arith.muli %2, %arg11 : i32\n+    %27 = arith.muli %3, %arg12 : i32\n+    %28 = arith.addi %26, %27 : i32\n+    %29 = tt.splat %arg10 : (!tt.ptr<f32>) -> tensor<16x!tt.ptr<f32>, #blocked>\n+    %30 = \"triton_gpu.cmpi\"(%7, %cst_1) <{predicate = 2 : i64}> : (tensor<16xi32, #blocked>, tensor<16xi32, #blocked>) -> tensor<16xi1, #blocked>\n+    %31 = arith.muli %2, %arg8 : i32\n+    %32 = arith.muli %3, %arg9 : i32\n+    %33 = arith.addi %31, %32 : i32\n+    %34 = tt.splat %arg7 : (!tt.ptr<f32>) -> tensor<16x!tt.ptr<f32>, #blocked>\n+    %35:3 = scf.for %arg17 = %c0_i32 to %arg1 step %c1_i32 iter_args(%arg18 = %cst_2, %arg19 = %cst_0, %arg20 = %cst) -> (tensor<16x16xf32, #blocked1>, tensor<16xf32, #blocked>, tensor<16xf32, #blocked>)  : i32 {\n+      %60 = arith.muli %arg17, %arg5 : i32\n+      %61 = arith.addi %10, %60 : i32\n+      %62 = tt.splat %61 : (i32) -> tensor<16x16xi32, #blocked1>\n+      %63 = arith.addi %62, %21 : tensor<16x16xi32, #blocked1>\n+      %64 = tt.addptr %22, %63 : tensor<16x16x!tt.ptr<f16>, #blocked1>, tensor<16x16xi32, #blocked1>\n+      %65 = triton_gpu.convert_layout %64 : (tensor<16x16x!tt.ptr<f16>, #blocked1>) -> tensor<16x16x!tt.ptr<f16>, #blocked4>\n+      %66 = triton_gpu.convert_layout %24 : (tensor<16x16xi1, #blocked1>) -> tensor<16x16xi1, #blocked4>\n+      %67 = triton_gpu.convert_layout %25 : (tensor<16x16xf16, #blocked1>) -> tensor<16x16xf16, #blocked4>\n+      %68 = tt.load %65, %66, %67 {cache = 1 : i32, evict = 1 : i32, isVolatile = false} : tensor<16x16xf16, #blocked4>\n+      %69 = triton_gpu.convert_layout %68 : (tensor<16x16xf16, #blocked4>) -> tensor<16x16xf16, #blocked1>\n+      %70 = arith.addi %28, %arg17 : i32\n+      %71 = tt.splat %70 : (i32) -> tensor<16xi32, #blocked>\n+      %72 = arith.addi %71, %7 : tensor<16xi32, #blocked>\n+      %73 = tt.addptr %29, %72 : tensor<16x!tt.ptr<f32>, #blocked>, tensor<16xi32, #blocked>\n+      %74 = triton_gpu.convert_layout %73 : (tensor<16x!tt.ptr<f32>, #blocked>) -> tensor<16x!tt.ptr<f32>, #blocked>\n+      %75 = triton_gpu.convert_layout %30 : (tensor<16xi1, #blocked>) -> tensor<16xi1, #blocked>\n+      %76 = triton_gpu.convert_layout %cst_0 : (tensor<16xf32, #blocked>) -> tensor<16xf32, #blocked>\n+      %77 = tt.load %74, %75, %76 {cache = 1 : i32, evict = 1 : i32, isVolatile = false} : tensor<16xf32, #blocked>\n+      %78 = arith.addi %33, %arg17 : i32\n+      %79 = tt.splat %78 : (i32) -> tensor<16xi32, #blocked>\n+      %80 = arith.addi %79, %7 : tensor<16xi32, #blocked>\n+      %81 = tt.addptr %34, %80 : tensor<16x!tt.ptr<f32>, #blocked>, tensor<16xi32, #blocked>\n+      %82 = triton_gpu.convert_layout %81 : (tensor<16x!tt.ptr<f32>, #blocked>) -> tensor<16x!tt.ptr<f32>, #blocked>\n+      %83 = triton_gpu.convert_layout %30 : (tensor<16xi1, #blocked>) -> tensor<16xi1, #blocked>\n+      %84 = triton_gpu.convert_layout %cst_0 : (tensor<16xf32, #blocked>) -> tensor<16xf32, #blocked>\n+      %85 = tt.load %82, %83, %84 {cache = 1 : i32, evict = 1 : i32, isVolatile = false} : tensor<16xf32, #blocked>\n+      %86 = \"triton_gpu.cmpf\"(%arg20, %85) <{predicate = 2 : i64}> : (tensor<16xf32, #blocked>, tensor<16xf32, #blocked>) -> tensor<16xi1, #blocked>\n+      %87 = \"triton_gpu.select\"(%86, %arg20, %85) : (tensor<16xi1, #blocked>, tensor<16xf32, #blocked>, tensor<16xf32, #blocked>) -> tensor<16xf32, #blocked>\n+      %88 = arith.subf %arg20, %87 : tensor<16xf32, #blocked>\n+      %89 = math.exp %88 : tensor<16xf32, #blocked>\n+      %90 = arith.subf %85, %87 : tensor<16xf32, #blocked>\n+      %91 = math.exp %90 : tensor<16xf32, #blocked>\n+      %92 = arith.mulf %89, %arg19 : tensor<16xf32, #blocked>\n+      %93 = arith.mulf %91, %77 : tensor<16xf32, #blocked>\n+      %94 = arith.addf %92, %93 : tensor<16xf32, #blocked>\n+      %95 = arith.divf %91, %94 : tensor<16xf32, #blocked>\n+      %96 = arith.divf %arg19, %94 : tensor<16xf32, #blocked>\n+      %97 = arith.mulf %96, %89 : tensor<16xf32, #blocked>\n+      %98 = triton_gpu.convert_layout %97 : (tensor<16xf32, #blocked>) -> tensor<16xf32, #triton_gpu.slice<{dim = 1, parent = #blocked2}>>\n+      %99 = tt.expand_dims %98 {axis = 1 : i32} : (tensor<16xf32, #triton_gpu.slice<{dim = 1, parent = #blocked2}>>) -> tensor<16x1xf32, #blocked2>\n+      %100 = triton_gpu.convert_layout %99 : (tensor<16x1xf32, #blocked2>) -> tensor<16x1xf32, #blocked1>\n+      %101 = tt.broadcast %100 : (tensor<16x1xf32, #blocked1>) -> tensor<16x16xf32, #blocked1>\n+      %102 = arith.mulf %arg18, %101 : tensor<16x16xf32, #blocked1>\n+      %103 = triton_gpu.convert_layout %95 : (tensor<16xf32, #blocked>) -> tensor<16xf32, #triton_gpu.slice<{dim = 1, parent = #blocked2}>>\n+      %104 = tt.expand_dims %103 {axis = 1 : i32} : (tensor<16xf32, #triton_gpu.slice<{dim = 1, parent = #blocked2}>>) -> tensor<16x1xf32, #blocked2>\n+      %105 = triton_gpu.convert_layout %104 : (tensor<16x1xf32, #blocked2>) -> tensor<16x1xf32, #blocked1>\n+      %106 = tt.broadcast %105 : (tensor<16x1xf32, #blocked1>) -> tensor<16x16xf32, #blocked1>\n+      %107 = arith.extf %69 : tensor<16x16xf16, #blocked1> to tensor<16x16xf32, #blocked1>\n+      %108 = arith.mulf %107, %106 : tensor<16x16xf32, #blocked1>\n+      %109 = arith.addf %102, %108 : tensor<16x16xf32, #blocked1>\n+      scf.yield %109, %94, %87 : tensor<16x16xf32, #blocked1>, tensor<16xf32, #blocked>, tensor<16xf32, #blocked>\n+    }\n+    %36 = arith.muli %2, %arg14 : i32\n+    %37 = arith.muli %3, %arg15 : i32\n+    %38 = arith.addi %36, %37 : i32\n+    %39 = triton_gpu.convert_layout %7 : (tensor<16xi32, #blocked>) -> tensor<16xi32, #triton_gpu.slice<{dim = 1, parent = #blocked2}>>\n+    %40 = tt.expand_dims %39 {axis = 1 : i32} : (tensor<16xi32, #triton_gpu.slice<{dim = 1, parent = #blocked2}>>) -> tensor<16x1xi32, #blocked2>\n+    %41 = triton_gpu.convert_layout %40 : (tensor<16x1xi32, #blocked2>) -> tensor<16x1xi32, #blocked1>\n+    %42 = tt.splat %arg16 : (i32) -> tensor<16x1xi32, #blocked1>\n+    %43 = arith.muli %41, %42 : tensor<16x1xi32, #blocked1>\n+    %44 = triton_gpu.convert_layout %4 : (tensor<16xi32, #blocked>) -> tensor<16xi32, #triton_gpu.slice<{dim = 0, parent = #blocked3}>>\n+    %45 = tt.expand_dims %44 {axis = 0 : i32} : (tensor<16xi32, #triton_gpu.slice<{dim = 0, parent = #blocked3}>>) -> tensor<1x16xi32, #blocked3>\n+    %46 = tt.broadcast %43 : (tensor<16x1xi32, #blocked1>) -> tensor<16x16xi32, #blocked1>\n+    %47 = tt.broadcast %45 : (tensor<1x16xi32, #blocked3>) -> tensor<16x16xi32, #blocked3>\n+    %48 = triton_gpu.convert_layout %47 : (tensor<16x16xi32, #blocked3>) -> tensor<16x16xi32, #blocked1>\n+    %49 = arith.addi %46, %48 : tensor<16x16xi32, #blocked1>\n+    %50 = tt.splat %38 : (i32) -> tensor<16x16xi32, #blocked1>\n+    %51 = arith.addi %50, %49 : tensor<16x16xi32, #blocked1>\n+    %52 = tt.splat %arg13 : (!tt.ptr<f16>) -> tensor<16x16x!tt.ptr<f16>, #blocked1>\n+    %53 = tt.addptr %52, %51 : tensor<16x16x!tt.ptr<f16>, #blocked1>, tensor<16x16xi32, #blocked1>\n+    %54 = \"triton_gpu.cmpi\"(%41, %cst_3) <{predicate = 2 : i64}> : (tensor<16x1xi32, #blocked1>, tensor<16x1xi32, #blocked1>) -> tensor<16x1xi1, #blocked1>\n+    %55 = tt.broadcast %54 : (tensor<16x1xi1, #blocked1>) -> tensor<16x16xi1, #blocked1>\n+    %56 = arith.truncf %35#0 : tensor<16x16xf32, #blocked1> to tensor<16x16xf16, #blocked1>\n+    %57 = triton_gpu.convert_layout %53 : (tensor<16x16x!tt.ptr<f16>, #blocked1>) -> tensor<16x16x!tt.ptr<f16>, #blocked4>\n+    %58 = triton_gpu.convert_layout %56 : (tensor<16x16xf16, #blocked1>) -> tensor<16x16xf16, #blocked4>\n+    %59 = triton_gpu.convert_layout %55 : (tensor<16x16xi1, #blocked1>) -> tensor<16x16xi1, #blocked4>\n+    tt.store %57, %58, %59 {cache = 1 : i32, evict = 1 : i32} : tensor<16x16xf16, #blocked4>\n+    tt.return\n+  }\n+}\n+\n+// -----\n+\n+// Check if MoveConvertOutOfLoop hangs because of adding additional conversions\n+// CHECK-LABEL: loop_print\n+// CHECK-NOT: triton_gpu.convert_layout\n+#blocked = #triton_gpu.blocked<{sizePerThread = [1, 1], threadsPerWarp = [32, 1], warpsPerCTA = [1, 4], order = [0, 1]}>\n+#blocked1 = #triton_gpu.blocked<{sizePerThread = [1, 1], threadsPerWarp = [32, 1], warpsPerCTA = [4, 1], order = [0, 1]}>\n+#blocked2 = #triton_gpu.blocked<{sizePerThread = [1], threadsPerWarp = [32], warpsPerCTA = [4], order = [0]}>\n+#blocked3 = #triton_gpu.blocked<{sizePerThread = [1, 1], threadsPerWarp = [1, 32], warpsPerCTA = [1, 4], order = [0, 1]}>\n+#blocked4 = #triton_gpu.blocked<{sizePerThread = [1, 8], threadsPerWarp = [8, 4], warpsPerCTA = [4, 1], order = [1, 0]}>\n+#blocked5 = #triton_gpu.blocked<{sizePerThread = [1, 1], threadsPerWarp = [1, 32], warpsPerCTA = [1, 4], order = [1, 0]}>\n+module attributes {\"triton_gpu.num-warps\" = 4 : i32, \"triton_gpu.threads-per-warp\" = 32 : i32} {\n+  tt.func public @loop_print(%arg0: !tt.ptr<f16> {tt.divisibility = 16 : i32}, %arg1: !tt.ptr<f16> {tt.divisibility = 16 : i32}, %arg2: !tt.ptr<f16> {tt.divisibility = 16 : i32}, %arg3: i32 {tt.divisibility = 16 : i32}, %arg4: i32 {tt.divisibility = 16 : i32}, %arg5: i32 {tt.divisibility = 16 : i32}, %arg6: i32 {tt.divisibility = 16 : i32}) attributes {noinline = false} {\n+    %c32_i32 = arith.constant 32 : i32\n+    %c31_i32 = arith.constant 31 : i32\n+    %c0_i32 = arith.constant 0 : i32\n+    %c1_i32 = arith.constant 1 : i32\n+    %cst = arith.constant dense<32> : tensor<32x128xi32, #blocked>\n+    %cst_0 = arith.constant dense<32> : tensor<128x32xi32, #blocked1>\n+    %cst_1 = arith.constant 0.000000e+00 : f32\n+    %0 = tt.make_range {end = 128 : i32, start = 0 : i32} : tensor<128xi32, #blocked2>\n+    %1 = triton_gpu.convert_layout %0 : (tensor<128xi32, #blocked2>) -> tensor<128xi32, #triton_gpu.slice<{dim = 1, parent = #blocked1}>>\n+    %2 = tt.expand_dims %1 {axis = 1 : i32} : (tensor<128xi32, #triton_gpu.slice<{dim = 1, parent = #blocked1}>>) -> tensor<128x1xi32, #blocked1>\n+    %3 = tt.splat %arg6 : (i32) -> tensor<128x1xi32, #blocked1>\n+    %4 = arith.muli %2, %3 : tensor<128x1xi32, #blocked1>\n+    %5 = tt.make_range {end = 32 : i32, start = 0 : i32} : tensor<32xi32, #blocked2>\n+    %6 = triton_gpu.convert_layout %5 : (tensor<32xi32, #blocked2>) -> tensor<32xi32, #triton_gpu.slice<{dim = 0, parent = #blocked3}>>\n+    %7 = tt.expand_dims %6 {axis = 0 : i32} : (tensor<32xi32, #triton_gpu.slice<{dim = 0, parent = #blocked3}>>) -> tensor<1x32xi32, #blocked3>\n+    %8 = tt.broadcast %4 : (tensor<128x1xi32, #blocked1>) -> tensor<128x32xi32, #blocked1>\n+    %9 = tt.broadcast %7 : (tensor<1x32xi32, #blocked3>) -> tensor<128x32xi32, #blocked3>\n+    %10 = triton_gpu.convert_layout %9 : (tensor<128x32xi32, #blocked3>) -> tensor<128x32xi32, #blocked1>\n+    %11 = arith.addi %8, %10 : tensor<128x32xi32, #blocked1>\n+    %12 = triton_gpu.convert_layout %5 : (tensor<32xi32, #blocked2>) -> tensor<32xi32, #triton_gpu.slice<{dim = 1, parent = #blocked1}>>\n+    %13 = tt.expand_dims %12 {axis = 1 : i32} : (tensor<32xi32, #triton_gpu.slice<{dim = 1, parent = #blocked1}>>) -> tensor<32x1xi32, #blocked1>\n+    %14 = triton_gpu.convert_layout %13 : (tensor<32x1xi32, #blocked1>) -> tensor<32x1xi32, #blocked>\n+    %15 = triton_gpu.convert_layout %0 : (tensor<128xi32, #blocked2>) -> tensor<128xi32, #triton_gpu.slice<{dim = 0, parent = #blocked3}>>\n+    %16 = tt.expand_dims %15 {axis = 0 : i32} : (tensor<128xi32, #triton_gpu.slice<{dim = 0, parent = #blocked3}>>) -> tensor<1x128xi32, #blocked3>\n+    %17 = tt.broadcast %14 : (tensor<32x1xi32, #blocked>) -> tensor<32x128xi32, #blocked>\n+    %18 = tt.broadcast %16 : (tensor<1x128xi32, #blocked3>) -> tensor<32x128xi32, #blocked3>\n+    %19 = triton_gpu.convert_layout %18 : (tensor<32x128xi32, #blocked3>) -> tensor<32x128xi32, #blocked>\n+    %20 = arith.addi %17, %19 : tensor<32x128xi32, #blocked>\n+    %21 = arith.addi %arg5, %c31_i32 : i32\n+    %22 = arith.divsi %21, %c32_i32 : i32\n+    %23 = tt.splat %arg0 : (!tt.ptr<f16>) -> tensor<128x32x!tt.ptr<f16>, #blocked1>\n+    %24 = tt.splat %arg1 : (!tt.ptr<f16>) -> tensor<32x128x!tt.ptr<f16>, #blocked>\n+    %25:3 = scf.for %arg7 = %c0_i32 to %22 step %c1_i32 iter_args(%arg8 = %cst_1, %arg9 = %11, %arg10 = %20) -> (f32, tensor<128x32xi32, #blocked1>, tensor<32x128xi32, #blocked>)  : i32 {\n+      tt.print \"a_offsets: \" : %arg9 : tensor<128x32xi32, #blocked1>\n+      %27 = tt.addptr %23, %arg9 : tensor<128x32x!tt.ptr<f16>, #blocked1>, tensor<128x32xi32, #blocked1>\n+      %28 = triton_gpu.convert_layout %27 : (tensor<128x32x!tt.ptr<f16>, #blocked1>) -> tensor<128x32x!tt.ptr<f16>, #blocked4>\n+      %29 = tt.load %28 {cache = 1 : i32, evict = 1 : i32, isVolatile = false} : tensor<128x32xf16, #blocked4>\n+      %30 = triton_gpu.convert_layout %29 : (tensor<128x32xf16, #blocked4>) -> tensor<128x32xf16, #blocked1>\n+      %31 = tt.addptr %24, %arg10 : tensor<32x128x!tt.ptr<f16>, #blocked>, tensor<32x128xi32, #blocked>\n+      %32 = triton_gpu.convert_layout %31 : (tensor<32x128x!tt.ptr<f16>, #blocked>) -> tensor<32x128x!tt.ptr<f16>, #blocked5>\n+      %33 = tt.load %32 {cache = 1 : i32, evict = 1 : i32, isVolatile = false} : tensor<32x128xf16, #blocked5>\n+      %34 = triton_gpu.convert_layout %33 : (tensor<32x128xf16, #blocked5>) -> tensor<32x128xf16, #blocked>\n+      %35 = \"tt.reduce\"(%30) <{axis = 0 : i32}> ({\n+      ^bb0(%arg11: f16, %arg12: f16):\n+        %46 = arith.addf %arg11, %arg12 : f16\n+        tt.reduce.return %46 : f16\n+      }) : (tensor<128x32xf16, #blocked1>) -> tensor<32xf16, #triton_gpu.slice<{dim = 0, parent = #blocked1}>>\n+      %36 = triton_gpu.convert_layout %35 : (tensor<32xf16, #triton_gpu.slice<{dim = 0, parent = #blocked1}>>) -> tensor<32xf16, #blocked2>\n+      %37 = \"tt.reduce\"(%36) <{axis = 0 : i32}> ({\n+      ^bb0(%arg11: f16, %arg12: f16):\n+        %46 = arith.addf %arg11, %arg12 : f16\n+        tt.reduce.return %46 : f16\n+      }) : (tensor<32xf16, #blocked2>) -> f16\n+      %38 = \"tt.reduce\"(%34) <{axis = 0 : i32}> ({\n+      ^bb0(%arg11: f16, %arg12: f16):\n+        %46 = arith.addf %arg11, %arg12 : f16\n+        tt.reduce.return %46 : f16\n+      }) : (tensor<32x128xf16, #blocked>) -> tensor<128xf16, #triton_gpu.slice<{dim = 0, parent = #blocked}>>\n+      %39 = triton_gpu.convert_layout %38 : (tensor<128xf16, #triton_gpu.slice<{dim = 0, parent = #blocked}>>) -> tensor<128xf16, #blocked2>\n+      %40 = \"tt.reduce\"(%39) <{axis = 0 : i32}> ({\n+      ^bb0(%arg11: f16, %arg12: f16):\n+        %46 = arith.addf %arg11, %arg12 : f16\n+        tt.reduce.return %46 : f16\n+      }) : (tensor<128xf16, #blocked2>) -> f16\n+      %41 = arith.addf %37, %40 : f16\n+      %42 = arith.extf %41 : f16 to f32\n+      %43 = arith.addf %arg8, %42 : f32\n+      %44 = arith.addi %arg9, %cst_0 : tensor<128x32xi32, #blocked1>\n+      %45 = arith.addi %arg10, %cst : tensor<32x128xi32, #blocked>\n+      scf.yield %43, %44, %45 : f32, tensor<128x32xi32, #blocked1>, tensor<32x128xi32, #blocked>\n+    }\n+    %26 = arith.truncf %25#0 : f32 to f16\n+    tt.store %arg2, %26 {cache = 1 : i32, evict = 1 : i32} : f16\n+    tt.return\n+  }\n+}\n+\n+// -----\n+\n+// Check if SimplifyReduceCvt handles the cvt,reduce->reduce,cvt conversion but not the general push forward conversion\n+// CHECK-LABEL: reduce_cvt3\n+// CHECK: tt.dot\n+// CHECK-NEXT: tt.reduce\n+// CHECK: triton_gpu.convert_layout\n+#blocked = #triton_gpu.blocked<{sizePerThread = [1, 1], threadsPerWarp = [32, 1], warpsPerCTA = [1, 4], order = [0, 1]}>\n+#blocked1 = #triton_gpu.blocked<{sizePerThread = [1], threadsPerWarp = [32], warpsPerCTA = [4], order = [0]}>\n+#blocked2 = #triton_gpu.blocked<{sizePerThread = [1, 1], threadsPerWarp = [32, 1], warpsPerCTA = [4, 1], order = [0, 1]}>\n+#blocked3 = #triton_gpu.blocked<{sizePerThread = [1, 1], threadsPerWarp = [1, 32], warpsPerCTA = [1, 4], order = [0, 1]}>\n+#blocked4 = #triton_gpu.blocked<{sizePerThread = [1, 8], threadsPerWarp = [8, 4], warpsPerCTA = [4, 1], order = [1, 0]}>\n+#blocked5 = #triton_gpu.blocked<{sizePerThread = [2, 2], threadsPerWarp = [2, 16], warpsPerCTA = [4, 1], order = [1, 0]}>\n+#shared = #triton_gpu.shared<{vec = 1, perPhase = 1, maxPhase = 1, order = [0, 1]}>\n+#shared1 = #triton_gpu.shared<{vec = 1, perPhase = 1, maxPhase = 1, order = [1, 0]}>\n+module attributes {\"triton_gpu.num-warps\" = 4 : i32, \"triton_gpu.threads-per-warp\" = 32 : i32} {\n+  tt.func public @reduce_cvt3(%arg0: !tt.ptr<f16> {tt.divisibility = 16 : i32}, %arg1: !tt.ptr<f16> {tt.divisibility = 16 : i32}, %arg2: !tt.ptr<i32> {tt.divisibility = 16 : i32}) attributes {noinline = false} {\n+    %cst = arith.constant dense<0.000000e+00> : tensor<32x32xf32, #blocked>\n+    %cst_0 = arith.constant dense<32> : tensor<32x1xi32, #blocked>\n+    %0 = tt.make_range {end = 32 : i32, start = 0 : i32} : tensor<32xi32, #blocked1>\n+    %1 = triton_gpu.convert_layout %0 : (tensor<32xi32, #blocked1>) -> tensor<32xi32, #triton_gpu.slice<{dim = 1, parent = #blocked2}>>\n+    %2 = tt.expand_dims %1 {axis = 1 : i32} : (tensor<32xi32, #triton_gpu.slice<{dim = 1, parent = #blocked2}>>) -> tensor<32x1xi32, #blocked2>\n+    %3 = triton_gpu.convert_layout %2 : (tensor<32x1xi32, #blocked2>) -> tensor<32x1xi32, #blocked>\n+    %4 = arith.muli %3, %cst_0 : tensor<32x1xi32, #blocked>\n+    %5 = tt.splat %arg0 : (!tt.ptr<f16>) -> tensor<32x1x!tt.ptr<f16>, #blocked>\n+    %6 = tt.addptr %5, %4 : tensor<32x1x!tt.ptr<f16>, #blocked>, tensor<32x1xi32, #blocked>\n+    %7 = triton_gpu.convert_layout %0 : (tensor<32xi32, #blocked1>) -> tensor<32xi32, #triton_gpu.slice<{dim = 0, parent = #blocked3}>>\n+    %8 = tt.expand_dims %7 {axis = 0 : i32} : (tensor<32xi32, #triton_gpu.slice<{dim = 0, parent = #blocked3}>>) -> tensor<1x32xi32, #blocked3>\n+    %9 = tt.broadcast %6 : (tensor<32x1x!tt.ptr<f16>, #blocked>) -> tensor<32x32x!tt.ptr<f16>, #blocked>\n+    %10 = tt.broadcast %8 : (tensor<1x32xi32, #blocked3>) -> tensor<32x32xi32, #blocked3>\n+    %11 = triton_gpu.convert_layout %10 : (tensor<32x32xi32, #blocked3>) -> tensor<32x32xi32, #blocked>\n+    %12 = tt.addptr %9, %11 : tensor<32x32x!tt.ptr<f16>, #blocked>, tensor<32x32xi32, #blocked>\n+    %13 = tt.splat %arg1 : (!tt.ptr<f16>) -> tensor<32x1x!tt.ptr<f16>, #blocked>\n+    %14 = tt.addptr %13, %4 : tensor<32x1x!tt.ptr<f16>, #blocked>, tensor<32x1xi32, #blocked>\n+    %15 = tt.broadcast %14 : (tensor<32x1x!tt.ptr<f16>, #blocked>) -> tensor<32x32x!tt.ptr<f16>, #blocked>\n+    %16 = tt.addptr %15, %11 : tensor<32x32x!tt.ptr<f16>, #blocked>, tensor<32x32xi32, #blocked>\n+    %17 = triton_gpu.convert_layout %12 : (tensor<32x32x!tt.ptr<f16>, #blocked>) -> tensor<32x32x!tt.ptr<f16>, #blocked4>\n+    %18 = tt.load %17 {cache = 1 : i32, evict = 1 : i32, isVolatile = false} : tensor<32x32xf16, #blocked4>\n+    %19 = triton_gpu.convert_layout %18 : (tensor<32x32xf16, #blocked4>) -> tensor<32x32xf16, #blocked>\n+    %20 = triton_gpu.convert_layout %16 : (tensor<32x32x!tt.ptr<f16>, #blocked>) -> tensor<32x32x!tt.ptr<f16>, #blocked4>\n+    %21 = tt.load %20 {cache = 1 : i32, evict = 1 : i32, isVolatile = false} : tensor<32x32xf16, #blocked4>\n+    %22 = triton_gpu.convert_layout %21 : (tensor<32x32xf16, #blocked4>) -> tensor<32x32xf16, #blocked>\n+    %23 = triton_gpu.convert_layout %22 : (tensor<32x32xf16, #blocked>) -> tensor<32x32xf16, #shared>\n+    %24 = tt.trans %23 : (tensor<32x32xf16, #shared>) -> tensor<32x32xf16, #shared1>\n+    %25 = triton_gpu.convert_layout %24 : (tensor<32x32xf16, #shared1>) -> tensor<32x32xf16, #blocked>\n+    %26 = triton_gpu.convert_layout %19 : (tensor<32x32xf16, #blocked>) -> tensor<32x32xf16, #triton_gpu.dot_op<{opIdx = 0, parent = #blocked5}>>\n+    %27 = triton_gpu.convert_layout %25 : (tensor<32x32xf16, #blocked>) -> tensor<32x32xf16, #triton_gpu.dot_op<{opIdx = 1, parent = #blocked5}>>\n+    %28 = triton_gpu.convert_layout %cst : (tensor<32x32xf32, #blocked>) -> tensor<32x32xf32, #blocked5>\n+    %29 = tt.dot %26, %27, %28 {allowTF32 = true} : tensor<32x32xf16, #triton_gpu.dot_op<{opIdx = 0, parent = #blocked5}>> * tensor<32x32xf16, #triton_gpu.dot_op<{opIdx = 1, parent = #blocked5}>> -> tensor<32x32xf32, #blocked5>\n+    %30 = triton_gpu.convert_layout %29 : (tensor<32x32xf32, #blocked5>) -> tensor<32x32xf32, #blocked>\n+    %31:2 = \"tt.reduce\"(%30, %11) <{axis = 1 : i32}> ({\n+    ^bb0(%arg3: f32, %arg4: i32, %arg5: f32, %arg6: i32):\n+      %37 = \"triton_gpu.cmpf\"(%arg3, %arg5) <{predicate = 1 : i64}> : (f32, f32) -> i1\n+      %38 = \"triton_gpu.cmpi\"(%arg4, %arg6) <{predicate = 2 : i64}> : (i32, i32) -> i1\n+      %39 = arith.andi %37, %38 : i1\n+      %40 = \"triton_gpu.cmpf\"(%arg3, %arg5) <{predicate = 2 : i64}> : (f32, f32) -> i1\n+      %41 = arith.ori %40, %39 : i1\n+      %42 = arith.select %41, %arg3, %arg5 : f32\n+      %43 = arith.select %41, %arg4, %arg6 : i32\n+      tt.reduce.return %42, %43 : f32, i32\n+    }) : (tensor<32x32xf32, #blocked>, tensor<32x32xi32, #blocked>) -> (tensor<32xf32, #triton_gpu.slice<{dim = 1, parent = #blocked}>>, tensor<32xi32, #triton_gpu.slice<{dim = 1, parent = #blocked}>>)\n+    %32 = triton_gpu.convert_layout %31#1 : (tensor<32xi32, #triton_gpu.slice<{dim = 1, parent = #blocked}>>) -> tensor<32xi32, #blocked1>\n+    %33 = tt.splat %arg2 : (!tt.ptr<i32>) -> tensor<32x!tt.ptr<i32>, #blocked1>\n+    %34 = tt.addptr %33, %0 : tensor<32x!tt.ptr<i32>, #blocked1>, tensor<32xi32, #blocked1>\n+    %35 = triton_gpu.convert_layout %34 : (tensor<32x!tt.ptr<i32>, #blocked1>) -> tensor<32x!tt.ptr<i32>, #blocked1>\n+    %36 = triton_gpu.convert_layout %32 : (tensor<32xi32, #blocked1>) -> tensor<32xi32, #blocked1>\n+    tt.store %35, %36 {cache = 1 : i32, evict = 1 : i32} : tensor<32xi32, #blocked1>\n+    tt.return\n+  }\n+}"}, {"filename": "test/TritonGPU/dot-operands.mlir", "status": "modified", "additions": 39, "deletions": 0, "changes": 39, "file_content_changes": "@@ -184,3 +184,42 @@ tt.func @push_convert_both_operands(\n }\n \n }\n+\n+// -----\n+\n+#blockedA = #triton_gpu.blocked<{sizePerThread = [1, 2], threadsPerWarp = [4, 8], warpsPerCTA = [4, 1], order = [1, 0]}>\n+#blockedB = #triton_gpu.blocked<{sizePerThread = [2, 1], threadsPerWarp = [8, 4], warpsPerCTA = [1, 4], order = [0, 1]}>\n+#mma = #triton_gpu.mma<{versionMajor = 2, versionMinor = 0, warpsPerCTA = [1, 4]}>\n+module attributes {\"triton_gpu.num-warps\" = 4 : i32} {\n+\n+// CHECK: #[[BA:.*]] = #triton_gpu.blocked<{sizePerThread = [1, 2], threadsPerWarp = [4, 8], warpsPerCTA = [4, 1], order = [1, 0]}>\n+// CHECK: #[[BB:.*]] = #triton_gpu.blocked<{sizePerThread = [2, 1], threadsPerWarp = [8, 4], warpsPerCTA = [1, 4], order = [0, 1]}>\n+// CHECK: #[[MMA:.*]] = #triton_gpu.mma<{versionMajor = 2, versionMinor = 0, warpsPerCTA = [1, 4]}>\n+\n+// CHECK: tt.func @update_kwidth_slice\n+// CHECK: %[[CST:.+]] = arith.constant dense<1.000000e+00> : tensor<16x16xf32, #triton_gpu.dot_op<{opIdx = 1, parent = #[[MMA]], kWidth = 2}>>\n+// CHECK: %[[ALOAD:.*]] = tt.load %{{.*}} {cache = 1 : i32, evict = 1 : i32, isVolatile = false} : tensor<16x16xf16, #[[BA]]>\n+// CHECK: %[[ACVT:.*]] = triton_gpu.convert_layout %[[ALOAD]] : (tensor<16x16xf16, #[[BA]]>) -> tensor<16x16xf16, #triton_gpu.dot_op<{opIdx = 0, parent = #[[MMA]], kWidth = 2}>>\n+// CHECK: %[[BLOAD:.*]] = tt.load %{{.*}} {cache = 1 : i32, evict = 1 : i32, isVolatile = false} : tensor<16x16xf16, #[[BB]]>\n+// CHECK: %[[BCVT:.*]] = triton_gpu.convert_layout %[[BLOAD]] : (tensor<16x16xf16, #[[BB]]>) -> tensor<16x16xf16, #triton_gpu.dot_op<{opIdx = 1, parent = #[[MMA]], kWidth = 2}>>\n+// CHECK: %[[AEXT:.*]] = arith.extf %[[ACVT]] : tensor<16x16xf16, #triton_gpu.dot_op<{opIdx = 0, parent = #[[MMA]], kWidth = 2}>> to tensor<16x16xf32, #triton_gpu.dot_op<{opIdx = 0, parent = #[[MMA]], kWidth = 2}>>\n+// CHECK: %[[BEXT:.*]] = arith.extf %[[BCVT]] : tensor<16x16xf16, #triton_gpu.dot_op<{opIdx = 1, parent = #[[MMA]], kWidth = 2}>> to tensor<16x16xf32, #triton_gpu.dot_op<{opIdx = 1, parent = #[[MMA]], kWidth = 2}>>\n+// CHECK: %[[ADD:.+]] = arith.addf %[[BEXT]], %[[CST]] : tensor<16x16xf32, #triton_gpu.dot_op<{opIdx = 1, parent = #[[MMA]], kWidth = 2}>>\n+// CHECK: tt.dot %[[AEXT]], %[[ADD]], %{{.*}} {allowTF32 = true} : tensor<16x16xf32, #triton_gpu.dot_op<{opIdx = 0, parent = #[[MMA]], kWidth = 2}>> * tensor<16x16xf32, #triton_gpu.dot_op<{opIdx = 1, parent = #[[MMA]], kWidth = 2}>> -> tensor<16x16xf32, #mma>\n+tt.func @update_kwidth_slice(\n+                   %pa: tensor<16x16x!tt.ptr<f16>, #blockedA> {tt.divisibility=16: i32, tt.contiguity=2 : i32},\n+                   %pb: tensor<16x16x!tt.ptr<f16>, #blockedB> {tt.divisibility=16: i32, tt.contiguity=2 : i32},\n+                   %c: tensor<16x16xf32, #mma>) -> tensor<16x16xf32, #mma>{\n+  %cst = arith.constant dense<1.000000e+00> : tensor<16x16xf32, #blockedB>\n+  %a = tt.load %pa {cache = 1 : i32, evict = 1 : i32, isVolatile = false} : tensor<16x16xf16, #blockedA>\n+  %b = tt.load %pb {cache = 1 : i32, evict = 1 : i32, isVolatile = false} : tensor<16x16xf16, #blockedB>\n+  %ae = arith.extf %a : tensor<16x16xf16, #blockedA> to tensor<16x16xf32, #blockedA>\n+  %be = arith.extf %b : tensor<16x16xf16, #blockedB> to tensor<16x16xf32, #blockedB>\n+  %add = arith.addf %be, %cst : tensor<16x16xf32, #blockedB>\n+  %al = triton_gpu.convert_layout %ae : (tensor<16x16xf32, #blockedA>) -> tensor<16x16xf32, #triton_gpu.dot_op<{opIdx = 0, parent = #mma, kWidth = 1}>>\n+  %bl = triton_gpu.convert_layout %add : (tensor<16x16xf32, #blockedB>) -> tensor<16x16xf32, #triton_gpu.dot_op<{opIdx = 1, parent = #mma, kWidth = 1}>>\n+  %r = tt.dot %al, %bl, %c {allowTF32 = true} : tensor<16x16xf32, #triton_gpu.dot_op<{opIdx = 0, parent = #mma, kWidth = 1}>> * tensor<16x16xf32, #triton_gpu.dot_op<{opIdx = 1, parent = #mma, kWidth = 1}>> -> tensor<16x16xf32, #mma>\n+  tt.return %r : tensor<16x16xf32, #mma>\n+}\n+\n+}"}, {"filename": "test/TritonGPU/loop-pipeline.mlir", "status": "modified", "additions": 65, "deletions": 0, "changes": 65, "file_content_changes": "@@ -432,3 +432,68 @@ tt.func @cross_iter_dep(%arg0: !tt.ptr<f32> {tt.divisibility = 16 : i32},\n   }\n   tt.return %119#0 : tensor<32x32xf32, #C>\n }\n+\n+// CHECK: tt.func @dep_arg_two_uses\n+// CHECK: tt.expand_dims\n+// CHECK: tt.expand_dims\n+// CHECK: tt.expand_dims %arg5\n+// CHECK-NEXT: tt.expand_dims %arg5\n+// CHECK: %[[PTR0:.*]] = tt.splat %arg6\n+// CHECK: %[[PTR1:.*]] = tt.addptr %[[PTR0]]\n+// CHECK-NEXT: tt.load %[[PTR1]]\n+tt.func @dep_arg_two_uses(%arg0: !tt.ptr<f16> {tt.divisibility = 16 : i32},\n+                          %arg1: !tt.ptr<i32> {tt.divisibility = 16 : i32},\n+                          %arg2: !tt.ptr<f16> {tt.divisibility = 16 : i32}) -> tensor<128x128xf32, #C> {\n+  %23 = arith.constant 100 : index\n+  %c64 = arith.constant 64 : i64\n+  %56 = tt.make_range {end = 32 : i32, start = 0 : i32} : tensor<32xi32, #triton_gpu.slice<{dim = 0, parent = #AL}>>\n+  %57 = tt.make_range {end = 32 : i32, start = 0 : i32} : tensor<32xi32, #triton_gpu.slice<{dim = 0, parent = #AL}>>\n+  %58 = tt.make_range {end = 32 : i32, start = 0 : i32} : tensor<32xi32, #triton_gpu.slice<{dim = 1, parent = #BL}>>\n+  %83 = tt.make_range {end = 32 : i32, start = 0 : i32} : tensor<32xi32, #triton_gpu.slice<{dim = 0, parent = #AL}>>\n+  %85 = tt.splat %c64 : (i64) -> tensor<1x32xi64, #AL>\n+  %86 = tt.splat %c64 : (i64) -> tensor<1x32xi64, #AL>\n+  %68 = tt.splat %arg0 : (!tt.ptr<f16>) -> tensor<128x32x!tt.ptr<f16>, #AL>\n+  %c32_index = arith.constant 32 : index\n+  %c32_i32 = arith.index_cast %c32_index : index to i32\n+  %80 = tt.splat %arg2 : (!tt.ptr<f16>) -> tensor<32x128x!tt.ptr<f16>, #BL>\n+  %cst_6 = arith.constant dense<0.000000e+00> : tensor<32x128xf32, #BL>\n+  %88 = arith.truncf %cst_6 : tensor<32x128xf32, #BL> to tensor<32x128xf16, #BL>\n+  %cst = arith.constant dense<0.000000e+00> : tensor<128x128xf32, #C>\n+  %90 = tt.splat %c64 : (i64) -> tensor<32x128xi64, #BL>\n+  %92 = tt.addptr %arg1, %c32_i32 : !tt.ptr<i32>, i32\n+  %c0_index = arith.constant 0 : index\n+  %91:5 = scf.for %arg19 = %c0_index to %23 step %c32_index iter_args(%arg20 = %68, %arg21 = %83, %arg22 = %92, %arg23 = %cst, %arg24 = %80) -> (tensor<128x32x!tt.ptr<f16>, #AL>, tensor<32xi32, #triton_gpu.slice<{dim = 0, parent = #AL}>>, !tt.ptr<i32>, tensor<128x128xf32, #C>, tensor<32x128x!tt.ptr<f16>, #BL>)   {\n+    %1750 = arith.subi %23, %arg19 : index\n+    %175 = arith.index_cast %1750 : index to i32\n+    %176 = tt.splat %175 : (i32) -> tensor<32xi32, #triton_gpu.slice<{dim = 0, parent = #AL}>>\n+    %177 = tt.splat %175 : (i32) -> tensor<32xi32, #triton_gpu.slice<{dim = 1, parent = #BL}>>\n+    %178 = \"triton_gpu.cmpi\"(%57, %176) <{predicate = 2 : i64}> : (tensor<32xi32, #triton_gpu.slice<{dim = 0, parent = #AL}>>, tensor<32xi32, #triton_gpu.slice<{dim = 0, parent = #AL}>>) -> tensor<32xi1, #triton_gpu.slice<{dim = 0, parent = #AL}>>\n+    %179 = \"triton_gpu.cmpi\"(%58, %177) <{predicate = 2 : i64}> : (tensor<32xi32, #triton_gpu.slice<{dim = 1, parent = #BL}>>, tensor<32xi32, #triton_gpu.slice<{dim = 1, parent = #BL}>>) -> tensor<32xi1, #triton_gpu.slice<{dim = 1, parent = #BL}>>\n+    %180 = tt.expand_dims %178 {axis = 0 : i32} : (tensor<32xi1, #triton_gpu.slice<{dim = 0, parent = #AL}>>) -> tensor<1x32xi1, #AL>\n+    %181 = tt.expand_dims %179 {axis = 1 : i32} : (tensor<32xi1, #triton_gpu.slice<{dim = 1, parent = #BL}>>) -> tensor<32x1xi1, #BL>\n+    %182 = tt.expand_dims %arg21 {axis = 0 : i32} : (tensor<32xi32, #triton_gpu.slice<{dim = 0, parent = #AL}>>) -> tensor<1x32xi32, #AL>\n+    %183 = tt.expand_dims %arg21 {axis = 0 : i32} : (tensor<32xi32, #triton_gpu.slice<{dim = 0, parent = #AL}>>) -> tensor<1x32xi32, #AL>\n+    %184 = arith.extsi %182 : tensor<1x32xi32, #AL> to tensor<1x32xi64, #AL>\n+    %185 = arith.extsi %183 : tensor<1x32xi32, #AL> to tensor<1x32xi64, #AL>\n+    %186 = arith.muli %184, %85 : tensor<1x32xi64, #AL>\n+    %187 = arith.muli %185, %86 : tensor<1x32xi64, #AL>\n+    %188 = tt.broadcast %186 : (tensor<1x32xi64, #AL>) -> tensor<128x32xi64, #AL>\n+    %189 = tt.broadcast %187 : (tensor<1x32xi64, #AL>) -> tensor<128x32xi64, #AL>\n+    %190 = tt.addptr %arg20, %188 : tensor<128x32x!tt.ptr<f16>, #AL>, tensor<128x32xi64, #AL>\n+    %191 = tt.addptr %arg20, %189 : tensor<128x32x!tt.ptr<f16>, #AL>, tensor<128x32xi64, #AL>\n+    %192 = tt.broadcast %180 : (tensor<1x32xi1, #AL>) -> tensor<128x32xi1, #AL>\n+    %193 = tt.load %191, %192 {cache = 1 : i32, evict = 1 : i32, isVolatile = false} : tensor<128x32xf16, #AL>\n+    %194 = tt.splat %arg22 : (!tt.ptr<i32>) -> tensor<32x!tt.ptr<i32>, #triton_gpu.slice<{dim = 0, parent = #AL}>>\n+    %195 = tt.addptr %194, %56 : tensor<32x!tt.ptr<i32>, #triton_gpu.slice<{dim = 0, parent = #AL}>>, tensor<32xi32, #triton_gpu.slice<{dim = 0, parent = #AL}>>\n+    %196 = tt.load %195 {cache = 1 : i32, evict = 1 : i32, isVolatile = false} : tensor<32xi32, #triton_gpu.slice<{dim = 0, parent = #AL}>>\n+    %197 = tt.addptr %arg22, %c32_i32 : !tt.ptr<i32>, i32\n+    %198 = tt.broadcast %181 : (tensor<32x1xi1, #BL>) -> tensor<32x128xi1, #BL>\n+    %199 = tt.load %arg24, %198, %88 {cache = 1 : i32, evict = 1 : i32, isVolatile = false} : tensor<32x128xf16, #BL>\n+    %200 = triton_gpu.convert_layout %193 : (tensor<128x32xf16, #AL>) -> tensor<128x32xf16, #triton_gpu.dot_op<{opIdx = 0, parent = #C, kWidth = 2}>>\n+    %201 = triton_gpu.convert_layout %199 : (tensor<32x128xf16, #BL>) -> tensor<32x128xf16, #triton_gpu.dot_op<{opIdx = 1, parent = #C, kWidth = 2}>>\n+    %202 = tt.dot %200, %201, %arg23 {allowTF32 = true} : tensor<128x32xf16, #triton_gpu.dot_op<{opIdx = 0, parent = #C, kWidth = 2}>> * tensor<32x128xf16, #triton_gpu.dot_op<{opIdx = 1, parent = #C, kWidth = 2}>> -> tensor<128x128xf32, #C>\n+    %203 = tt.addptr %arg24, %90 : tensor<32x128x!tt.ptr<f16>, #BL>, tensor<32x128xi64, #BL>\n+    scf.yield %190, %196, %197, %202, %203 : tensor<128x32x!tt.ptr<f16>, #AL>, tensor<32xi32, #triton_gpu.slice<{dim = 0, parent = #AL}>>, !tt.ptr<i32>, tensor<128x128xf32, #C>, tensor<32x128x!tt.ptr<f16>, #BL>\n+  }\n+  tt.return %91#3 : tensor<128x128xf32, #C>\n+}"}, {"filename": "test/TritonGPU/reorder-instructions.mlir", "status": "added", "additions": 32, "deletions": 0, "changes": 32, "file_content_changes": "@@ -0,0 +1,32 @@\n+// RUN: triton-opt %s -split-input-file -tritongpu-reorder-instructions | FileCheck %s\n+\n+// check that we don't hoist convert_layout above its operand definition.\n+// CHECK-LABEL: convert_cannot_hoist\n+//       CHECK:   %[[CVTS:.+]] = triton_gpu.convert_layout\n+//       CHECK:   triton_gpu.convert_layout %[[CVTS]]\n+//       CHECK:   tt.dot\n+#blocked = #triton_gpu.blocked<{sizePerThread = [1, 1], threadsPerWarp = [32, 1], warpsPerCTA = [1, 4], order = [0, 1]}>\n+#mma = #triton_gpu.mma<{versionMajor = 2, versionMinor = 0, warpsPerCTA = [2, 2]}>\n+#shared = #triton_gpu.shared<{vec = 8, perPhase = 1, maxPhase = 4, order = [0, 1]}>\n+module attributes {\"triton_gpu.num-warps\" = 4 : i32, \"triton_gpu.threads-per-warp\" = 32 : i32} {\n+  tt.func public @convert_cannot_hoist(%arg0: !tt.ptr<f32> {tt.divisibility = 16 : i32}) attributes {noinline = false} {\n+    %cst = arith.constant dense<0.000000e+00> : tensor<32x32xf32, #mma>\n+    %cst_0 = arith.constant dense<1.230000e+02> : tensor<32x32xf32, #triton_gpu.dot_op<{opIdx = 1, parent = #mma, kWidth = 1}>>\n+    %0 = tt.make_range {end = 32 : i32, start = 0 : i32} : tensor<32xi32, #triton_gpu.slice<{dim = 1, parent = #blocked}>>\n+    %1 = tt.expand_dims %0 {axis = 1 : i32} : (tensor<32xi32, #triton_gpu.slice<{dim = 1, parent = #blocked}>>) -> tensor<32x1xi32, #blocked>\n+    %2 = tt.make_range {end = 32 : i32, start = 0 : i32} : tensor<32xi32, #triton_gpu.slice<{dim = 0, parent = #blocked}>>\n+    %3 = tt.expand_dims %2 {axis = 0 : i32} : (tensor<32xi32, #triton_gpu.slice<{dim = 0, parent = #blocked}>>) -> tensor<1x32xi32, #blocked>\n+    %4 = tt.broadcast %1 : (tensor<32x1xi32, #blocked>) -> tensor<32x32xi32, #blocked>\n+    %5 = tt.broadcast %3 : (tensor<1x32xi32, #blocked>) -> tensor<32x32xi32, #blocked>\n+    %6 = arith.addi %4, %5 : tensor<32x32xi32, #blocked>\n+    %7 = tt.splat %arg0 : (!tt.ptr<f32>) -> tensor<32x32x!tt.ptr<f32>, #blocked>\n+    %8 = tt.addptr %7, %6 : tensor<32x32x!tt.ptr<f32>, #blocked>, tensor<32x32xi32, #blocked>\n+    %9 = tt.load %8 {cache = 1 : i32, evict = 1 : i32, isVolatile = false} : tensor<32x32xf32, #blocked>\n+    %10 = triton_gpu.convert_layout %9 : (tensor<32x32xf32, #blocked>) -> tensor<32x32xf32, #shared>\n+    %11 = triton_gpu.convert_layout %10 : (tensor<32x32xf32, #shared>) -> tensor<32x32xf32, #triton_gpu.dot_op<{opIdx = 0, parent = #mma, kWidth = 1}>>\n+    %12 = tt.dot %11, %cst_0, %cst {allowTF32 = true} : tensor<32x32xf32, #triton_gpu.dot_op<{opIdx = 0, parent = #mma, kWidth = 1}>> * tensor<32x32xf32, #triton_gpu.dot_op<{opIdx = 1, parent = #mma, kWidth = 1}>> -> tensor<32x32xf32, #mma>\n+    %13 = triton_gpu.convert_layout %12 : (tensor<32x32xf32, #mma>) -> tensor<32x32xf32, #blocked>\n+    tt.store %8, %13 {cache = 1 : i32, evict = 1 : i32} : tensor<32x32xf32, #blocked>\n+    tt.return\n+  }\n+}"}]